BEST_UNIQUE_MODELS/PRODUCTION/06_MODEL_ROUTING/ModelRouter_Meta_optimized.onnx (onnx, 197970 bytes, 16 tensors)

encoder.0.weights f4 [126, 128]
0.06357516 -0.69095564 0.2796573 -0.885706 -0.25078604 -0.7652793 -2.8889885 -0.09891625
-1.4020321 -0.0786009 1.161563 -0.37413168 -2.7382772 0.96658367 -0.17119963 0.37116304
-0.01992433 -3.055081 -2.347288 -0.6332151 -0.13743103 -0.12619375 0.5783201 0.24571565
0.13883185 0.24928398 0.16934383 -2.6539373 0.33826724 0.040770866 -2.421898 0.15976663
-0.17516181 0.29292282 7.2164934e-05 0.392103 -0.0037610014 -0.9124851 -0.3365493 0.4133032
-0.09805703 0.8511514 -0.09184983 0.10815199 -0.2058761 -0.52690125 0.123486735 -0.59292716
0.46027067 0.39611387 0.45328486 0.80781525 0.17399491 0.4252949 -0.12836774 0.6147307
0.41858295 -0.17934737 0.0043301126 0.21284607 -0.109159134 2.4541874 -2.3514438 -0.58741105
-0.9373844 0.059667222 0.13937758 -0.111793675 -0.51879835 1.512803 -0.010950324 0.6112999
-0.71001434 -0.2790193 0.4027912 0.45955363 -2.7417068 0.016537955 -2.9287958 0.6104383
2.7832723 -0.66563755 0.7518253 1.1857282 -0.08287634 -0.16452822 -0.29216516 -0.223346
-0.3633977 0.39066228 0.12178923 0.28278962 -0.07820712 -0.24109706 0.11539217 -0.29074854
0.7012908 -0.3014135 0.02916023 2.034388 0.019020407 -1.5274086 -0.36193022 0.23474693
-0.12899962 -1.552541 1.1941615 -0.5576375 0.15334454 -0.79192305 0.5287032 -0.1820503
-0.555829 0.666318 2.3373888 -1.6749918 -0.5472552 -0.41949776 0.116997294 -0.20432274
-0.08756856 1.31199 -0.3783564 -0.22874247 0.4337463 -2.1131697 0.11122346 -0.085478015
0.07454295 -0.59048855 0.35299373 -0.5526817 -0.44931716 -0.7649305 -2.9212985 0.058775052
-1.4429206 -0.18689956 1.2285726 -0.14124528 -2.7041872 0.9087365 0.1107823 0.43981415
0.21799524 -3.0824187 -2.2898138 -0.640437 -0.22272833 -0.09350516 0.3374465 0.3227445
0.14043823 0.25807318 0.07864762 -2.5861604 0.438952 0.026030818 -2.413238 0.23045462
-0.12384791 0.23262219 0.12414425 0.49195105 -0.115692675 -0.69832414 -0.49651515 0.38595358
0.017855758 0.76503307 -0.3421075 0.2450128 -0.4732235 -0.44936556 0.10418092 -0.397539
0.3527078 0.13758293 0.34453166 0.8562982 0.01358036 0.29608577 -0.10358726 0.45533204
0.27966684 -0.20805049 0.22569361 0.28480268 -0.076101296 2.401511 -2.208593 -0.37206534
-1.0182089 -0.00077790656 0.174309 -0.047359064 -0.53631073 1.4623893 0.16081823 0.6124634
-0.7119289 -0.501338 0.4458068 0.53747064 -2.7309482 0.097067006 -2.8104002 0.586577
2.8117878 -0.45177275 0.7149438 1.3659878 0.010611414 -0.39226145 -0.10418753 -0.43961108
-0.38667557 0.38670424 -0.044307478 0.50863475 -0.14830077 -0.09114806 0.068323664 -0.28316283
0.5164817 -0.091083296 0.028029937 2.0395014 -0.0475228 -1.5384928 -0.38549063 0.25836453
-0.19187592 -1.6152093 1.2947611 -0.14394733 0.16347097 -0.6949564 0.35966533 -0.11856584
-0.2600173 0.82714707 2.3762105 -1.6550918 -0.30077276 -0.58137 0.21911864 -0.19748738
-0.19199249 1.3911909 -0.33995873 -0.2544384 0.36332172 -2.0059748 0.05074129 0.064334534
00000000: b233 823d 78e2 30bf 3e2f 8f3e a1bd 62bf
00000010: 0767 80be 58e9 43bf 30e5 38c0 9a94 cabd
00000020: ca75 b3bf 82f9 a0bd 19ae 943f 308e bfbe
00000030: ef3f 2fc0 0772 773f f54e 2fbe 1509 be3e
00000040: 5938 a3bc 7286 43c0 f739 16c0 631a 22bf
00000050: b8ba 0cbe ef38 01be c90c 143f e29c 7b3e
00000060: f029 0e3e 4d44 7f3e 7868 2d3e 1cda 29c0
00000070: 5d31 ad3e 5aff 263d 6000 1bc0 dd99 233e
00000080: 9e5d 33be fbf9 953e 4157 9738 b9c1 c83e
00000090: 227b 76bb a098 69bf 3150 acbe 7a9c d33e
000000a0: 20d2 c8bd 0fe5 593f c31b bcbd ca7e dd3d
000000b0: 2fd1 52be 00e3 06bf 9de6 fc3d 13ca 17bf
000000c0: 99a8 eb3e 70cf ca3e f414 e83e fbcc 4e3f
000000d0: b92b 323e 41c0 d93e d572 03be fe5e 1d3f
000000e0: 8150 d63e d6a6 37be 9ee3 8d3b 52f4 593e
000000f0: d38e dfbd 6811 1d40 0e7e 16c0 9260 16bf
00000100: 6df8 6fbf 9e65 743d ffb8 0e3e 15f4 e4bd
00000110: f8cf 04bf 87a3 c13f fd68 33bc 267e 1c3f
00000120: 80c3 35bf 9edb 8ebe a63a ce3e 9d4a eb3e
00000130: 2078 2fc0 9b7a 873c 6471 3bc0 af45 1c3f
00000140: 2221 3240 3967 2abf 9f77 403f f1c5 973f
00000150: 12bb a9bd 167a 28be ac96 95be d0b4 64be
00000160: 430f babe e304 c83e a26c f93d cdc9 903e
00000170: 0e2b a0bd 26e2 76be bb52 ec3d fedc 94be
00000180: cb87 333f df52 9abe 6fe1 ee3c 6a33 0240
00000190: afd0 9b3c 2082 c3bf eb4e b9be 8061 703e
000001a0: 7a18 04be aab9 c6bf 49da 983f 55c1 0ebf
000001b0: 5a06 1d3e 78bb 4abf 1859 073f 656b 3abe
000001c0: cf4a 0ebf d193 2a3f c797 1540 2266 d6bf
000001d0: eb18 0cbf 69c8 d6be 479c ef3d fb39 51be
000001e0: 2557 b3bd 4aef a73f eeb7 c1be 773b 6abe
000001f0: ff13 de3e 2c3e 07c0 20c9 e33d 190f afbd
00000200: f9a9 983d 422a 17bf 98bb b43e 8c7c 0dbf
00000210: e60c e6be 7cd2 43bf 8ef6 3ac0 1cbe 703d
00000220: 9fb1 b8bf 9962 3fbe de41 9d3f 9aa2 10be
00000230: 6711 2dc0 f5a2 683f d5e1 e23d 522f e13e
00000240: 253a 5f3e 5946 45c0 4f8c 12c0 aef3 23bf
00000250: e512 64be a27f bfbd cac5 ac3e c43e a53e
00000260: 0acf 0f3e 2b22 843e 0112 a13d a783 25c0
00000270: 51be e03e 953e d53c 7e72 1ac0 4cfc 6b3e
00000280: f9a3 fdbd 8334 6e3e 573f fe3d 02e1 fb3e
00000290: 48f0 ecbd 5fc5 32bf 3c37 febe b59b c53e
000002a0: 3d46 923c 35d9 433f b728 afbe a3e4 7a3e
000002b0: 5a4a f2be 3e13 e6be ce5c d53d 3b8a cbbe
000002c0: 1e96 b43e 8ae2 0c3e 7466 b03e 5c36 5b3f
000002d0: 2980 5e3c 8e98 973e 8f25 d4bd 4821 e93e
000002e0: 7e30 8f3e 300b 55be 3a1c 673e a8d1 913e
000002f0: ffda 9bbd 5bb2 1940 9659 0dc0 597f bebe
00000300: ab54 82bf 6dec 4bba 0f7e 323e 94fb 41bd
00000310: a94b 09bf 932f bb3f 89ad 243e 67ca 1c3f
00000320: f940 36bf b057 00bf ca40 e43e ad97 093f
00000330: dbc7 2ec0 11cb c63d 99dd 33c0 e929 163f
00000340: 55f4 3340 c24e e7be 8f06 373f b0d8 ae3f
00000350: 7fdb 2d3c 7ed6 c8be 4660 d5bd b414 e1be
00000360: 57fa c5be 19fe c53e c27b 35bd e335 023f
00000370: 28dc 17be d6ab babd 47ed 8b3d b8fa 90be
00000380: 2538 043f e189 babd 0a9f e53c 3187 0240
00000390: 44a7 42bd 55ed c4bf 075f c5be 5b48 843e
000003a0: 1f7b 44be 2ebf cebf bbba a53f ee66 13be
000003b0: ef64 273e aae8 31bf 0e26 b83e a6d2 f2bd
000003c0: fd20 85be e9bf 533f d513 1840 0cda d3bf
000003d0: e3fe 99be aad4 14bf a360 603e 223a 4abe
000003e0: ae99 44be 8b12 b23f 120f aebe c045 82be
000003f0: 4e05 ba3e e461 00c0 19d6 4f3d d3c1 833d

encoder.0.phases f4 [128]
1.3512653 1.3173468 -0.81320095 0.98547226 1.4035288 1.0120662 0.60656285 1.4920661
-1.1739435 1.4219133 -1.3231903 1.4408306 0.806512 -1.3726815 -0.858222 -1.622142
-1.5639404 0.3110448 0.46874478 1.398781 1.1931986 1.3455601 0.310949 -1.4031749
-1.3161054 1.4319557 -1.5094253 0.8425056 -1.6466697 1.601909 1.2183412 -1.045447
-1.4197729 -1.6478602 0.811516 -1.0893176 0.7178042 1.1017629 1.5277206 -1.3589135
1.0903227 -0.5357225 1.5015788 1.2825565 -1.4239402 1.3121277 -0.90515643 1.5679592
-0.89873034 -1.4853356 -1.2974818 -1.510515 1.337989 -1.5783333 1.0335392 -1.146751
-0.51270896 -1.1415638 -1.2129077 -1.5404825 0.8883196 -0.8313139 0.8908022 1.581258
-0.935021 -1.4799275 -1.3521998 1.3724595 1.4618607 0.41509593 -1.5230321 -1.2155118
0.9511428 1.2172227 -1.5891174 -1.52977 0.97520036 1.2536589 0.46559504 1.1578957
-0.41621494 1.2801399 -1.5565393 0.5065529 -0.65169555 -1.6408734 1.0501562 1.5170137
1.4021521 -1.2898879 1.329271 -1.359248 1.4367019 1.5894793 1.1787059 1.4469783
1.3580769 -0.8857396 1.6198308 -0.5017132 -0.5927673 0.15427707 -1.0645598 -1.516872
1.2304932 0.22448479 1.1491151 1.3462095 -1.4472952 1.4929591 -1.4858142 1.4397097
1.3821436 -1.0546682 -0.6572424 0.8094097 1.167418 1.5602372 -1.2550184 1.3292981
1.5130734 -1.3016782 -0.2225131 -1.511149 -1.0722063 0.06323712 -1.5133274 1.1845545
00000000: 43f6 ac3f d29e a83f f02d 50bf e947 7c3f
00000010: d5a6 b33f 638b 813f b447 1b3f 06fc be3f
00000020: c843 96bf 4101 b63f 4d5e a9bf 236d b83f
00000030: 9277 4e3f 07b4 afbf 70b4 5bbf 59a2 cfbf
00000040: 332f c8bf 4441 9f3e 51ff ef3e 410b b33f
00000050: bbba 983f 503b ac3f b534 9f3e 3c9b b3bf
00000060: 2476 a8bf 534a b73f d934 c1bf 72ae 573f
00000070: 13c6 d2bf 5b0b cd3f 9bf2 9b3f 35d1 85bf
00000080: 1ebb b5bf 15ed d2bf 83bf 4f3f c26e 8bbf
00000090: 04c2 373f 9106 8d3f 598c c33f e1f0 adbf
000000a0: b28f 8b3f 1c25 09bf bc33 c03f d02a a43f
000000b0: ac43 b6bf cdf3 a73f 55b8 67bf e3b2 c83f
000000c0: 3113 66bf 7a1f bebf e213 a6bf 8e58 c1bf
000000d0: 3943 ab3f d306 cabf 034b 843f bdc8 92bf
000000e0: e540 03bf c31e 92bf 8f40 9bbf 882e c5bf
000000f0: ea68 633f fdd0 54bf 9d0b 643f aa66 ca3f
00000100: 895d 6fbf 446e bdbf e214 adbf c1ac af3f
00000110: 401e bb3f 7487 d43e b7f2 c2bf e495 9bbf
00000120: 187e 733f f4cd 9b3f 3368 cbbf 81cf c3bf
00000130: bba6 793f e577 a03f 7962 ee3e ed35 943f
00000140: 201a d5be a0db a33f ae3c c7bf 73ad 013f
00000150: 85d5 26bf 2408 d2bf 856b 863f 812d c23f
00000160: b879 b33f 0c1b a5bf 8d25 aa3f d7fb adbf
00000170: d9e5 b73f 0f74 cb3f d6df 963f 9636 b93f
00000180: 77d5 ad3f d5bf 62bf 9e56 cf3f 4770 00bf
00000190: 99bf 17bf cffa 1d3e 7f43 88bf dd28 c2bf
000001a0: cd80 9d3f 57df 653e 3416 933f 9850 ac3f
000001b0: f840 b9bf 4919 bf3f 292f bebf 6848 b83f
000001c0: 15ea b03f 5eff 86bf 0a41 28bf 7935 4f3f
000001d0: f46d 953f dab5 c73f 71a4 a0bf 7126 aa3f
000001e0: 64ac c13f 649d a6bf 79da 63be 556d c1bf
000001f0: 0e3e 89bf 7782 813d b6b4 c1bf 7b9f 973f

encoder.0.entanglement f4 [128, 128]
-0.7520331 0.1002921 0.053694718 -0.024232857 0.059437137 0.08006321 -0.16607206 -0.19409977
0.027189584 -0.08855303 -0.30432078 0.07860663 0.013434579 0.013820912 0.048977897 0.07275898
-0.13259485 0.21700837 0.05242727 0.2368065 0.12147614 0.19161414 0.08802402 -0.23982699
-0.1310115 0.020300595 0.033099003 -0.028410412 0.09473137 0.10285861 0.11609691 0.21774161
0.026540719 -0.31100583 0.43624282 -0.2201883 0.14250022 -0.01988378 -0.078936644 -0.12206753
0.0106836995 -0.16218162 -0.29327524 0.03632902 0.1996073 -0.043839976 0.090393335 -0.008582739
-0.11991535 -0.3029296 0.16675688 0.018872434 0.25628433 -0.19266182 -0.2507046 -0.3451199
0.24870071 -0.2256467 -0.13227688 -0.20876783 -0.14519541 0.16815849 -0.360385 0.01769449
-0.30836514 0.29158837 -0.2920821 0.34940624 0.07413144 0.10343935 0.054015636 -0.12921348
0.19652013 0.041816268 -0.18174164 -0.11709481 -0.11233066 0.069528624 -0.12222595 0.07473488
-0.16602983 0.20898387 0.19613883 0.1357877 0.08469356 0.2660691 -0.22693858 -0.08688709
0.08339865 -0.045454778 -0.022667557 -0.39271757 -0.024692746 0.025350608 0.28559938 -0.26498875
-0.24458852 -0.1568017 0.054937884 -0.17239994 -0.00029591258 0.30197412 0.05661714 -0.36709532
0.002860311 -0.047478434 0.096578434 0.048715405 0.25436747 0.011348876 -0.104338706 0.06619648
0.1591755 -0.39482763 -0.15800487 0.1630802 -0.37792063 -0.3139777 -0.0010159248 -0.18381889
0.1876633 -0.15250275 0.27662334 0.201483 -0.13031203 0.31920493 0.25715566 -0.082988955
-0.4483853 0.54826725 0.112677805 0.24764375 0.7715868 0.46725518 0.015600216 0.048024178
-0.35962093 -0.29054976 -0.61078876 0.23943762 0.5101955 -0.60953665 -0.05004238 -0.1944725
-0.02318223 0.10789924 0.37641564 0.24077448 0.09145479 -0.12169719 0.26095155 -0.1500823
-0.54200137 -0.05498005 0.17623767 0.23354034 -0.269219 0.3445125 0.32483938 -0.30062672
0.084868394 -0.091359325 -0.1006009 0.014675192 0.39601827 0.12965283 -0.0085328305 -0.020433486
0.17874132 -0.4292304 0.17454818 0.17704128 -0.04713258 -0.03208855 0.0615058 0.39292923
0.06543534 0.28350735 -0.0040829 -0.074009486 -0.28909782 -0.5740357 0.3327748 0.28470263
-0.27563643 -0.3610966 -0.21257447 -0.5633727 -0.2568872 0.053589765 0.02803899 0.18009695
0.4990897 -0.07446882 0.37339017 -0.33682528 -0.054919116 0.6734264 0.40393022 -0.26465842
-0.55619425 0.030748947 -0.28398317 -0.021188766 0.33697805 -0.093545966 0.21137059 -0.018382007
-0.32757378 0.2909402 -0.15493575 0.3408716 -0.10019663 -0.13778765 0.47514966 0.16134432
0.15350837 0.08022544 0.012319853 -0.40254018 0.1743339 -0.059030395 -0.30637378 0.35458094
0.47860527 -0.017355315 0.24443188 -0.05820591 0.096552365 -0.019171555 -0.32993436 0.12406645
-0.505345 -0.29876134 0.18233736 0.15872203 -0.06165283 -0.06398112 -0.41625503 -0.18019845
0.36420092 0.3088185 -0.2714157 0.078604795 0.373464 0.26089257 -0.23152898 0.41819388
0.04194082 0.03100464 0.27303606 -0.27836996 -0.31876817 0.11538389 0.19127427 0.4963195
00000000: 3e85 40bf f265 cd3d feee 5b3d fc83 c6bc
00000010: 5b74 733d 2ef8 a33d cb0e 2abe 17c2 46be
00000020: b1bc de3c 4a5b b5bd efcf 9bbe 83fc a03d
00000030: b51c 5c3c 1b71 623c 0c9d 483d a902 953d
00000040: f2c6 07be 7137 5e3e fabd 563d 677d 723e
00000050: 7cc8 f83d 7f36 443e f045 b43d 3595 75be
00000060: e127 06be 6f4d a63c d292 073d f4bc e8bc
00000070: 8502 c23d 89a7 d23d 37c4 ed3d a8f7 5e3e
00000080: ec6b d93c 283c 9fbe 385b df3e 0b79 61be
00000090: 94eb 113e 4fe3 a2bc 89a9 a1bd 8bfe f9bd
000000a0: af0a 2f3c f012 26be 2c28 96be bdcd 143d
000000b0: db65 4c3e 8c91 33bd 2420 b93d 9e9e 0cbc
000000c0: 2e96 f5bd 9719 9bbe 51c2 2a3e 5d9a 9a3c
000000d0: b337 833e 2449 45be 5a5c 80be 8eb3 b0be
000000e0: 66ab 7e3e ee0f 67be 9773 07be 3cc7 55be
000000f0: 1bae 14be bd31 2c3e 6284 b8be 09f4 903c
00000100: 09e2 9dbe 124b 953e c98b 95be 60e5 b23e
00000110: 39d2 973d 03d8 d33d 803f 5d3d 8a50 04be
00000120: 933c 493e 8947 2b3d 7b1a 3abe 67cf efbd
00000130: 9e0d e6bd 0665 8e3d 9951 fabd 9a0e 993d
00000140: b903 2abe deff 553e 9ed8 483e ee0b 0b3e
00000150: d173 ad3d 363a 883e 9662 68be dcf1 b1bd
00000160: e9cc aa3d ca2e 3abd 50b1 b9bc 4712 c9be
00000170: 7148 cabc 14ac cf3c 153a 923e 9bac 87be
00000180: 6a75 7abe a090 20be 8c06 613d 9c89 30be
00000190: b724 9bb9 5a9c 9a3e 60e7 673d ebf3 bbbe
000001a0: 0e74 3b3b bf78 42bd eaca c53d ce89 473d
000001b0: 743c 823e a3f0 393c 88af d5bd 0592 873d
000001c0: e7fe 223e d926 cabe 07cc 21be 7ffe 263e
000001d0: d07e c1be afc1 a0be c828 85ba 053b 3cbe
000001e0: cf2a 403e ae29 1cbe 93a1 8d3e 8f51 4e3e
000001f0: 8470 05be d46e a33e e8a9 833e 1df6 a9bd
00000200: c292 e5be 3e5b 0c3f 9fc3 e63d 5396 7d3e
00000210: b686 453f 123c ef3e 0c98 7f3c 00b5 443d
00000220: 3c20 b8be f0c2 94be a75c 1cbf 232f 753e
00000230: 2c9c 023f 980a 1cbf 3df9 4cbd cd23 47be
00000240: a9e8 bdbc 47fa dc3d 8db9 c03e 968d 763e
00000250: a64c bb3d 603c f9bd 719b 853e 2daf 19be
00000260: 9ac0 0abf c332 61bd a677 343e 3325 6f3e
00000270: 13d7 89be f163 b03e 5951 a63e bfeb 99be
00000280: 7bcf ad3d 991a bbbd d807 cebd 3770 703c
00000290: e8c2 ca3e b6c3 043e 49cd 0bbc 2064 a7bc
000002a0: f707 373e 16c4 dbbe c2bc 323e 4f4a 353e
000002b0: 180e 41bd 496f 03bd 81ed 7b3d 052e c93e
000002c0: f702 863d e027 913e d9c9 85bb 4992 97bd
000002d0: a104 94be 01f4 12bf 7561 aa3e 8bc4 913e
000002e0: 3820 8dbe a7e1 b8be 1fad 59be 3139 10bf
000002f0: b886 83be f180 5b3d 06b2 e53c 566b 383e
00000300: af88 ff3e 1c83 98bd ff2c bf3e 5d74 acbe
00000310: def2 60bd ac65 2c3f f1cf ce3e 4f81 87be
00000320: bf62 0ebf 37e5 fb3c 3e66 91be 1094 adbc
00000330: 6388 ac3e 0795 bfbd 8871 583e dd95 96bc
00000340: c0b7 a7be 1df6 943e 7aa7 1ebe b986 ae3e
00000350: e433 cdbd 3518 0dbe d146 f33e 7237 253e
00000360: 4c31 1d3e 3c4d a43d 35d9 493c bf19 cebe
00000370: 9684 323e dbc9 71bd 06dd 9cbe a28b b53e
00000380: c00b f53e bc2c 8ebc 5a4c 7a3e 5269 6ebd
00000390: 3fbd c53d aa0d 9dbc 28ed a8be 8d16 fe3d
000003a0: 4a5e 01bf 3ff7 98be a5b6 3a3e 0788 223e
000003b0: ae87 7cbd 8908 83bd 611f d5be f185 38be
000003c0: 8b78 ba3e 751d 9e3e 00f7 8abe 8dfb a03d
000003d0: ac36 bf3e b693 853e ef15 6dbe 821d d63e
000003e0: 23ca 2b3d 71fd fd3c 62cb 8b3e 8286 8ebe
000003f0: 9535 a3be 644e ec3d 67dd 433e 971d fe3e

encoder.2.weights f4 [128, 64]
-0.013305655 0.14159039 -0.23841539 0.15040375 -0.22084685 0.1404628 -0.04709782 0.29728815
-0.21005835 0.24789666 -0.38567838 -0.050723355 0.16252165 -0.21720007 -0.08488913 0.2712578
-0.36425766 -0.23866269 -0.21595056 0.09810388 0.08636605 -0.026997725 -0.47376224 -0.013365625
0.20024985 0.20077026 0.089252174 -0.2771685 0.06682333 -0.19748276 -0.13710006 -0.12575816
-0.34151807 0.4046692 -0.14011398 -0.12748194 0.46549472 -0.22844562 -0.12376241 0.05236785
0.05287555 0.080153696 -0.2598202 -0.016026173 0.502933 0.25353935 0.0067962017 -0.08983359
0.16415931 -0.004727093 0.25640965 -0.10038209 -0.04238103 0.40193507 0.24279694 -0.17726994
0.15435483 -0.045167726 0.554828 -0.6047915 -0.1316621 -0.038386926 0.17907454 0.14270452
0.7883017 -0.43667093 0.1545263 -0.26357114 0.025895089 -0.1185099 -0.20303796 -0.17078339
-0.08291241 -0.542304 0.06110815 0.013253864 -0.5404579 0.073176086 0.5147407 -0.4145008
0.538509 0.071465164 0.042724315 -0.49521273 0.22145623 0.1564713 0.5573412 0.34731925
-0.015721673 -0.28595173 0.15817842 0.43643388 0.05876272 0.284147 0.037000816 -0.19516557
0.24136487 -0.12632859 -0.11358066 -0.35248443 -0.19267279 0.13595706 -0.13375688 0.03791893
-0.25750566 0.15245937 0.41181132 0.1512982 -0.09251667 -0.124845535 0.6439185 -0.026149256
0.018901473 0.280799 -0.101550795 0.3216005 0.3100689 0.15205786 -0.41861326 -0.011347957
-0.37155426 0.14812516 -0.5928527 0.2136658 0.02641012 -0.46927193 -0.26470757 0.06347583
0.065051794 -0.13401978 -0.088252306 -0.10995552 -0.033674944 0.10544364 -0.1127154 -0.16307074
0.0027904557 -0.32935822 -0.15757206 0.16554481 -0.19536601 0.18867029 -0.29755074 -0.062099468
0.20474654 -0.047601566 0.13414532 -0.33819157 0.18247607 0.16436838 0.36228478 -0.18805544
-0.1811574 0.011195054 -0.023298888 0.3157511 -0.18067612 0.15952289 0.058158103 -0.011584561
-0.17853214 -0.37397164 0.37824655 0.23673499 -0.416395 0.1281736 -0.030718459 0.012450019
-0.34718633 -0.06463644 0.36982208 0.12045824 0.07295313 -0.0090674395 0.22311555 -0.12218346
-0.20123532 0.06145825 -0.5960015 0.24226919 -0.11589465 -0.30983457 -0.08004638 0.28908774
0.007738144 0.02973405 -0.60377556 0.06449158 0.09580543 -0.1098644 -0.45654038 -0.10616039
0.30473566 0.06826642 -0.18762764 -0.12760417 0.26479715 0.10069369 -0.15485726 -0.09792525
0.0981542 -0.13395011 0.31257582 -0.16444455 -0.11866254 -0.12093881 0.19580875 0.029469492
0.12108652 0.113939226 0.24024151 -0.10692063 0.13905194 0.12987396 0.43333018 -0.014563728
0.18256058 -0.23879431 0.2563071 0.08942599 0.07907493 -0.26760793 -0.40906742 0.22897199
-0.078836784 -0.09484789 -0.19687687 0.027611015 -0.21352442 0.071478836 -0.23061931 0.2994282
-0.03717022 -0.10716216 0.1580705 -0.1810852 0.09198681 0.08177303 -0.0082181115 -0.058912948
-0.23674856 0.13841513 -0.066424556 -0.06323244 0.22313464 0.0097839255 -0.28377554 0.07235129
-0.07471484 0.012259046 -0.23904005 0.4689825 0.124921374 -0.002263034 -0.4058771 -0.10932711
00000000: f6ff 59bc 12fd 103e 2a23 74be 7103 1a3e
00000010: ad25 62be 7bd5 0f3e a5e9 40bd 2736 983e
00000020: 8919 57be 9fd8 7d3e a377 c5be 4bc3 4fbd
00000030: 136c 263e b269 5ebe 5ada adbd 4de2 8a3e
00000040: fb7f babe fe63 74be 2522 5dbe b0ea c83d
00000050: afe0 b03d 552a ddbc f790 f2be 7ffb 5abc
00000060: 4c0e 4d3e b896 4d3e d8c9 b63d 08e9 8dbe
00000070: acda 883d ec38 4abe f563 0cbe bfc6 00be
00000080: 75db aebe cd30 cf3e 0a7a 0fbe a08a 02be
00000090: 5355 ee3e a6ed 69be 2577 fdbd ac7f 563d
000000a0: 0894 583d 9f27 a43d 2707 85be 5249 83bc
000000b0: 38c0 003f e9cf 813e acb2 de3b acfa b7bd
000000c0: 6119 283e bbe5 9abb 2048 833e 2095 cdbd
000000d0: bb97 2dbd 6fca cd3e c39f 783e 4086 35be
000000e0: 310f 1e3e cb01 39bd 3509 0e3f 9ed3 1abf
000000f0: 6ed2 06be 9c3b 1dbd 515f 373e 2221 123e
00000100: 24ce 493f 5593 dfbe 243c 1e3e ccf2 86be
00000110: f021 d43c 52b5 f2bd 2fe9 4fbe d7e1 2ebe
00000120: fbcd a9bd 6fd4 0abf 8a4c 7a3d bc26 593c
00000130: 735b 0abf 58dd 953d 0cc6 033f 7339 d4be
00000140: badb 093f 545c 923d b1ff 2e3d 868c fdbe
00000150: 6cc5 623e 033a 203e eaad 0e3f d4d3 b13e
00000160: bdca 80bc 4468 92be 86f9 213e 4374 df3e
00000170: 2eb1 703d b77b 913e 2b8e 173d 7cd9 47be
00000180: 5a28 773e 485c 01be fa9c e8bd d778 b4be
00000190: 044c 45be 5438 0b3e 90f7 08be e150 1b3d
000001a0: c8d7 83be 4f1e 1c3e efd8 d23e eaed 1a3e
000001b0: 6179 bdbd 04af ffbd d8d7 243f f736 d6bc
000001c0: 43d7 9a3c e3c4 8f3e ddf9 cfbd d2a8 a43e
000001d0: 5ac1 9e3e 0eb5 1b3e 7a54 d6be c8ec 39bc
000001e0: 5c3c bebe 1fae 173e 32c5 17bf 35cb 5a3e
000001f0: 095a d83c 6944 f0be c087 87be 9eff 813d
00000200: e039 853d 7b3c 09be a0bd b4bd 5c30 e1bd
00000210: bdee 09bd d6f2 d73d 55d7 e6bd 04fc 26be
00000220: 14e0 363b a4a1 a8be 925a 21be 9484 293e
00000230: 070e 48be c932 413e 9258 98be 035c 7ebd
00000240: 14a9 513e dcf9 42bd 645d 093e 7227 adbe
00000250: 02db 3a3e 2f50 283e 647d b93e 9b91 40be
00000260: 5381 39be 766b 373c 4fdd bebc 21aa a13e
00000270: 2903 39be f859 233e 3137 6e3d 2ccd 3dbc
00000280: 21d1 36be 3679 bfbe 88a9 c13e a86a 723e
00000290: ba31 d5be f13f 033e 47a5 fbbc 2afb 4b3c
000002a0: 68c2 b1be 1c60 84bd 5259 bd3e cfb2 f63d
000002b0: 7368 953d 998f 14bc 6778 643e 523b fabd
000002c0: a210 4ebe a5bb 7b3d 8e93 18bf 6a15 783e
000002d0: 2d5a edbd a3a2 9ebe 5bef a3bd 4f03 943e
000002e0: 4290 fd3b d394 f33c 0991 1abf 2914 843d
000002f0: a335 c43d 9600 e1bd a9bf e9be 9e6a d9bd
00000300: 5006 9c3e 44cf 8b3d 7621 40be abaa 02be
00000310: 7e93 873e 7e38 ce3d e792 1ebe 098d c8bd
00000320: 1205 c93d 382a 09be f009 a03e 2764 28be
00000330: 5905 f3bd c4ae f7bd 1782 483e 016a f13c
00000340: 36fc f73d f858 e93d df01 763e 34f9 dabd
00000350: a263 0e3e aefd 043e 74dd dd3e b49c 6ebc
00000360: 29f1 3a3e 7f86 74be af3a 833e f924 b73d
00000370: 09f2 a13d e803 89be 4971 d1be a277 6a3e
00000380: 2e75 a1bd 9c3f c2bd 179a 49be 7f30 e23c
00000390: 25a6 5abe 7f63 923d 7827 6cbe a74e 993e
000003a0: cd3f 18bd d677 dbbd 3cdd 213e 666e 39be
000003b0: 9563 bc3d 9e78 a73d 42a5 06bc b44e 71bd
000003c0: 376e 72be b2bc 0d3e 9909 88bd 0280 81bd
000003d0: 687d 643e c24c 203c 074b 91be ea2c 943d
000003e0: 1804 99bd 2ada 483c eac6 74be 791e f03e
000003f0: c7d6 ff3d 694f 14bb 20cf cfbe e4e6 dfbd

encoder.2.phases f4 [64]
-0.6815856 -0.5185584 1.2921541 0.06438901 0.23835468 -0.17624605 -0.28938386 0.019342557
0.42106426 0.99631643 1.0584601 -0.0032228685 1.0219313 -0.043808233 0.5768501 -1.1229047
-1.0181425 0.37176865 0.28998056 1.0989361 0.46866503 1.2564421 -1.0811747 1.2053632
0.06404096 -0.21073416 0.6714019 0.40297398 0.32629892 1.294432 0.45350128 -0.9933328
-0.26550534 -0.5664767 0.09177113 -0.19909777 -0.31617522 1.3883808 -0.37635392 0.39062497
-0.36016995 -0.23230882 -1.0531598 -0.40122634 0.7213837 -0.2936933 1.2638913 0.22309716
-0.42440188 -0.84934175 0.0016740852 0.3651628 0.520374 -0.393993 1.1914102 0.0764375
-0.35937893 -0.6154997 0.78260434 -0.8580064 0.28559005 -0.44752055 0.8973939 -0.9593851
00000000: 657c 2ebf 3ec0 04bf 4e65 a53f 63de 833d
00000010: 4013 743e d879 34be 1f2a 94be 4874 9e3c
00000020: bc95 d73e 980e 7f3f 9f7b 873f c336 53bb
00000030: a5ce 823f 4370 33bd 73ac 133f 57bb 8fbf
00000040: 7e52 82bf 7658 be3e 5578 943e f0a9 8c3f
00000050: ddf4 ef3e 18d3 a03f ef63 8abf 5749 9a3f
00000060: e827 833d b2ca 57be ffe0 2b3f 9b52 ce3e
00000070: a710 a73e f3af a53f 5231 e83e 0f4b 7ebf
00000080: 51f0 87be 9e04 11bf 81f2 bb3d 49e0 4bbe
00000090: b8e1 a1be 76b6 b13f 76b1 c0be ffff c73e
000000a0: 3268 b8be 5de2 6dbe f1cd 86bf 8a6d cdbe
000000b0: 9aac 383f f85e 96be 31c7 a13f 9573 643e
000000c0: 344b d9be 766e 59bf fa6c db3a 9ef6 ba3e
000000d0: 3b37 053f 73b9 c9be 2180 983f 448b 9c3d
000000e0: 8400 b8be 6391 1dbf c258 483f 4fa6 5bbf
000000f0: dc38 923e 6a21 e5be 9bbb 653f 439a 75bf

encoder.2.entanglement f4 [64, 64]
-0.2935947 0.114363685 -0.17427588 0.31186074 -0.06160607 0.0846289 0.33734226 -0.02132678
-0.26113635 -0.40792626 0.32446292 -0.14297593 0.4231452 -0.020953326 -0.33408666 -0.16588764
0.07526435 0.35092604 0.24038768 -0.042475227 -0.30833885 0.1746266 0.6010216 0.06508551
0.20435914 0.05519993 -0.092347674 -0.15613838 -0.109486096 -0.27722043 0.26669812 0.6608949
0.4140501 0.2463457 0.3223165 -0.047628347 -0.11904138 -0.14308086 -0.027408607 0.13825847
-0.49196032 0.17548545 -0.049772948 0.044189405 -0.5296134 0.0227117 -0.115111224 -0.15576008
0.138413 -0.24228147 0.08641622 -0.12790759 0.07183263 0.21927926 -0.030182851 0.11215439
-0.015850857 0.16576913 -0.36775306 -0.2076605 -0.12811507 0.047518183 -0.18778029 0.33097237
-0.28120813 -1.0703989 -0.33273786 0.35749403 -0.42117965 0.18726853 -0.0644451 0.19193971
0.24030806 0.43726563 -0.1954951 -0.034780025 0.20727427 0.057143513 -0.37667146 -0.14916672
-0.027558247 -0.38479054 0.033888806 0.095970064 -0.16639835 -0.09127241 -0.12893738 0.43920463
0.10745152 0.09932479 0.09800566 -0.14926714 -0.054119185 -0.39134848 -0.11977359 0.20746686
-0.24511942 0.5102196 -0.49318784 -0.41209483 0.010858483 -0.22182731 0.015813382 0.05877853
0.43096668 -0.21097133 -0.16459161 0.09702423 0.13947658 0.113506176 -0.34978375 -0.1599494
-0.076518744 0.054316558 0.73446614 -0.022610795 -0.48267078 -0.19342944 0.06467207 -0.023900248
0.056819797 0.82923055 0.157981 -0.045055225 -0.023547398 0.58231056 0.04907887 -0.05241734
-0.2554748 -0.0558873 0.38066292 -0.06688065 0.51396245 -0.084937856 -0.218602 -0.0520578
0.17797142 -0.07437472 0.3576998 0.06620998 -0.21306741 0.033508282 0.29912394 -0.31601295
-0.1582322 0.13317418 0.2016981 0.46519348 0.26959062 0.57723504 -0.07363571 -0.24730603
-0.13985494 -0.007922919 -0.077631116 0.13853872 0.111911416 0.6317835 0.104900025 -0.40870127
0.13853328 -0.44528463 0.2975971 0.40289775 -0.13102515 0.81001836 -0.19220823 0.13159046
-0.0024017768 0.03025989 -0.32779625 -0.22681478 0.25380352 -0.34171787 0.3039397 0.26821312
0.069214925 0.025626836 -0.51989394 0.013844335 0.044905093 -0.11384009 0.41042224 0.089601345
-0.13674179 -0.5379336 -0.14132403 -0.38107526 0.06243432 -0.21859573 0.28640625 -0.25567675
-0.71865857 0.16697562 -0.07572995 -0.38352498 -0.58430773 -0.35185286 -0.3948003 0.19519502
0.55220646 0.21209295 -0.6362819 0.051236104 0.015979322 -0.35248208 -0.15246 0.0031769604
-0.01184317 -0.24641718 0.09047023 -0.30671355 0.37212178 -0.016948596 -0.8578263 -0.08636504
-0.004070819 -0.062404335 0.07195747 0.07247517 0.19602859 -0.15130453 -0.39158314 -0.3003085
-0.69486034 0.24573663 -0.3662303 0.1259975 0.24507518 -0.14804791 -0.046299573 0.2000168
0.49712956 -0.8220297 0.12910411 -0.01120856 0.5144213 0.08105782 -0.04040876 0.17004173
-0.5792386 0.10281679 0.3440843 -0.1309173 0.2143332 -0.51892936 0.022036156 -0.109144844
0.45383173 0.44007447 0.21816221 0.110422134 -0.7534658 0.24793954 -0.08579542 -0.2453039
00000000: 0b52 96be 8237 ea3d 6075 32be 36ac 9f3e
00000010: a556 7cbd eb51 ad3d 20b8 ac3e 80b5 aebc
00000020: aab3 85be b6db d0be 0120 a63e 4868 12be
00000030: 7da6 d83e 4fa6 abbc 680d abbe 73de 29be
00000040: 3224 9a3d 94ac b33e 3028 763e 81fa 2dbd
00000050: 97de 9dbe 51d1 323e 8ddc 193f 8d4b 853d
00000060: 8643 513e 5219 623d c720 bdbd bde2 1fbe
00000070: 3f3a e0bd d6ef 8dbe a88c 883e 6830 293f
00000080: 60fe d33e 0c42 7c3e ab06 a53e f115 43bd
00000090: f8cb f3bd ca83 12be 0488 e0bc a193 0d3e
000000a0: 39e2 fbbe 75b2 333e b8de 4bbd f3ff 343d
000000b0: be94 07bf e30d ba3c 6fbf ebbd 927f 1fbe
000000c0: 23bc 0d3e a218 78be fdfa b03d 35fa 02be
000000d0: fc1c 933d be8a 603e 0742 f7bc 33b1 e53d
000000e0: a8d9 81bc 62bf 293e 214a bcbe f4a4 54be
000000f0: 9930 03be 6da2 423d 7a49 40be 3675 a93e
00000100: 83fa 8fbe d502 89bf 9e5c aabe 7509 b73e
00000110: dca4 d7be 52c3 3f3e cbfb 83bd d88b 443e
00000120: 5113 763e 48e1 df3e de2f 48be 8075 0ebd
00000130: b53f 543e 510f 6a3d 15db c0be 29bf 18be
00000140: d5c1 e1bc 4403 c5be fdce 0a3d f48b c43d
00000150: 5464 2abe 07ed babd 2908 04be 6edf e03e
00000160: 8b0f dc3d cc6a cb3d 31b7 c83d 7cd9 18be
00000170: 14ac 5dbd d45e c8be db4b f5bd 3172 543e
00000180: 9600 7bbe c09d 023f 1e83 fcbe 18fe d2be
00000190: c7e7 313c b326 63be 118b 813c c2c1 703d
000001a0: aaa7 dc3e de08 58be b48a 28be a4b4 c63d
000001b0: f3d2 0e3e ed75 e83d db16 b3be c7c9 23be
000001c0: dcb5 9cbd 0a7b 5e3d f905 3c3f 463a b9bc
000001d0: a020 f7be 5e12 46be ca72 843d 74ca c3bc
000001e0: e0bb 683d 7448 543f c5c5 213e d48b 38bd
000001f0: 79e6 c0bc 4e12 153f ed06 493d 91b3 56bd
00000200: 98cd 82be 15ea 64bd 40e6 c23e b9f8 88bd
00000210: 0b93 033f e6f3 adbd 34d9 5fbe 8f3a 55bd
00000220: 243e 363e c651 98bd 6e24 b73e 1999 873d
00000230: 582e 5abe fb3f 093d c626 993e 73cc a1be
00000240: 9f07 22be d05e 083e f289 4e3e d72d ee3e
00000250: c807 8a3e adc5 133f 52ce 96bd cb3d 7dbe
00000260: 2236 0fbe 21cf 01bc 10fd 9ebd 18dd 0d3e
00000270: d031 e53d 90bc 213f d3d5 d63d 4b41 d1be
00000280: abdb 0d3e 59fc e3be a65e 983e 9d48 ce3e
00000290: 752b 06be 5d5d 4f3f 3cd2 44be a6bf 063e
000002a0: 2167 1dbb 97e3 f73c e9d4 a7be 2242 68be
000002b0: 89f2 813e a5f5 aebe fc9d 9b3e 3b53 893e
000002c0: 8ec0 8d3d 5fef d13c c517 05bf 5ad3 623c
000002d0: 67ee 373d fe24 e9bd dd22 d23e e980 b73d
000002e0: 0a06 0cbe 04b6 09bf 3fb7 10be 4c1c c3be
000002f0: 21bb 7f3d 8fd7 5fbe d7a3 923e 10e8 82be
00000300: 02fa 37bf a8fb 2a3e 4e18 9bbd 635d c4be
00000310: 3195 15bf 0f26 b4be 4423 cabe 34e1 473e
00000320: 675d 0d3f e52e 593e 5fe3 22bf f3dc 513d
00000330: 11e7 823c 8878 b4be 791e 1cbe 8d34 503b
00000340: db09 42bc c954 7cbe 7548 b93d 8f09 9dbe
00000350: bf86 be3e c8d7 8abc 819a 5bbf 27e0 b0bd
00000360: 8164 85bb b09b 7fbd 705e 933d dd6d 943d
00000370: b8bb 483e 93ef 1abe 967d c8be 09c2 99be
00000380: 5ee2 31bf 62a2 7b3e 8a82 bbbe 7d05 013e
00000390: fdf4 7a3e df99 17be 9fa4 3dbd 34d1 4c3e
000003a0: c487 fe3e 8a70 52bf de33 043e 1ca4 37bc
000003b0: 1db1 033f a401 a63d a883 25bd 6b1f 2e3e
000003c0: fb48 14bf 9c91 d23d d12b b03e 2f0f 06be
000003d0: 2a7a 5b3e 8ed8 04bf 2b85 b43c 5587 dfbd
000003e0: a25c e83e 7151 e13e ea65 5f3e 0025 e23d
000003f0: 22e3 40bf dde3 7d3e 82b5 afbd f230 7bbe

encoder.4.weight f4 [32, 64]
-0.28835043 -0.121679805 0.32278407 -0.2997268 -0.06999574 0.15982327 0.25416648 -0.170642
-0.4066848 0.101834916 0.016464254 0.039494343 -0.09956259 0.23328437 0.13517494 -0.2921016
-0.23496445 0.22674747 0.05876881 0.48206797 -0.12304949 0.20821661 -0.0030027844 0.2623059
-0.11720834 0.1036058 0.029566599 -0.35812342 0.0076382994 0.33259964 0.118217215 0.035204217
0.3423135 0.29036653 -0.32904962 -0.041979544 0.23493615 0.30073947 0.015184 -0.14674628
0.17965707 0.08670823 -0.45658916 0.28242612 -0.41906548 0.1607524 0.31713933 -0.30659595
0.2622617 -0.05323254 0.12049181 -0.29841045 -0.106579304 0.46274364 0.4971836 -0.5570356
-0.2564966 -0.27851734 0.35322937 -0.18088889 0.050975244 -0.23573011 0.47087404 0.118941754
0.24749714 -0.018163797 -0.15663661 0.017125718 -0.110398725 -0.1411844 0.13105519 -0.04332306
0.29341665 -0.62357 0.0853154 -0.12664513 -0.12616716 0.026442287 -0.059381388 0.18485549
0.81601954 0.15211038 -0.018975183 -0.4160151 0.1737723 -0.40823323 0.18453239 -0.03680609
-0.12859286 -0.44737014 0.059236925 0.11564894 0.38661948 -0.17290461 -0.19518737 0.22753838
-0.06090054 -0.34302977 0.22497772 0.0015983125 -0.18638684 -0.34297 -0.15540668 0.31015497
-0.23425187 0.09076314 0.5675068 -0.2713937 -0.0062463493 -0.21239866 -0.26873815 -0.14257346
-0.20173822 0.06865484 -0.09231138 0.33357677 0.28277907 -0.05165986 -0.6506589 0.07218522
0.07616731 0.060454655 -0.45215675 0.43991 0.11809361 0.050614092 -0.52126557 -0.015534885
0.03047182 -0.078068756 -0.030458601 -0.19035831 -0.06317995 -0.024344034 0.008048579 0.048365794
-0.09034762 -0.08070684 -0.0155823855 -0.043591343 -0.039033875 -0.013330285 -0.012284703 0.040340107
0.05721382 -0.022806052 0.20828742 0.039703626 -0.004416548 -0.07405368 0.14031154 0.0028205754
0.0605181 -0.025212964 -0.44147792 -0.01068581 0.054139636 0.017708275 1.1049215 0.060764283
0.16387203 0.12794629 1.0921742 0.92503244 0.017233191 0.04237551 0.06540082 0.11324831
-0.0749991 0.0039366684 0.011683335 0.003928066 0.064338475 -0.12530665 0.026518162 -0.02586085
-0.14207493 -0.03946268 0.12892029 0.0176759 -0.14377332 -0.18196557 0.0029047811 0.16917393
0.06783974 0.00497298 -0.13493697 -0.035988607 -0.0038432598 0.015517009 0.037830155 -0.19415015
-0.09499671 0.20733899 -0.27806577 -0.074375175 -0.11594771 0.2123819 0.24868764 -0.17698807
-0.12099629 0.3016786 0.20730501 0.22687228 -0.022141868 0.23196039 -0.1905385 -0.065054566
-0.124463715 -0.03327872 0.010002969 -0.05697927 -0.5335373 -0.2643397 0.31783253 0.012414012
-0.21863014 0.15586296 0.06654173 -0.4925966 -0.18530986 -0.13587758 -0.23830794 0.22816266
0.22877987 0.039357293 -0.038922537 0.059857156 0.14000751 -0.28262368 0.22846773 -0.32865348
0.20197979 0.26576474 -0.08213538 0.2792372 0.0056472467 0.10456031 0.0019574764 -0.24219188
0.7558606 0.047130585 0.14426507 -0.24180876 -0.16305232 0.4931733 0.006240438 0.016476441
-0.09313537 0.008777787 0.32608706 0.0530881 0.58257693 -0.058104344 0.14340235 0.37542215
00000000: aba2 93be 4333 f9bd f443 a53e cb75 99be
00000010: ed59 8fbd b6a8 233e 1c22 823e c7bc 2ebe
00000020: fd38 d0be d38e d03d 0be0 863c d2c4 213d
00000030: 79e7 cbbd 19e2 6e3e 4d6b 0a3e 578e 95be
00000040: 859a 70be 7d30 683e 90b7 703d 9dd1 f63e
00000050: 5f01 fcbd bc36 553e 5dca 44bb f54c 863e
00000060: ed0a f0bd 472f d43d a735 f23c f45b b7be
00000070: b34a fa3b 804a aa3e de1b f23d 4c32 103d
00000080: b743 af3e ecaa 943e 3179 a8be bef2 2bbd
00000090: 1a93 703e 86fa 993e 50c6 783c a844 16be
000000a0: 06f8 373e 1694 b13d 0ec6 e9be 289a 903e
000000b0: c08f d6be 479c 243e 1660 a23e 25fa 9cbe
000000c0: 2a47 863e 5d0a 5abd 69c4 f63d 41c9 98be
000000d0: 4046 dabd bcec ec3e d98e fe3e e399 0ebf
000000e0: 8653 83be d399 8ebe 7bda b43e f03a 39be
000000f0: 6bcb 503d 3c63 71be 6716 f13e bc97 f33d
00000100: e46f 7d3e 3ecc 94bc 5965 20be 3c4b 8c3c
00000110: ba18 e2bd a592 10be 5533 063e 8573 31bd
00000120: b53a 963e 49a2 1fbf d7b9 ae3d 43af 01be
00000130: f731 01be 7f9d d83c e639 73bd c24a 3d3e
00000140: a8e6 503f d3c2 1b3e d871 9bbc eeff d4be
00000150: 5ef1 313e f203 d1be 0ff6 3c3e fcc1 16bd
00000160: d9ad 03be b30d e5be 6ba2 723d 5ad9 ec3d
00000170: fdf2 c53e e80d 31be 33df 47be d2ff 683e
00000180: d872 79bd 99a1 afbe 8f60 663e 787e d13a
00000190: 31dc 3ebe c499 afbe ee22 1fbe a2cc 9e3e
000001a0: b9df 6fbe 06e2 b93d 2048 113f 1df4 8abe
000001b0: 2dae ccbb 097f 59be 0c98 89be c7fe 11be
000001c0: 7794 4ebe e99a 8c3d c00d bdbd 93ca aa3e
000001d0: 6bc8 903e 4a99 53bd 9591 26bf d8d5 933d
000001e0: 9bfd 9b3d 4d9f 773d 1781 e7be e23b e13e
000001f0: 10db f13d b950 4f3d a971 05bf 0886 7ebc
00000200: 0aa0 f93c 83e2 9fbd 5184 f9bc 4aed 42be
00000210: 7d64 81bd 246d c7bc 30de 033c 361b 463d
00000220: 2c08 b9bd a149 a5bd 434d 7fbc d68c 32bd
00000230: fce1 1fbd 4567 5abc c745 49bc ab3b 253d
00000240: 0a59 6a3d c2d3 babc 4c49 553e 45a0 223d
00000250: b1b8 90bb 75a9 97bd d4ad 0f3e 67d9 383b
00000260: d4e1 773d 6b8b cebc 6509 e2be 8913 2fbc
00000270: 86c1 5d3d f210 913c 116e 8d3f f8e3 783d
00000280: 12ce 273e 5a04 033e 5dcc 8b3f edce 6c3f
00000290: 9f2c 8d3c f191 2d3d ddf0 853d bbee e73d
000002a0: 2199 99bd 2bff 803b 756b 3f3c 02b7 803b
000002b0: e4c3 833d 6350 00be 9e3c d93c 22da d3bc
000002c0: 177c 11be 9fa3 21bd ae03 043e 0dcd 903c
000002d0: 5039 13be 2f55 3abe 245e 3e3b ee3b 2d3e
000002e0: 90ef 8a3d 61f4 a23b eb2c 0abe ca68 13bd
000002f0: 33df 7bbb 0e3b 7e3c cbf3 1a3d 4ccf 46be
00000300: a38d c2bd ac50 543e a35e 8ebe 0352 98bd
00000310: fe75 edbd a47a 593e f9a7 7e3e 5c3c 35be
00000320: e7cc f7bd 9e75 9a3e c447 543e 3551 683e
00000330: dd62 b5bc 0687 6d3e 861c 43be 543b 85bd
00000340: d5e6 febd 444f 08bd 7ee3 233c 1863 69bd
00000350: e795 08bf 8857 87be f2ba a23e 2464 4b3c
00000360: 94e0 5fbe 8a9a 1f3e 0847 883d 9f35 fcbe
00000370: dec1 3dbe 7e23 0bbe ff06 74be 79a3 693e
00000380: 4545 6a3e 1d35 213d 3d6d 1fbd c72c 753d
00000390: 215e 0f3e 0db4 90be 72f3 693e 4545 a8be
000003a0: cad3 4e3e 5112 883e 9836 a8bd 2ef8 8e3e
000003b0: 8a0c b93b b723 d63d 0149 003b 2601 78be
000003c0: 1580 413f 000c 413d 39ba 133e b79c 77be
000003d0: 30f7 26be 3681 fc3e 977c cc3b 9af9 863c
000003e0: c2bd bebd b5d0 0f3c e2f4 a63e e872 593d
000003f0: c323 153f d2fe 6dbd 11d8 123e 5537 c03e

encoder.4.bias f4 [32]
0.7900097 -0.8863901 0.37697983 -1.0131525 0.5444403 -0.9312548 0.3607914 0.82512146
0.78171605 0.62266904 -0.54856676 -0.56308496 0.582683 0.4430805 0.7793945 -0.5292553
0.397361 -0.8878968 0.3086688 -1.0423077 0.42557055 0.9008426 0.50275165 0.2604637
-0.4399857 -0.21662334 -0.5087947 -0.7547033 0.89386684 -0.49218422 0.55136055 -0.6773355
00000000: 133e 4a3f 76ea 62bf 8003 c13e fbae 81bf
00000010: 7160 0b3f b766 6ebf a6b9 b83e 293b 533f
00000020: 8b1e 483f 3d67 1f3f df6e 0cbf 5626 10bf
00000030: b72a 153f 73db e23e 6686 473f 467d 07bf
00000040: e772 cb3e 344d 63bf d609 9e3e 576a 85bf
00000050: 62e4 d93e 9f9d 663f 55b4 003f 805b 853e
00000060: ce45 e1be 82d2 5dbe 5f40 02bf 3c34 41bf
00000070: 75d4 643f 92ff fbbe f725 0d3f dc65 2dbf

policy_head.mean_weight f4 [32, 2]
-0.6682314 0.6549306 0.72602576 -0.7545466 -0.102155246 0.041076813 0.72264546 -0.571029
-0.764924 0.63389295 0.82501876 -0.71891963 -0.4829348 0.54927963 -0.7682819 0.7699505
-0.39623085 0.35309836 -0.5254553 0.58802575 -0.5578426 0.43408638 -0.5238735 0.41492003
-0.5045511 0.46223167 -0.4242721 0.56290436 -0.460607 0.4720837 0.61323994 -0.48737088
-0.6044175 0.5332881 0.7843246 -0.6720917 -0.29571638 0.11359675 0.58927774 -0.8229144
-0.37045076 0.44661942 -0.8172263 0.64790237 -0.25240493 0.3642114 0.2930401 -0.48783356
0.5710741 -0.5682428 0.51074016 -0.6311197 -0.40030438 0.57712805 0.45807567 -0.46320423
0.45102453 -0.5048858 0.6119346 -0.69123435 0.41278553 -0.31928048 -0.33049163 0.37369207
00000000: 3711 2bbf 88a9 273f d3dc 393f f729 41bf
00000010: c536 d1bd 2940 283d 4bff 383f f52e 12bf
00000020: 0fd2 43bf cf46 223f 6e34 533f 1e0b 38bf
00000030: 3b43 f7be 979d 0c3f 1fae 44bf 7a1b 453f
00000040: c5de cabe 4fc9 b43e 3d84 06bf db88 163f
00000050: c6ce 0ebf 9240 de3e 931c 06bf 6670 d43e
00000060: 432a 01bf a1a9 ec3e 313a d9be 801a 103f
00000070: aed4 ebbe f4b4 f13e 4bfd 1c3f ad88 f9be
00000080: 1bbb 1abf 9285 083f 7fc9 483f 340e 2cbf
00000090: 2368 97be 6aa5 e83d e8da 163f 85aa 52bf
000000a0: b9ab bdbe 4dab e43e be35 51bf eedc 253f
000000b0: 383b 81be eb79 ba3e 5a09 963e 52c5 f9be
000000c0: ea31 123f 5c78 11bf debf 023f 1091 21bf
000000d0: b2f4 ccbe aabe 133f e588 ea3e 1b29 edbe
000000e0: b0ec e63e 3240 01bf bfa7 1c3f bcf4 30bf
000000f0: a058 d33e bb78 a3be 3336 a9be 9154 bf3e

policy_head.mean_bias f4 [2]
-0.69693017 0.7422485
00000000: 046a 32bf ff03 3e3f

confidence_head.0.weight f4 [16, 32]
-0.047364164 0.07625483 0.03722329 -0.0072625238 0.1067165 -0.037798308 -0.030793108 0.090379275
-0.078745544 -0.10425321 0.043450274 -0.005529614 -0.08495825 -0.0678257 0.012949976 -0.12507367
-0.062068243 -0.08959786 0.072426856 -0.057870816 -0.08556644 -0.16183011 -0.11797862 -0.11595027
-0.19705899 0.02297833 -0.007852896 -0.014186132 0.047232907 -0.15493049 0.039589718 0.08877902
-0.068277895 -0.008564435 0.07083708 0.0015405958 -0.021473318 0.10473306 -0.027155844 0.0709857
-0.17134665 -0.05209179 0.077698484 0.12399302 0.02120377 -0.062597446 -0.055496417 -0.10249774
-0.04658712 0.0726844 -0.032055523 0.204621 -0.024554439 -0.05638775 -0.18541838 -0.10999807
0.019275108 0.11131372 -0.055663887 -0.10222337 0.10465269 0.02656158 -0.10183084 0.063039824
-0.0665113 0.048266076 0.046848103 -0.048317857 0.11564868 -0.08954804 -0.01888288 -0.055215664
-0.13451542 -0.041102983 0.19265068 -0.0897415 0.1338149 -0.11867578 -0.048267182 0.043849237
-0.029345317 0.0448639 -0.080190524 0.030510584 -0.115707144 -0.06484013 0.12297118 -0.01986275
0.05280356 -0.053025667 -0.009516061 0.096140906 -0.14109306 -0.033744276 0.031241065 0.022897096
-0.046360634 -0.0700404 0.007145277 0.004464107 -0.008327728 0.035141606 -0.059174724 0.010286201
-0.17946196 0.06272568 0.04507596 0.034596413 0.077320576 -0.08593401 0.016747931 -0.0076594334
0.020990565 0.06817934 -0.12824628 0.22100799 0.04847375 -0.029828621 -0.15485081 -0.0589256
0.15519188 0.068135686 -0.072306626 0.031500064 0.082495496 -0.09494126 -0.13788275 -0.083240435
0.05629401 0.01912608 -0.032576974 0.1215324 -0.06473922 0.16728118 0.03261385 0.037881244
-0.10350774 0.043213554 0.07797225 -0.01758841 0.010090552 -0.02119627 -0.11619069 -0.04638517
-0.06606253 -0.015617518 -0.021000706 -0.07403118 -0.07703644 -0.18428633 -0.1126025 0.017367803
-0.025414096 -0.10292009 0.07737249 0.02405343 -0.0479931 -0.13617083 0.07515726 -0.017728752
-0.21241231 0.11873018 0.04521937 0.00039314348 0.015900953 0.098949194 -0.0055036363 0.061999522
0.027947778 0.037109863 0.07550139 0.08889113 -0.14283405 0.024838379 0.0397107 -0.08516464
-0.13315068 0.15227693 -0.15720303 0.008925468 0.09407782 0.06664735 -0.09261757 0.10668715
0.08283968 -0.018252118 -0.08750673 0.041140255 0.004094293 0.014578067 0.017526202 0.11165467
0.11873806 -0.06908844 0.058694996 -0.04744692 -0.11327375 -0.046729784 0.0843694 -0.09642644
-0.06816265 0.14332396 -0.045827888 -0.025301853 -0.078897916 -0.0047253547 -0.07589059 -0.015381208
-0.062383853 0.013897686 -0.060923878 0.04032456 -0.10708952 0.030522438 0.031887643 -0.063892186
0.0029584048 -0.0032216143 0.18401667 0.051020943 0.066033065 0.1241632 -0.02327913 0.12900773
0.08426221 0.13089636 -0.10287253 0.068397336 0.11397737 0.011966464 0.023641607 -0.15615283
-0.15539163 -0.028082523 -0.030760508 0.048127484 0.13360323 -0.09737631 -0.079254344 0.1432869
0.07034479 0.099040255 -0.1559261 -0.01603754 0.08799761 0.07932985 0.042966805 -0.05669622
0.011866324 -0.06527982 0.15387028 0.02599022 -0.12521431 0.13578843 0.12406758 0.0907803
00000000: ed00 42bd 7e2b 9c3d 7377 183d 77fa edbb
00000010: 2e8e da3d 66d2 1abd d441 fcbc c518 b93d
00000020: 5845 a1bd b582 d5bd eaf8 313d c431 b5bb
00000030: 97fe adbd 33e8 8abd 232c 543c 5013 00be
00000040: 453b 7ebd 157f b7bd 8854 943d f309 6dbd
00000050: 753d afbd cbb6 25be c69e f1bd 5677 edbd
00000060: d5c9 49be 0d3d bc3c 6fa9 00bc f36c 68bc
00000070: 4b77 413d 19a6 1ebe d428 223d c6d1 b53d
00000080: 48d5 8bbd d851 0cbc 0813 913d d1ed c93a
00000090: d0e8 afbc 497e d63d ef75 debc f360 913d
000000a0: 7f75 2fbe 335e 55bd 6220 9f3d 0df0 fd3d
000000b0: 87b3 ad3c 1733 80bd 3650 63bd 56ea d1bd
000000c0: 23d2 3ebd 8fdb 943d a74c 03bd 2b88 513e
000000d0: 6426 c9bc d7f6 66bd 51de 3dbe ab46 e1bd
000000e0: d5e6 9d3c 73f8 e33d d1ff 63bd 7c5a d1bd
000000f0: 2654 d63d ac97 d93c b08c d0bd 061b 813d
00000100: 1437 88bd a6b2 453d cce3 3f3d f2e8 45bd
00000110: 37d9 ec3d f664 b7bd 45b0 9abc d229 62bd
00000120: 69be 09be 9a5b 28bd 3846 453e 64ca b7bd
00000130: c606 093e 4a0c f3bd cfb3 45bd 429b 333d
00000140: 9765 f0bc 35c3 373d ee3a a4bd 55f1 f93c
00000150: def7 ecbd e7ca 84bd 50d8 fb3d 35b7 a2bc
00000160: 8c48 583d 7131 59bd 41e9 1bbc 86e5 c43d
00000170: b37a 10be 7037 0abd 43ed ff3c b192 bb3c
00000180: a6e4 3dbd 5771 8fbd ee22 ea3b a547 923b
00000190: 0671 08bc a5f0 0f3d 3261 72bd 7487 283c
000001a0: e0c4 37be 5276 803d 92a1 383d f8b4 0d3d
000001b0: 405a 9e3d 2cfe afbd f532 893c fcfb fabb
000001c0: 68f4 ab3c 9ca1 8b3d fe52 03be eb4f 623e
000001d0: 698c 463d 275b f4bc 3691 1ebe f85b 71bd
000001e0: 9fea 1e3e b98a 8b3d 7f15 94bd 3606 013d
000001f0: 66f3 a83d 9070 c2bd 2331 0dbe f679 aabd
00000200: 8c94 663d 4cae 9c3c 6f6f 05bd fbe5 f83d
00000210: ff95 84bd c24b 2b3e 1a96 053d 5d29 1b3d
00000220: defb d3bd b200 313d eaaf 9f3d 9215 90bc
00000230: d852 253c cda3 adbc 62f5 edbd 60fe 3dbd
00000240: cb4b 87bd 9ee0 7fbc ac09 acbc a99d 97bd
00000250: 48c5 9dbd 8eb5 3cbe 249c e6bd ec46 8e3c
00000260: 3931 d0bc c5c7 d2bd 7875 9e3d b30b c53c
00000270: 6a94 44bd 5e70 0bbe 0dec 993d e33b 91bc
00000280: 9d82 59be cf28 f33d f237 393d d31e ce39
00000290: b742 823c e0a5 ca3d d957 b4bb 36f3 7d3d
000002a0: bdf2 e43c 8300 183d 79a0 9a3d 8e0c b63d
000002b0: 1743 12be db79 cb3c b0a7 223d cc6a aebd
000002c0: a758 08be 7cee 1b3e d5f9 20be 203c 123c
000002d0: dfab c03d 687e 883d 48ae bdbd cb7e da3d
000002e0: daa7 a93d 7785 95bc ba36 b3bd af82 283d
000002f0: 6b29 863b d8d8 6e3c 1c93 8f3c 34ab e43d
00000300: f12c f33d 3d7e 8dbd 2a6a 703d b457 42bd
00000310: 11fc e7bd bb67 3fbd ddc9 ac3d 3a7b c5bd
00000320: dc98 8bbd 84c3 123e 06b6 3bbd d545 cfbc
00000330: 3b95 a1bd 26d7 9abb 876c 9bbd 7601 7cbc
00000340: 3686 7fbd 1fb3 633c 518b 79bd 5e2b 253d
00000350: c051 dbbd 310a fa3c 9e9c 023d e8d9 82bd
00000360: cce1 413b b821 53bb de6e 3c3e 56fb 503d
00000370: 583c 873d 4749 fe3d e0b3 bebc 9a1a 043e
00000380: aa91 ac3d b209 063e d5ae d2bd e713 8c3d
00000390: f86c e93d fd0e 443c 0bac c13c 87e6 1fbe
000003a0: fc1e 1fbe 520d e6bc 76fd fbbc 5321 453d
000003b0: 49cf 083e 3b6d c7bd 1a50 a2bd cdb9 123e
000003c0: ee10 903d 9ed5 ca3d 17ab 1fbe 2961 83bc
000003d0: 1738 b43d b077 a23d f6fd 2f3d 4c3a 68bd
000003e0: f86a 423c 6db1 85bd 2c90 1d3e 71e9 d43c
000003f0: 2e38 00be 1f0c 0b3e 2517 fe3d 06eb b93d

confidence_head.0.bias f4 [16]
-0.04178596 0.106329106 -0.201426 -0.0508912 -0.19989775 -0.25709054 -0.2125402 -0.1707493
-0.029623196 0.01025162 -0.014766892 0.110763006 -0.09832863 0.10709745 -0.20079598 0.03245199
00000000: c127 2bbd 13c3 d93d 9e42 4ebe 4a73 50bd
00000010: ffb1 4cbe 5fa1 83be 23a4 59be e8d8 2ebe
00000020: 58ac f2bc 69f6 273c d6f0 71bc b7d7 e23d
00000030: 8560 c9bd e855 db3d 769d 4dbe 61ec 043d

confidence_head.2.weight f4 [1, 16]
3.6957533e-06 -0.036182437 -0.0809192 0.010594427 0.053008366 0.07237549 -0.0021637848 0.11744292
-0.12218586 0.06854189 0.08423969 -0.012823333 -0.048100047 -4.1860158e-06 -6.541183e-05 5.908448e-07
00000000: 8f04 7836 0934 14bd f7b8 a5bd 3f94 2d3c
00000010: 4d1f 593d 9a39 943d 49ce 0dbb ea85 f03d
00000020: 953c fabd b15f 8c3d dc85 ac3d f518 52bc
00000030: 8e04 45bd 9a75 8cb6 b52d 89b8 8c9a 1e35
