BEST_UNIQUE_MODELS/PRODUCTION/17_LSTM_TIME_SERIES/financial_lstm_final_optimized.onnx (onnx, 308506 bytes, 10 tensors)

classifier.0.weight f4 [32, 64]
000000 fa ec 12 bf e1 bd 19 be 43 0e e5 bd 53 2a 87 3d
       -0.5739285 -0.1501384 -0.11184361 0.065998696
000010 5d 91 0c be f1 f7 34 3e 95 0f 4f bd dc 76 f2 3d
       -0.13727327 0.17672707 -0.05055197 0.11839077
000020 fb 30 40 3d 9b e4 6c 3d 25 93 9d bd 74 e8 d6 bd
       0.04692171 0.057835203 -0.07694081 -0.10493556
000030 79 e3 8b bc 05 87 38 3c ac e1 df 3d a6 0b 54 be
       -0.01707624 0.01126266 0.10931715 -0.20707569
000040 5a 47 3c 3d e9 55 77 bd 1c 11 8b 3e 8d 6d fb bc
       0.045966484 -0.060384665 0.2716149 -0.030691886
000050 92 63 b2 bd 74 b2 18 3e 27 c0 8c be 6f 74 9a 3d
       -0.08710398 0.14911824 -0.2749035 0.07541739
000060 80 8e a8 3e 53 94 a1 3c fe 6e 46 3d f7 f9 a2 bd
       0.3292122 0.019724047 0.048445694 -0.07957833
000070 65 25 c2 be 57 a0 97 bd 72 eb 1d 3d 7c fa a9 be
       -0.37919155 -0.07403629 0.038554616 -0.33198917
000080 22 f6 16 bd 0a 70 ae bd 76 ce 13 bc b5 a7 86 bd
       -0.036855824 -0.085174635 -0.009021392 -0.06574956
000090 21 c9 86 3d 78 2f 38 be b9 42 25 3d b6 0f f2 3d
       0.06581331 -0.17986858 0.040346835 0.11819403
0000a0 3c 53 11 be b7 21 6d 3e 7e 0c 2b bd 63 f5 32 3e
       -0.14191908 0.23157392 -0.04175996 0.1747642
0000b0 3c 24 e0 3d cf 1d 87 bd 2f cb 3b 3e 39 26 2e bd
       0.10944411 -0.065974824 0.18339227 -0.04251692
0000c0 4f 8a b1 3d c5 1b 31 3d fc 4b 87 3e bd bc a8 3d
       0.086689584 0.043239374 0.2642516 0.08239124
0000d0 0a 53 92 3d d3 9e 78 3c 7b 03 7d 3d 0a 5b 03 be
       0.07144745 0.015174585 0.061770897 -0.12827697
0000e0 75 6b 30 bd 58 30 f2 3d f7 19 a9 bd d4 d8 82 bc
       -0.04307123 0.11825627 -0.082569055 -0.015972532
0000f0 8e f0 b4 bd 08 11 4d be b3 20 4d bc 1f da 1d 3e
       -0.08834945 -0.20026028 -0.012520003 0.15415238
000100 45 6b 88 3d fa ad e9 bd 8f 6a bd bc 42 66 c9 bd
       0.06661085 -0.114101365 -0.0231221 -0.09833957
000110 8d ca 2a 3e 61 7b 66 3e d6 08 8b 3d cf da 24 be
       0.1667883 0.22508003 0.06788795 -0.16099094
000120 1c 4d 1a be 94 97 3a 3d a9 25 3d 3c c2 9c 0d 3d
       -0.15068477 0.045554712 0.011544623 0.034573324
000130 25 08 29 3e 3f 9a a0 be 2e c8 dc 3e cb 0c 0d 3e
       0.16507013 -0.3136768 0.43121475 0.13774411
000140 94 f2 ff 3c 8a f8 0e be 87 ae ba bd 1c 93 62 bd
       0.0312436 -0.13961998 -0.0911532 -0.055316076
000150 0a 3e 1d 3d 6d d8 03 3e 38 00 9c be 4a 5a 12 3e
       0.038389243 0.12875529 -0.30468917 0.14292255
000160 50 ce 3a bc bc 5f d4 bc 77 3b 8a 3c 9c 08 b5 bd
       -0.011401728 -0.025924556 0.016874058 -0.08839533
000170 b2 3a a7 bd 85 23 86 3e 0a 1a 93 be 35 53 dc be
       -0.08165492 0.26198974 -0.28730804 -0.43032232
000180 d8 e6 c3 3d 67 38 c7 be 51 7e 39 be fb 5a d0 3d
       0.09565514 -0.3891022 -0.18114592 0.10173603
000190 ed 0b d2 bc 4e fe 6a 3d da a6 82 be 09 00 88 bc
       -0.025640452 0.05737143 -0.25517923 -0.01660158
0001a0 75 d1 c3 bc 55 74 e0 bd 3d 19 8a be a4 9a 6f 3c
       -0.023903588 -0.109596886 -0.2697238 0.014624272
0001b0 aa b1 88 be 42 37 fe bc 91 ae c0 3d ad 66 2b be
       -0.26698047 -0.031032208 0.09408296 -0.16738386
0001c0 d9 aa 5a bc 75 73 58 3d d2 62 4b be ce a7 52 bd
       -0.013346397 0.052844483 -0.19861916 -0.051429562
0001d0 47 96 41 be ac 17 e2 3d 34 10 65 3c e4 d8 4c 3e
       -0.18904983 0.11039671 0.013980914 0.20004612
0001e0 9f d0 9a 3d 3d 75 aa 3d 05 ff 61 be e5 5f 4c 3d
       0.075593226 0.08323143 -0.22069938 0.04989614
0001f0 e7 91 87 be 84 a3 47 3e eb 38 a6 be ef 19 22 3e
       -0.26478502 0.1949597 -0.324653 0.15830205
000200 cc 1d 8a 36 2c 29 84 20 ed 77 2f b5 38 b3 9e 31
       4.1161893e-06 2.2388915e-19 -6.5367095e-07 4.61878e-09
000210 d8 bd c4 af 3d 11 ea b7 fe 6f 3f 86 9e 6c 61 04
       -3.5787084e-10 -2.7903001e-05 -3.6005386e-35 2.6498497e-36
000220 2d 25 97 b4 7f b0 93 2e bf 77 44 a5 91 05 47 06
       -2.815299e-07 6.716138e-11 -1.7040862e-16 3.743183e-35
000230 44 b2 bc 2f 8e f1 0d 36 43 7a e1 b7 f7 de a1 b7
       3.4323666e-10 2.115124e-06 -2.6879023e-05 -1.9296522e-05
000240 52 c3 4d b0 5a a4 a6 31 a8 7c be af 3d 5d 06 9c
       -7.485613e-10 4.8499205e-09 -3.4649372e-10 -4.445739e-22
000250 83 d8 e8 32 a6 f2 6e a8 5e 68 8d 37 1e be 4f b7
       2.7106813e-08 -1.326427e-14 1.685711e-05 -1.2382427e-05
000260 de 06 2b b4 e7 8e 59 34 58 e6 6e b3 84 8c 70 8c
       -1.5928114e-07 2.0261687e-07 -5.562319e-08 -1.8531212e-31
000270 1e 8d 97 30 07 d4 f4 34 76 88 cd b3 f4 96 37 32
       1.1026804e-09 4.5602812e-07 -9.5708785e-08 1.0686325e-08
000280 28 1c 89 22 08 88 ef b5 5f 66 4b 38 5b 57 fe b6
       3.7163736e-18 -1.7846478e-06 4.8494312e-05 -7.5799594e-06
000290 f6 b8 72 34 b2 1f d2 b3 75 30 84 37 43 3c 53 2e
       2.2605295e-07 -9.7846524e-08 1.575819e-05 4.802937e-11
0002a0 d1 a5 0f 33 71 27 77 34 4a 20 51 36 01 a7 8f 32
       3.344559e-08 2.3018016e-07 3.1162222e-06 1.6723336e-08
0002b0 f4 2d 0e 34 bc a4 23 38 73 ce 1e 2f 03 2e 78 b8
       1.3241498e-07 3.901565e-05 1.4443362e-10 -5.917066e-05
0002c0 5d 28 1c 37 eb 40 97 b7 67 f0 ad b4 c5 7f 73 2d
       9.307722e-06 -1.8030833e-05 -3.2398677e-07 1.3841321e-11
0002d0 9b 33 4e 38 dc d6 b5 b7 b9 7e 76 b3 7b bf fd b7
       4.916229e-05 -2.1676933e-05 -5.7391592e-08 -3.0249115e-05
0002e0 e8 66 99 33 68 81 26 0f 2d f5 c7 36 7f 9c 53 8b
       7.143336e-08 8.209355e-30 5.9592044e-06 -4.0754856e-32
0002f0 05 dc b4 37 c8 54 88 b2 7a 57 c8 37 a2 19 0c b7
       2.1560127e-05 -1.5871038e-08 2.3882592e-05 -8.350618e-06
000300 c5 da b3 be 14 3f eb 3c 14 16 d5 3d b3 b2 9f bd
       -0.35127845 0.028716601 0.10404602 -0.07797756
000310 97 11 af bc 4d 59 c8 bd 3d 69 c7 3d cc 8c 41 be
       -0.021370692 -0.09782658 0.097368695 -0.18901366
000320 98 7f 1a 3e 68 b6 e9 bb 25 d4 6d be c8 8a 1b 3e
       0.15087736 -0.00713234 -0.23225458 0.1518966
000330 0f 90 36 3e f0 73 9e 3d 7e 62 32 be 8f 51 dc 3c
       0.17828391 0.07736957 -0.17420384 0.026894359
000340 53 0e 83 bd a5 2e cc 3c 96 06 f8 bd 2b 72 e7 3d
       -0.063992165 0.024924586 -0.12110631 0.11301073
000350 e7 53 8e bd 0d 13 a5 3d db 31 f7 3d ba a8 e3 bc
       -0.06949597 0.08060274 0.12070056 -0.027790416
000360 da 9c 16 3e df f8 77 be 36 d8 d0 bd 5a 74 7b 3e
       0.14708272 -0.2421603 -0.10197489 0.24556103
000370 23 4c 16 be ec 0a 9f be e1 44 db 3d 5b d2 10 3e
       -0.14677481 -0.3106302 0.10706497 0.14142744
000380 3a 51 68 be c2 fd 05 3e 65 8f 2b bd d7 4f 7b 3d
       -0.22687235 0.13085082 -0.0418848 0.061355438
000390 d6 57 4f be de 2d 86 3d 19 59 79 bd c2 ad 6e 3e
       -0.2024835 0.06551717 -0.060875986 0.23308471
0003a0 9d 0d c8 3d 26 8f ca 3d e7 73 6d 3e fb a5 f0 bd
       0.097682215 0.09890585 0.23188744 -0.11750408
0003b0 d9 75 91 3d 76 2d 98 be 37 e5 0b be 3a 47 2d 3e
       0.07102556 -0.29722184 -0.13661657 0.16921702
0003c0 5f fa e4 bd e9 ed 0e bd 4e 27 98 3e 84 ff 31 bd
       -0.11180567 -0.034894858 0.29717487 -0.04345657
0003d0 0c a0 2e ba d5 8b 15 3d 11 01 6a 3e b0 95 f1 bd
       -0.0006661422 0.036510307 0.2285197 -0.11796129
0003e0 24 d1 fa 3b f0 4c 07 3b 17 14 6d bd 9c ce 03 3e
       0.007654326 0.0020645224 -0.057880487 0.12871784
0003f0 5c 62 0f 3d 89 92 24 bd 2a 12 0c 3d ca 6d 0e be
       0.035005912 -0.04017881 0.03419701 -0.13909069

classifier.0.bias f4 [32]
000000 c7 66 c2 3c 33 4a 5f 3d e3 95 fc b8 97 b1 17 3e
       0.023730649 0.05451412 -0.00012044215 0.14813839
000010 04 e6 9a 3d 91 87 c2 b8 2d f1 7e bd 3d bb fb b1
       0.07563403 -9.275892e-05 -0.062241722 -7.326348e-09
000020 1c 2f 1d bc cf bb ea 3d bb f0 2c 3c 09 bd 41 3e
       -0.009593751 0.11461603 0.0105554415 0.18919767
000030 d0 18 82 bb 7d da 57 bc db 12 89 3d 9e c3 86 bc
       -0.003970243 -0.01317465 0.066930495 -0.0164507
000040 6c 2d 4c 3e 63 aa f9 ba cb 5e 9d 3d 75 aa 14 bc
       0.19939202 -0.0019047972 0.07684096 -0.009073843
000050 6e d4 67 b6 5f 3a 20 bb ba 8e 48 bc d6 0c aa 99
       -3.4545333e-06 -0.0024448854 -0.01224106 -1.7582772e-23
000060 7c 0b 86 ae d3 c1 06 3d 99 25 fb bc 76 8a 3b 3e
       -6.0956545e-11 0.03289969 -0.030657576 0.18314537
000070 0b 76 34 a9 da 4b a5 aa 3d 02 31 bc 66 2d ed bb
       -4.0070415e-14 -2.936252e-13 -0.010803756 -0.007238078

classifier.3.weight f4 [5, 32]
000000 e4 f9 ad bd eb 09 35 bf 94 99 e3 36 27 d1 0b 3e
       -0.084949285 -0.7071826 6.783006e-06 0.13654004
000010 c9 48 05 be fd 3e ea 38 37 8e a9 be 24 23 bc a1
       -0.13016047 0.00011169722 -0.33116314 -1.2748677e-18
000020 0e 62 0c 3c 8c be 5c 3d 6c 53 16 3e 5b a8 f7 be
       0.0085683 0.053892657 0.1468026 -0.48370633
000030 1d 22 4a 3b d4 59 a3 3b 36 a6 ac 3d f3 fe 5c bf
       0.0030843087 0.0049850736 0.0843014 -0.8632652
000040 70 b7 23 3e a4 7d 88 3d 28 1d ad 3d d1 03 c2 bd
       0.15987945 0.06664589 0.08452827 -0.09473384
000050 32 78 30 3b 79 98 96 3c 1c b3 5d 3c 85 a5 7f 00
       0.002692711 0.018383252 0.0135314725 1.1722485e-38
000060 e0 63 05 00 5c 91 f7 be 7f 8c 07 3c 5e 0a 04 bf
       4.95006e-40 -0.48353088 0.008273243 -0.5157832
000070 47 64 05 80 cc 0d 08 b2 6d ba e7 3d 62 22 36 bd
       -4.9515e-40 -7.919379e-09 0.11314855 -0.044466384
000080 68 a5 c3 bd 28 15 bc be 70 4d 1e b6 4a 4b de 3d
       -0.09553033 -0.3673489 -2.358891e-06 0.10854204
000090 30 a9 d7 be 16 29 67 36 3b e7 db be 54 d6 4a 1d
       -0.42121267 3.4445598e-06 -0.42949852 2.6845282e-21
0000a0 b0 65 8d b8 2f 4a f6 3c f9 bf 22 3e 90 8e 15 bf
       -6.742345e-05 0.03006467 0.15893544 -0.5842066
0000b0 a3 5a 4a 3b 16 09 85 bc 99 aa 8b 3c dc 1f 45 bf
       0.0030876778 -0.016239684 0.01704912 -0.7700174
0000c0 78 c7 0b 3e 9d 48 a0 3d ae e3 0a bd 3f 27 ff be
       0.1365031 0.0782635 -0.03390854 -0.4983463
0000d0 46 dd 6f ba 59 1c 20 bc 7f 8f 54 3c 7a 79 a6 0a
       -0.0009150099 -0.009772384 0.012973665 1.6030913e-32
0000e0 1a 7d 05 80 b2 93 06 bf 81 82 23 bc f4 f4 13 bf
       -5.04055e-40 -0.52569115 -0.009979845 -0.57795644
0000f0 f8 59 05 00 cf 04 aa 33 90 f3 d9 3d c5 fe e5 be
       4.91452e-40 7.9171166e-08 0.10642159 -0.44920936
000100 b0 19 91 3e ff e1 33 3e 2e 7e 01 3a 28 7d 71 3d
       0.2833991 0.1756668 0.0004939762 0.05895725
000110 c5 9e 46 3e 1a a1 75 b9 b3 8d 29 3e 7e af 5c 29
       0.19396503 -0.00023425036 0.1655796 4.9002028e-14
000120 d9 4e 28 bd 14 d0 42 bd 67 fa 9f be f0 a2 0a 3e
       -0.04109082 -0.04756172 -0.3124573 0.13538718
000130 4d 99 e0 bb 08 4a 07 3d 4c 0a 27 3d 6f 38 ee 3d
       -0.0068542124 0.033029586 0.040781304 0.116318576
000140 41 27 a8 3d b1 c7 be be 37 e4 d0 3d c7 ed f5 3d
       0.08210612 -0.37261727 0.101997785 0.12008243
000150 9c 47 d0 b8 e6 ac a7 bc 91 83 4c 3b ab 8b 99 37
       -9.931551e-05 -0.020468187 0.003120635 1.830406e-05
000160 67 5d 0c 3a 76 40 cf 3d 49 5d 11 bd 85 07 1f 3e
       0.0005354494 0.10119717 -0.035489354 0.15530212
000170 23 5f 05 00 40 64 4a 30 e8 37 b0 ba 7d e2 40 3e
       4.93306e-40 7.3629636e-10 -0.0013444396 0.18836398
000180 3a ba 37 3e d2 55 29 3e 79 5e 76 bc 9a fa 9a be
       0.17942134 0.16536644 -0.0150371725 -0.3026932
000190 bc af 92 bd 39 e4 f0 b2 06 cb ca 3d e3 29 a1 00
       -0.07162425 -2.804346e-08 0.09902005 1.4800541e-38
0001a0 53 f5 22 3d 2b 82 dc be 1d a7 b8 bd 34 89 13 3e
       0.03978474 -0.4306806 -0.09016249 0.14407808
0001b0 46 d6 c3 a3 5e 0d a7 bc 5e 96 ac be 51 06 f1 3d
       -2.123269e-17 -0.020392116 -0.3370847 0.11768783
0001c0 6d 93 83 be 3b 14 46 3a b9 85 a1 be fe 59 fe bd
       -0.25698414 0.0007556115 -0.31547335 -0.124195084
0001d0 f8 88 5d b5 9e cf 2a 3d 60 f6 a3 bc 66 a1 de b8
       -8.252823e-07 0.041701905 -0.020014942 -0.00010615848
0001e0 4f ee 05 b7 85 58 c9 3d 74 cd 29 3d 0d b2 06 3e
       -7.982903e-06 0.09831337 0.0414557 0.13153858
0001f0 88 61 05 00 23 22 06 00 a2 e0 5f be 11 5f d4 bd
       4.94165e-40 5.63259e-40 -0.21863034 -0.10369695
000200 00 2b 38 be ec c5 2e 3e 72 f2 65 bb a8 60 6b be
       -0.17985153 0.17067689 -0.0035087136 -0.2298609
000210 5f da 74 bd 28 ce b3 34 43 da 9f 3d 53 41 73 83
       -0.059778567 3.3491347e-07 0.07805302 -7.148627e-37
000220 8f 4d a2 bc 9c 00 8d be 49 9b a7 bd f7 2b 0b 3e
       -0.019812373 -0.27539527 -0.08183915 0.1359099
000230 ed 53 1e 29 c3 9c ef bb d5 2a 90 be 16 b1 f5 3d
       3.515584e-14 -0.0073123886 -0.28157678 0.11996667
000240 1f b6 81 be 9a 99 1a be 66 d2 8d be 01 da 6e 3b
       -0.2533426 -0.15097657 -0.27699584 0.0036445858
000250 7b 74 c0 b6 33 af 20 3c 06 77 9b bb 60 59 ae 2e
       -5.735606e-06 0.009807396 -0.0047444133 7.92848e-11
000260 11 b4 91 b6 56 9f dd 3d 3b 3e b4 3c da 13 23 3e
       -4.3422992e-06 0.108214065 0.02200233 0.15925542
000270 39 5b 05 80 d4 5c 05 80 50 02 ee be 9b 55 eb bc
       -4.91902e-40 -4.92478e-40 -0.4648614 -0.028727343

classifier.3.bias f4 [5]
000000 86 2b 2a 3f 36 7f 7d be ae 62 2e 3e 16 c6 d2 be
       0.6647266 -0.24755558 0.17029831 -0.41166753
000010 2e 73 f8 be
       -0.48525375

onnx::LSTM_197 f4 [1, 256, 92]
000000 c6 ff 20 bc 2e e4 2f 3d 2f cf 81 bd f8 e8 a1 3d
       -0.009826606 0.04294222 -0.06338345 0.079057634
000010 48 a6 75 3d 01 cb 11 be 3c 36 93 3d 02 81 e5 bb
       0.05997303 -0.14237596 0.07188079 -0.0070039043
000020 59 70 cc bd 61 9f 8a bd 54 40 77 bc 8e 09 50 bd
       -0.09982366 -0.0676868 -0.015091021 -0.050790362
000030 81 cc 8e bd 49 e1 39 3e 57 ab f8 bc 67 72 83 bd
       -0.069726 0.18152346 -0.030355139 -0.06418305
000040 e7 42 40 3d b9 dc 85 3d e3 e2 f4 3d 75 65 94 bc
       0.046938803 0.0653624 0.11957338 -0.018114785
000050 d3 7c c3 bd e4 38 cd bd f4 cb 33 3d 30 93 f7 3c
       -0.09545293 -0.10020617 0.043895677 0.030221552
000060 09 3a a6 bd 96 af 22 3e 2c 35 9d bd c8 74 4f 3b
       -0.08116538 0.15887293 -0.07676157 0.00316553
000070 d5 de fb 3d 64 83 c2 bc 5d ce c2 3d bf a6 59 be
       0.12298361 -0.023744293 0.09512017 -0.21255015
000080 ce 79 9c bc 8f 42 a3 3d 76 29 4a 3e 67 ce ab bc
       -0.01910105 0.079716794 0.19742379 -0.020972444
000090 4f 32 61 3d d6 61 80 bd 50 a0 10 bc 87 16 b0 3d
       0.05497962 -0.06268661 -0.008827284 0.08598047
0000a0 20 02 c2 3d 6b 47 32 be f1 c5 b8 3d 13 ed b7 3d
       0.094730616 -0.17410056 0.09022129 0.08980765
0000b0 1f bc 4e bd c5 fa 57 bd 38 af 1e bd 8a 7c 16 bd
       -0.050472375 -0.052729387 -0.03874132 -0.036739863
0000c0 df 7c b8 3d cc c2 2b be 49 e4 08 3e e3 07 1a 3e
       0.09008192 -0.16773528 0.13368334 0.15042071
0000d0 cb 67 96 bd eb 86 41 3d 51 84 15 3e a6 9e 7e 3e
       -0.07344016 0.04724781 0.14601256 0.24865207
0000e0 6a 0b 83 bc b7 cd 76 be 3f 42 06 80 89 5a 05 80
       -0.015996654 -0.24101911 -5.74778e-40 -4.91655e-40
0000f0 d7 66 05 80 64 ea 05 00 e8 f1 16 3e 8d 1d 83 3d
       -4.9607e-40 5.43261e-40 0.14740717 0.06402121
000100 aa 6a 29 3e 12 b7 8d 3d 68 84 c6 3d ee e5 44 3c
       0.16544595 0.069196835 0.09693223 0.01201771
000110 1b 14 b0 3d 7d 4f c3 bc 8d 2a ba bc 69 1a fe bc
       0.08597585 -0.023841614 -0.022725368 -0.031018453
000120 4a 99 dc 3c 69 ed 02 3e 35 d9 13 be 59 b2 ed bc
       0.026928563 0.12785877 -0.14438327 -0.029015707
000130 ee cf b7 bd 1e cf 5d bd 93 86 0a be 45 39 b0 3e
       -0.08975206 -0.0541526 -0.13527898 0.34418693
000140 2b 2c cc 3d 4d ba 9c 3c cc 78 c5 3c d5 3f ab 3e
       0.09969362 0.019131804 0.024105452 0.33447137
000150 db 21 4d 3e 9f 45 bb bd 84 72 f6 3d ac 03 10 3f
       0.20032446 -0.091441385 0.12033561 0.562556
000160 cd 03 48 be 7c d7 30 bb de 90 f5 bc 44 78 aa bd
       -0.195327 -0.0026983907 -0.029976305 -0.0832372
000170 32 7a e6 bc 06 94 ab b9 ec d2 74 3d 41 c4 4c 3d
       -0.02813444 -0.00032725948 0.059771463 0.04999185
000180 f7 01 8b bc 68 3c c3 3e 9c 11 ec 3d ac 7c 24 ba
       -0.01696871 0.38132024 0.11526796 -0.0006274681
000190 55 26 ab 3d 0c 32 3f be 97 d8 8b 3e b3 05 cc 3d
       0.08356921 -0.18671435 0.27313682 0.099620245
0001a0 40 30 ab 3d bc 54 4e 3e 37 74 01 3d a4 d7 17 be
       0.08358812 0.20149511 0.03160497 -0.14828354
0001b0 d7 60 80 3d 25 cb 45 3e 03 02 a3 3c 43 ff dd 3d
       0.06268471 0.19315775 0.01989842 0.10839703
0001c0 ce ab e7 bc 78 10 6c 3e e9 f1 89 3e e4 d6 1b be
       -0.028280165 0.23053157 0.26942375 -0.15218693
0001d0 d0 a4 f9 bd 61 25 d6 3d 80 6a 06 3c f8 c6 b7 bd
       -0.121896386 0.10456348 0.0082041025 -0.08973497
0001e0 40 e6 b0 bd 63 fd 36 bd 98 a0 77 3c 75 51 a2 3d
       -0.08637667 -0.044675242 0.015113972 0.07925693
0001f0 66 24 13 3e ab 87 33 3e fe 8f 0a 3d f7 f8 ad 3d
       0.14369354 0.17532222 0.033828728 0.08494752
000200 1e 3b c6 bc 0a 4a 93 bb 5b c8 ab 3e ce f5 0c 3d
       -0.024198111 -0.00449491 0.33551297 0.034414105
000210 66 4c 41 bd ca 5f 68 be ab e1 a6 be 5a 62 3c be
       -0.047192 -0.2269279 -0.32594046 -0.18396893
000220 a9 a2 ea 3e 91 ee 27 3e ce f1 3e 3e 58 bc ac 3b
       0.45827225 0.163996 0.18646929 0.0052714758
000230 7d 4c a8 3d 24 ac f5 bd f6 58 1c 3e 0d 92 61 be
       0.08217714 -0.11995724 0.15268311 -0.2202837
000240 07 3e 78 3d d4 e8 db bd 7e cf 9d bd 01 e4 dd 3a
       0.06060603 -0.10737768 -0.077055916 0.0016928912
000250 8b 62 64 be c1 0b 49 3e 47 81 06 80 57 0b 06 00
       -0.22303216 0.1963339 -5.97389e-40 5.55081e-40
000260 3b 92 06 80 99 9e 05 00 cd c9 82 3c b0 0d 15 3f
       -6.0347e-40 5.16072e-40 0.015965367 0.5822401
000270 7e d0 b7 3d 7d 4b 84 bc 91 ed 33 3e d2 73 f7 3d
       0.089753136 -0.016149277 0.17571093 0.12082638
000280 96 b3 a3 3d 7f 69 8d bc 3c 65 7c 3d c0 c3 d3 bd
       0.07993238 -0.017262219 0.061619982 -0.10340071
000290 29 82 07 bd 66 9b 57 bd d2 99 c4 bd 19 cd c7 bd
       -0.033083115 -0.052638434 -0.095996514 -0.09755916
0002a0 ef cc cd bd fd a8 cb 3c c7 b6 0d 3f 6a f8 a2 bc
       -0.100488536 0.024860853 0.5535702 -0.019893844
0002b0 7a 45 ee 3e ca 90 2a 3d 7a d1 ac 3b 7e b9 50 be
       0.4653738 0.041641988 0.005273995 -0.2038326
0002c0 5f 7c ce 3d 67 27 cc 3c a7 ca 1f 3d 0c 7c 20 3e
       0.10082316 0.024921132 0.039011624 0.1567232
0002d0 a3 68 aa bc 61 78 a3 3d 7b 45 3f be ef 43 41 be
       -0.020801848 0.07981945 -0.18678848 -0.18873571
0002e0 a7 70 90 bb 70 01 02 3e 8e e9 0d 3e 5a 02 b6 3b
       -0.0044079605 0.12695861 0.13858625 0.0055544795
0002f0 2d ca 8b bd f8 19 5d 3e 09 50 c8 bd 29 95 63 bd
       -0.06825671 0.21591938 -0.097808905 -0.055562172
000300 3c 09 44 bd 18 e9 b4 3e bb 94 26 3e be ef 7f 3d
       -0.04786037 0.35334086 0.16267674 0.062484495
000310 f9 39 7c 3d b5 3c dd 3d 59 e6 b2 3d b6 e4 1f be
       0.061578725 0.108025946 0.087353416 -0.1561459
000320 22 d5 0c bd 1b 71 7d 3d 6c f7 87 3d b3 35 85 3c
       -0.034382947 0.061875444 0.06638989 0.016260957
000330 6d 7e ba 3d 14 d4 37 be 3f 20 f2 bc ea 88 23 bd
       0.09106145 -0.17951995 -0.029556392 -0.039925493
000340 e5 4a 3e 3d 90 dc b0 3d 5c 8b 59 3c 9c 6e be ba
       0.046458144 0.08635819 0.013277855 -0.0014528814
000350 a4 03 7a bd 33 3e fe 3c 71 4a f9 3d 15 b3 da 3d
       -0.06103863 0.031035518 0.12172402 0.106786884
000360 a1 e1 b6 3d 47 dd a7 3d 30 bd 5c bd 72 35 3d 3d
       0.08929754 0.08196502 -0.05389136 0.046193548
000370 e1 dd 5d bc 0a aa 20 bd 80 3f c3 3e e9 20 a1 bd
       -0.01354167 -0.039224662 0.38134384 -0.07867605
000380 43 f2 56 bd 9a b7 a4 3e e7 d9 33 3c 96 62 d4 3d
       -0.052477133 0.32171327 0.010977245 0.10370366
000390 17 aa e0 3d a0 ea d2 3d 4f 33 a3 3d 35 02 78 be
       0.10969942 0.102986574 0.07968771 -0.24219592
0003a0 37 9b e8 bc 0d e0 64 3d a0 22 40 3e 3d 9c e0 3d
       -0.028394325 0.055877734 0.18763208 0.109673
0003b0 23 03 af 3e 60 0b 15 3e 6a 9c c5 3d db 0e 92 bd
       0.3418208 0.1455512 0.09648974 -0.0713174
0003c0 a3 1e e8 bd 87 e1 a1 3d 9a 9d 05 00 30 67 05 80
       -0.113339685 0.07904344 5.15714e-40 -4.96194e-40
0003d0 3f 8b 05 80 0b 6d 06 00 5b 6b b2 3d a0 03 44 3e
       -5.0913e-40 5.9013e-40 0.08711883 0.19142008
0003e0 43 dd 67 3d 46 b7 7a bd e4 a1 0a be 3d af 54 bd
       0.056607496 -0.06120994 -0.13538319 -0.051924933
0003f0 f9 32 4f 3e 10 7b 54 3e ce ab 08 be f4 21 52 3d
       0.20234288 0.2075007 -0.13346788 0.05130191

onnx::LSTM_198 f4 [1, 256, 64]
000000 db e2 37 be c0 81 d3 3d 7a 8a 70 3b cd 00 3e bd
       -0.17957632 0.10327482 0.0036703632 -0.046387482
000010 1e 05 ea 3d 1e 6d 96 3e db 23 2c 3e 5e 91 67 3e
       0.11426757 0.29380125 0.16810553 0.22614047
000020 bd 64 10 be 8d 83 11 bd 5f c4 57 bb 4b b5 1b be
       -0.14100929 -0.035525847 -0.0032923443 -0.15205877
000030 60 bc a6 bc 6f 49 a7 3e 10 8e 15 be e6 38 3b 3e
       -0.020353496 0.32673213 -0.14604974 0.18283424
000040 fa 66 28 3d b5 14 39 bd ab 8b 14 3e e3 12 23 be
       0.04111383 -0.045185763 0.14506404 -0.15925173
000050 bd d4 1f bd 55 94 51 3e 2c 3a 41 3d e8 13 80 3e
       -0.039021242 0.2046674 0.047174618 0.25015187
000060 19 18 7a bb 7d ae 8a 3d a0 b7 40 be 58 b6 4e 3d
       -0.0038161336 0.06771562 -0.18820047 0.050466865
000070 3a 1b f8 bc 1f 0a 2d bd 24 9f 6d 3e 3c d6 96 3b
       -0.03028642 -0.04224598 0.23205239 0.0046031754
000080 eb 8f de bd 6d 05 0e 3e f9 b8 9f 3e e2 72 91 bb
       -0.10867294 0.13869257 0.3119581 -0.004438744
000090 e4 2f 91 bd 6a 18 53 be 6c 85 f2 3d 41 a1 01 bc
       -0.070892125 -0.20614782 0.118418545 -0.007911981
0000a0 f1 61 93 3e a3 39 96 bd 60 aa 93 3e e5 82 d0 3d
       0.2878566 -0.07335212 0.28840923 0.10181216
0000b0 23 c6 b1 3d 3a 8a c1 3b 62 1f 91 bd 71 9c 4f be
       0.0868037 0.0059063705 -0.07086064 -0.20274521
0000c0 55 e5 8b be 68 53 93 bd 4d b2 80 be 0a a2 14 be
       -0.27323404 -0.07193643 -0.25136033 -0.14514938
0000d0 03 97 6d 3e 99 f7 b6 bd f0 7e a7 bd c2 b4 6d 3e
       0.23202138 -0.08933944 -0.08178508 0.23213485
0000e0 e2 d5 6e 3e d8 3e 69 3d 2f 95 43 3d 0a 3e 1a 3e
       0.23323777 0.056944698 0.047749694 0.15062729
0000f0 ca 52 a1 3e 54 96 9d be 60 45 78 3d 02 76 46 3d
       0.31508476 -0.30778754 0.060613036 0.048452385
000100 c2 d6 89 3d 28 c9 fb bc 38 57 67 3c aa 8b 6d 3d
       0.06730415 -0.030735567 0.014119916 0.057994522
000110 89 d8 29 be 74 40 fc 3c 3a 93 be 3c d4 d1 d8 3c
       -0.16586508 0.030792452 0.023263562 0.026467241
000120 c4 0a 0f be 2d 44 be 3d df d2 09 bd a7 6a 04 3e
       -0.1396895 0.09290347 -0.033648368 0.1293131
000130 ac 15 04 3e 82 09 21 3e 08 cd b1 bd e8 ae 17 3d
       0.12898892 0.15726283 -0.08681685 0.037032038
000140 35 69 81 3d d0 b1 b2 3c 4f ce 02 be 78 54 23 3d
       0.06318895 0.021813303 -0.12774013 0.039875478
000150 68 95 a3 bd 67 98 9f 3e 53 eb fa bd dd 25 cc bc
       -0.07987481 0.3117096 -0.12251916 -0.024920398
000160 03 df 04 be 98 ba 1d 3e e4 ca e2 bd c4 66 89 3e
       -0.12975697 0.15403211 -0.110738546 0.26836216
000170 40 02 85 be a3 e4 1a be d1 90 8b 3e ce 47 be 3e
       -0.2597828 -0.1512628 0.27258924 0.37164158
000180 4d 50 d8 3d c5 bf 79 3e b7 a6 21 bd c3 bf e8 bd
       0.10562191 0.2438956 -0.039465632 -0.11364701
000190 61 58 12 bd 14 26 79 3e 28 75 1a 3e 06 a2 91 3e
       -0.035728816 0.24330932 0.15083754 0.28443927
0001a0 d3 b9 9b bd 3d d6 d1 3d 24 63 9c 3d 46 50 4e 3e
       -0.076038025 0.10245941 0.07636097 0.2014781
0001b0 4e ce 28 3e 42 f0 73 be 30 dc 6f bd 81 01 df 3c
       0.16484949 -0.2382212 -0.058559597 0.027222397
0001c0 e7 19 70 bd 46 bf 90 3d 6a ca 8e bd 7a 26 59 3e
       -0.058618452 0.070677325 -0.06972201 0.21206084
0001d0 42 b7 3d bd f0 44 a5 bd 90 87 7f bd 6c ce 07 3e
       -0.046317346 -0.080697894 -0.06238514 0.13262337
0001e0 38 cf 79 3e 63 f1 8d bb 2d 82 01 3e 5c f1 86 bd
       0.24395454 -0.004331754 0.12647314 -0.065890044
0001f0 04 05 9e 3e d7 92 9b be c3 9d 88 be 42 e8 e0 bd
       0.30863202 -0.30385467 -0.26682863 -0.109818
000200 8c 54 f1 3d c6 8e be 3d c4 bf 03 3d 97 fc 84 bb
       0.11783704 0.093045756 0.032165304 -0.0040584314
000210 7e 5d cf 3d 88 81 75 bc 9c c0 f7 3d ee b5 16 3b
       0.10125254 -0.014984496 0.12097284 0.0022996622
000220 02 db 63 3e 95 23 96 3b 83 0b 5b bd ed 1c 1e 3e
       0.22251514 0.0045818784 -0.053477775 0.15440722
000230 a3 ad 0b be fa 0b 0a 3d 67 bb 45 3b c6 bf fc 3d
       -0.13640456 0.033702828 0.0030171515 0.123412654
000240 7b cd 59 be a5 20 63 3b 34 d8 b6 bd 9b 4b 83 3d
       -0.21269791 0.0034656909 -0.08927956 0.06410905
000250 91 2e 37 3c 91 5d 51 be ac a4 fe bd 78 f8 9b bc
       0.011180536 -0.20445849 -0.124337524 -0.019039378
000260 49 e4 f0 bd 53 a7 c4 bd 6e 4e 1f be aa e9 50 be
       -0.11762292 -0.09602227 -0.15557262 -0.20401636
000270 e1 af 13 3e 54 85 2a 3e 4a d4 96 be d6 4a a7 bd
       0.14422561 0.16652423 -0.2945884 -0.08168571
000280 e5 15 b1 bd 5e 70 83 3e c9 a8 1f be fc 6b 02 bf
       -0.08646754 0.25671667 -0.1559173 -0.5094602
000290 09 bd 94 bd d0 4a 12 be 8c 81 44 3d 00 05 46 3e
       -0.07262618 -0.14286351 0.047975108 0.19337845
0002a0 5e f6 ca be 20 7c aa bc 2d 0b 1a 3d cf 46 44 be
       -0.39641088 -0.02081114 0.037608314 -0.19167636
0002b0 d4 a5 b7 3d 1d 63 22 3e 30 e5 00 3e 6a e2 18 be
       0.08967176 0.15858121 0.12587428 -0.1493012
0002c0 3e b9 90 3e 57 df dc bb 61 da 64 be 52 a0 26 bc
       0.2826633 -0.0067404914 -0.2234893 -0.010170059
0002d0 b0 91 bf bd d1 d2 94 3e 92 d3 c0 bb 95 68 fa bd
       -0.093539596 0.2906709 -0.005884596 -0.12226979
0002e0 1c e2 b1 bd 05 4e 3d bc 54 70 90 3d 8f a5 3c 3d
       -0.08685705 -0.011554246 0.07052675 0.046056326
0002f0 86 19 99 3d 1e 59 80 3e 57 3e 17 bd 89 bf 34 3d
       0.07475571 0.2506799 -0.036924686 0.044127975
000300 86 99 47 bd 09 96 9c 3b 13 c0 4d be d2 74 84 bc
       -0.048730396 0.004778628 -0.20092802 -0.016168986
000310 48 86 ac 3c 4e 39 7f 3e 79 17 e1 3d 90 0e 81 3e
       0.021060124 0.24924204 0.10990805 0.25206423
000320 87 b8 cd bd d8 3e 0f 3d 1f 32 c0 3c ed 75 b6 bd
       -0.100449614 0.03497204 0.0234614 -0.08909211
000330 c2 c1 b0 3d 5d 17 c0 3e 4e 50 0c be 28 5e af bd
       0.08630706 0.37517825 -0.13702509 -0.08562881
000340 06 da 68 3d e1 c4 3c be 98 3c 27 3d 74 2b 0b bd
       0.05684855 -0.18434478 0.04082927 -0.033976987
000350 75 c8 fd bd db c8 5e 3e 49 cc 98 bd c4 e1 80 3d
       -0.1239175 0.21756308 -0.07460839 0.062930614
000360 ac d6 1e 3e a4 a6 20 3d 6a 73 2e be 70 d7 bf 3d
       0.15511578 0.03922142 -0.17036214 0.09367263
000370 1a 4f f1 bc 68 af 01 3e 53 43 3a 3e 97 45 91 3e
       -0.029456664 0.12664568 0.18189745 0.28373405
000380 90 42 1e be b8 f5 c9 3d fe 7f c8 bc ee b9 51 3d
       -0.15455079 0.0986132 -0.024475094 0.051202707
000390 b6 d1 51 bd e4 6f cd bc 70 af 4c 3c f5 d1 11 bd
       -0.051225387 -0.025077768 0.012492999 -0.03560062
0003a0 d9 e9 15 bc d9 13 dc 3d d8 f4 27 3c 96 03 3a bc
       -0.009149992 0.10745973 0.010251246 -0.011353394
0003b0 65 f2 2f 3d 84 2d 00 3d e1 89 4e be 28 8a 1e 3d
       0.042955775 0.031293407 -0.20169784 0.038705975
0003c0 ad 91 c6 bd a8 86 43 3d 5e e9 27 be fa 8c d1 bd
       -0.09695754 0.04773584 -0.16397616 -0.10231967
0003d0 fc 5e 5d 3d 62 a9 f1 bd 71 2f 5a 3d 30 2b 81 3d
       0.054045662 -0.11799885 0.0532679 0.063070655
0003e0 a5 e8 2c 3d 49 17 e6 bc 1d bd 8c 3e f2 80 3d 3e
       0.042214055 -0.028087275 0.27488032 0.1850622
0003f0 55 b9 e9 bd 04 6a 0d be 06 ca 1a 3c 3e f1 39 3c
       -0.114123024 -0.13809973 0.00944758 0.0113490205

onnx::LSTM_199 f4 [1, 512]
000000 77 d8 5d be 5d 9b 17 be fc 80 d1 bd ac 75 c5 bc
       -0.21664606 -0.1480536 -0.1022968 -0.024103962
000010 cf 22 00 be c1 5e 58 bd 4b aa cc bc 2e 0e 74 be
       -0.12513278 -0.05282474 -0.024983546 -0.23833534
000020 3c 0b c2 be c6 19 58 be 20 c8 eb bd 85 eb d8 be
       -0.37899196 -0.21103582 -0.1151278 -0.42367187
000030 12 c4 44 be ab 37 15 be 2a 3c ac be 9b 0b 3c be
       -0.1921542 -0.14572017 -0.33639652 -0.18363802
000040 36 34 39 be fc 65 87 be 07 b7 21 3c 88 76 53 be
       -0.18086323 -0.26444995 0.009870297 -0.20650685
000050 6a 53 93 bd 0b 38 64 be 8d de 22 be 08 27 89 be
       -0.07193644 -0.22287004 -0.15905209 -0.2678759
000060 84 0e 10 be cc b4 25 be db f1 d4 be e5 32 d4 bd
       -0.14068037 -0.1618225 -0.4159077 -0.1036127
000070 77 93 dd be ff 1f 4b be 81 53 1a be 2d cc bb be
       -0.4327657 -0.19836424 -0.15070917 -0.3667921
000080 e5 f7 e2 be 42 aa 81 be 25 4b ea bd 1c b7 2d be
       -0.44329754 -0.2532521 -0.11440114 -0.16964382
000090 2e 10 47 be 3a 9c da be 45 a2 84 bd 41 c9 8d be
       -0.19439766 -0.42697316 -0.06476263 -0.27692607
0000a0 ab 24 9c bd 04 ab 3e be d2 8f a1 3d 22 94 8c be
       -0.07624181 -0.18619925 0.0788876 -0.27456766
0000b0 04 13 bf be 41 b7 db bd a3 ce 33 be 47 12 09 3c
       -0.37319195 -0.10728312 -0.17559294 0.008366174
0000c0 e2 09 ba bd cb 9a 88 bd fe 1b c2 bd 75 1f 0d bd
       -0.09083916 -0.066701494 -0.09477995 -0.034453828
0000d0 a0 c4 66 bd 79 01 f5 bd 27 a3 50 be b2 44 4b be
       -0.05633986 -0.119631715 -0.20374738 -0.19850424
0000e0 c4 cd ab be 76 4d 24 be 9a 52 de bd a7 f1 c4 bd
       -0.33555424 -0.16045174 -0.10855599 -0.09616404
0000f0 00 9a 8a be ae 35 c9 be 0b 49 c0 bd ac f1 8e bd
       -0.27070618 -0.39298767 -0.09388932 -0.06979689
000100 50 60 0b 3e 44 1a 80 bb f3 e4 2a 3d 45 6f a7 3c
       0.13610959 -0.003909381 0.04172225 0.0204388
000110 31 da f2 bb 27 6f cd bd 18 99 3b bd 1b 14 0f be
       -0.0074112643 -0.10030966 -0.0458003 -0.13972513
000120 c1 78 3c bc 3b 51 ff 3c 02 38 8b 3d 18 31 1b be
       -0.011503399 0.031166663 0.06797792 -0.15155447
000130 c0 c2 33 bd 16 1d 7f 3d aa d1 6b 3e ed a5 18 be
       -0.0438869 0.062283598 0.23029199 -0.14907046
000140 91 dd 3f be 9d 1b ec bd 6f c4 f7 bc 31 23 07 be
       -0.18736865 -0.11528704 -0.030245034 -0.13197018
000150 e3 ba 21 3d 1e 32 7d bc 68 2c 73 bd 3d a8 50 bd
       0.03948487 -0.015453843 -0.05936852 -0.050941695
000160 94 d2 d9 bc b2 2d 2b be d9 c7 ad bc 57 d0 1a be
       -0.02658967 -0.1671665 -0.021213459 -0.15118538
000170 c3 19 08 be 8b 9a b0 bd 7f 18 35 bd fd f7 c2 3c
       -0.13291077 -0.08623227 -0.044212814 0.02379989
000180 97 7d 48 3c f2 a5 95 bd 4b 81 19 ba 94 88 82 3e
       0.012236974 -0.07307042 -0.0005855753 0.25494826
000190 64 94 bb 3d 6c e8 c9 bc 77 4e 19 bd b8 8d 9e bc
       0.09159163 -0.02464696 -0.037428346 -0.019354686
0001a0 b1 ac 0f 3d 08 e3 b5 3d 2b a8 f3 bd 5f da 1c be
       0.0350768 0.088811934 -0.1189731 -0.15317677
0001b0 1f 9a 11 bd fa be 72 3d 8a 9d e5 3d 32 35 3d 3a
       -0.035547372 0.05926416 0.11211689 0.00072177046
0001c0 d8 a6 0b be 7e 5f bf 3d ae fa e7 bd 13 2b f0 bc
       -0.13637865 0.093443856 -0.1132711 -0.029317414
0001d0 53 06 02 3d b3 7f 9f 3d 7f 9f d5 bd 5b 04 1c be
       0.031744312 0.077880286 -0.10430812 -0.15236036
0001e0 47 fb fa bd cb 3d 37 3d 1a d4 d0 3c a3 91 05 be
       -0.122549586 0.044736665 0.025491763 -0.13043837
0001f0 a5 4e 52 bd 5a 52 eb 3d d9 8d 11 3d 97 54 13 be
       -0.051344533 0.11490317 0.035535667 -0.14387737
000200 c1 cd a8 3c ea 5f 7d 3d 13 d1 73 3e 38 34 87 3e
       0.020605924 0.06185905 0.23810224 0.26407027
000210 fa 87 fe 3d 66 03 e7 bd d4 d6 36 3d 11 58 81 3d
       0.12428279 -0.11279945 0.04463847 0.063156255
000220 a1 94 3b bd 50 55 ae 3e b5 0d 54 3e 72 33 d9 bd
       -0.04579604 0.34049463 0.20708354 -0.106055155
000230 c8 26 b8 bd 24 ee 81 3d b2 fc a4 3e 02 08 2a be
       -0.08991772 0.0634425 0.3222404 -0.16604617
000240 55 a1 cc 3d fa d6 9a 3b 0f 9b 32 3e 42 3f 55 3e
       0.09991709 0.0047253342 0.17441963 0.20824912
000250 3a 77 72 3e bf 6e 0f bd ee 6c 60 3d 23 df ab 3d
       0.23678294 -0.035017725 0.054791383 0.08392169
000260 9b 1f 51 3d b8 50 86 bc 3a c4 5c 3e 2e 22 e2 3c
       0.051055532 -0.016395912 0.2155923 0.027604189
000270 70 c4 59 3d 03 d9 ef bb bc 09 97 3e ca 22 d3 3d
       0.053165853 -0.007319571 0.29499614 0.1030937
000280 cb 84 28 be a2 94 12 bc b9 6e fa 3d 6d 88 e2 3e
       -0.16456906 -0.00894657 0.1222815 0.4424471
000290 c0 e2 07 3e e6 46 85 bd f3 b1 87 3e a8 62 27 bc
       0.13270092 -0.065076634 0.26502952 -0.010216393
0002a0 ac 3c 61 3c dd 3d 59 3d f4 7c 6d bd d0 02 5d 3e
       0.013747375 0.053037513 -0.057980493 0.21583104
0002b0 f7 cd 17 bd ac f3 f5 bc 66 ac a7 bd 59 59 0e 3e
       -0.037061658 -0.030023418 -0.08187179 0.13901271
0002c0 14 8e 46 3e 9e c8 ba 3e 93 b3 67 bc 98 60 f3 bd
       0.19390136 0.36481184 -0.014141935 -0.11883658
0002d0 60 a5 a1 3c 9c 1d 68 3e 38 4c 77 3d 79 a1 04 3e
       0.019732177 0.22667545 0.060375422 0.12952222
0002e0 f2 da b9 bd 75 a9 d9 3d 68 01 64 3e 2f 8f 70 3e
       -0.09074964 0.106280245 0.22266161 0.2349212
0002f0 be ec ee 3d f3 e2 e6 3d 5b 0c 1c 3d b9 ba 8c 3e
       0.11666249 0.11273756 0.03809772 0.27486208
000300 53 9a 22 be 4d a9 ea bd c2 1a 4b bc e8 12 d2 3d
       -0.15879183 -0.11458073 -0.012396516 0.10257512
000310 e6 65 ae bd 65 86 40 bd 95 a7 f9 3d 19 c0 0d 3d
       -0.08515529 -0.04700317 0.12190167 0.034607027
000320 09 6b 7e 3d e0 8d 30 3d 6f d0 48 bc 0e e7 46 3d
       0.062113795 0.043104053 -0.012256726 0.048560195
000330 a1 d0 0b bd 76 88 a2 3e 7f d8 29 be db 7a c3 bd
       -0.03413451 0.31744736 -0.16586493 -0.09544917
000340 dd 39 09 3e 8b 7a 8f bd 06 c0 3a be 8f 77 33 bd
       0.1340098 -0.07005795 -0.18237314 -0.04381519
000350 66 ce c1 be a5 c6 69 3d 5d dd b7 bc 4d 06 cd 3d
       -0.37852782 0.057074208 -0.022444421 0.100109674
000360 e5 4b fc 3d bc 69 7d be c0 a4 ad bc 6d ea 75 3d
       0.12319163 -0.24747366 -0.021196723 0.06003802
000370 52 b6 12 bd 39 ea 54 be 14 6f 7b bd 0a 98 41 3c
       -0.035818405 -0.20792474 -0.06138523 0.011816034
000380 e3 d0 dc bd ea 93 e4 bd a1 1c 1f be 31 8b a3 3d
       -0.107820295 -0.11161025 -0.15538265 0.07985533
000390 98 b9 84 be 03 b6 09 be 2c df 15 3e 32 d7 50 bc
       -0.25922847 -0.13448338 0.14635915 -0.012746619
0003a0 96 9b 3f bc 4a 76 cb 3d d9 28 e6 bd 7d 8d 04 be
       -0.011694809 0.09934671 -0.1123826 -0.12944598
0003b0 63 ab 76 bd b3 60 ca bd 10 b5 94 be 4d 13 5c 3e
       -0.06022204 -0.09881725 -0.2904439 0.21491738
0003c0 6e 41 e5 3d e9 63 c6 bd ee f9 a1 bd ab 46 21 3d
       0.1119412 -0.09687025 -0.079089984 0.039374035
0003d0 0c 86 08 3e dd 83 73 bd 16 cc 00 be 76 6b e6 3c
       0.13332385 -0.059451926 -0.12577853 0.028127413
0003e0 35 49 9c 3e 90 eb 44 3d ce 0b 2d bd 3a 83 02 bd
       0.30524603 0.048076212 -0.042247586 -0.03186343
0003f0 1a a2 4a 3e c3 e2 86 b9 d4 31 12 be a6 ac 44 bd
       0.197884 -0.00025727422 -0.1427682 -0.048016213

onnx::LSTM_217 f4 [1, 256, 64]
000000 fc 3f c3 3e f6 c8 b0 be 8d 7f 3a 3e 0f a4 89 bd
       0.38134754 -0.3452832 0.1821272 -0.06720745
000010 e8 ac 1c 3e 6d c0 c4 bd 13 8b 46 be 13 dc 2b be
       0.15300333 -0.09607015 -0.1938899 -0.1678317
000020 35 33 ec 3d 0b 83 fa bd 06 6d 92 be 69 4b fa 3e
       0.115332045 -0.12232026 -0.28598803 0.48885658
000030 48 3f 32 be db 5e 9e be 54 4d 0e 3f 0f a6 f5 3d
       -0.17406952 -0.30931744 0.55586743 0.11994564
000040 d3 bc b9 be 56 d2 8d 3e 78 22 a1 3e e2 7f fc 3d
       -0.36276874 0.27699536 0.3147161 0.12329079
000050 f0 ab e2 3e 29 1c 30 bf d9 4f a7 3e a5 0d 23 be
       0.44271803 -0.6879297 0.32678106 -0.15923174
000060 90 b2 b6 bb e1 fd 37 3e 10 88 1c 3e 69 98 e3 be
       -0.0055754855 0.17967941 0.15286279 -0.44452217
000070 a4 49 af 3e 9e cb 0b be 10 e4 e5 3d 37 ff 65 be
       0.3423587 -0.13651893 0.1122514 -0.22460638
000080 1d 22 4c 3e a2 12 c8 be 1e 41 07 be e3 d8 a9 3e
       0.19934888 -0.39076716 -0.13208434 0.33173284
000090 b7 31 93 3e 7e ef 82 3e 27 28 e9 bb d3 1e bb 3d
       0.28748867 0.25573343 -0.0071153822 0.09136739
0000a0 93 c9 fa 3c 7c 2c 26 be b8 f5 4c 3d 87 e6 d7 bd
       0.030613696 -0.16227907 0.050039023 -0.105420165
0000b0 38 5b 6a 3e 2b e9 21 3c 8b 74 a4 3e e2 93 99 be
       0.2288636 0.009882252 0.32120165 -0.29995638
0000c0 d4 c5 9a 3d a2 c9 66 3d b8 08 00 bd 7d c6 a0 be
       0.07557264 0.056344636 -0.031258315 -0.31401435
0000d0 3a ec 13 be 16 25 d6 3e 49 00 98 3d 4a 48 60 be
       -0.14445582 0.4182517 0.074219294 -0.21902576
0000e0 c5 0b 7d be 59 78 55 bd 14 80 6e 3c 14 7f 9f 3d
       -0.24711521 -0.052116726 0.014556903 0.0778791
0000f0 94 f9 7f 3d a3 85 49 3c aa 0c 02 3e 68 1b 99 3d
       0.062493876 0.012299928 0.12700143 0.074759305
000100 1a 92 a8 3c d2 cf ba ba aa 11 9c 3a 3d 67 a2 3c
       0.02057748 -0.0014252609 0.001190712 0.019824618
000110 28 99 ee 3a dc b9 0e 3e a4 13 1c 3d 28 ca 87 3e
       0.0018203603 0.13938087 0.03810467 0.2652142
000120 2e b2 e3 bd e4 69 3c bd 36 91 0d bc 66 15 8a bd
       -0.111179695 -0.045999423 -0.008640578 -0.06742363
000130 c0 bb 81 3e 39 22 42 3e 99 ec 22 bc 88 de 5f 3d
       0.25338554 0.18958367 -0.009944105 0.05465558
000140 88 06 44 bd 55 3b 08 bd a6 b4 03 3e 4b 46 5b be
       -0.04785779 -0.03325971 0.1286188 -0.21413533
000150 b1 06 9d 3c 88 f9 a7 bd 39 e0 0b 3e f2 98 b4 3d
       0.01916823 -0.08201891 0.13659753 0.088182345
000160 3c 8f 21 3e e0 c0 a9 bd 0e 2c 4a be 0a 81 52 bb
       0.15777296 -0.08288741 -0.19743368 -0.003212037
000170 d6 51 8e 3d 1c 19 b1 be ef 60 4a 3e 32 08 0d 3e
       0.06949203 -0.3458947 0.1976354 0.13772658
000180 ff dc 01 3d ef ac 9c bd 32 7e a7 bd cb e8 4b bc
       0.0317049 -0.07650172 -0.08178367 -0.012445639
000190 32 aa bd bb 7c 03 16 bd 8e 66 ca 3d 35 08 9c bd
       -0.005788111 -0.036624417 0.09882842 -0.07618753
0001a0 50 1e 14 3e c2 af cc 3d fd 32 0a 3e 30 27 24 3d
       0.14464688 0.09994461 0.13496013 0.040076435
0001b0 c2 50 fe bd 17 20 00 be 6e 6b 07 3d 73 4c 94 bd
       -0.12417747 -0.12512241 0.033061437 -0.07241144
0001c0 9f 47 40 bc 05 f5 9f bd da 56 a2 bd 5f 01 bc bd
       -0.011735826 -0.07810406 -0.07926722 -0.09179949
0001d0 52 b7 03 be 81 47 3a 3d 00 77 47 3c 34 e7 c7 3c
       -0.128629 0.045478348 0.012174368 0.024402238
0001e0 54 cb 84 3d be 56 a8 3e d6 00 15 3e 19 24 45 3e
       0.06484094 0.3287868 0.145511 0.19252051
0001f0 db a7 fd 3d 4e 55 cd bd 63 e7 cb 3d 38 8d ee 3d
       0.123855315 -0.10026036 0.09956243 0.11648029
000200 53 56 27 bc 84 b7 10 be a4 47 23 bd 1d fe 80 bc
       -0.010213452 -0.14132506 -0.039863244 -0.01574617
000210 48 8f 4d bc c0 f8 be 3d 89 31 11 bd 31 a4 c2 bd
       -0.012546368 0.09324789 -0.03544763 -0.09503973
000220 1b 08 5d 3d bf 0a 93 3d 37 48 c0 bc a9 d8 16 3e
       0.053962808 0.07179784 -0.023471935 0.14731087
000230 13 3b e8 bb 8d d6 25 3c 86 e2 4f 3e ba 49 ce 3d
       -0.0070871203 0.010121954 0.20301256 0.10072656
000240 17 41 e3 bd 58 fa b1 3d 77 24 57 bd b6 72 80 bd
       -0.11096399 0.086903274 -0.05252501 -0.062718794
000250 35 14 2a 3e 82 24 0c be 3b 19 8f 3d 7d 1b ac bc
       0.16609271 -0.13685802 0.06987234 -0.021009201
000260 f9 d0 e1 bc 5e 7d 01 be d9 4c 53 bb 9c fb 46 3b
       -0.027565466 -0.1264548 -0.003224185 0.0030362373
000270 d3 d4 20 3d a2 38 f6 3b 86 a5 40 3d ef 01 35 bd
       0.039265465 0.0075140754 0.047032855 -0.044191297
000280 d8 1f 82 bc 98 bf b4 3d 51 01 c6 3d 7b 98 99 bd
       -0.015884325 0.08825606 0.0966822 -0.074997865
000290 a9 07 96 3d 8e 22 b9 bc 83 66 d1 bd c6 33 32 3c
       0.0732568 -0.022599485 -0.10224631 0.010876602
0002a0 33 f8 39 3a 92 3a 10 be d6 f9 35 3d 71 f6 97 bd
       0.00070941745 -0.14084843 0.044427715 -0.07420052
0002b0 5c db dc 3b f0 6d ec bd d5 22 d3 bc 65 11 07 be
       0.006740017 -0.115444064 -0.025773445 -0.13190229
0002c0 a5 05 26 3e 8c a6 f6 3d 8a 6c 0f bd 0c 69 e0 3a
       0.1621309 0.12043485 -0.03501562 0.001712115
0002d0 06 15 4c bd 6d 01 43 3e a8 0f e8 bc 87 4a 3e 3c
       -0.049824737 0.19043513 -0.028327778 0.011614448
0002e0 58 e3 0c bd 33 48 e4 ba 2c 5f 1a 3e 6a 0b cd 3c
       -0.0343965 -0.0017416537 0.15075368 0.025029857
0002f0 7c 55 21 3c fd 75 c3 bc 2f 0c 86 bd af d3 7b bd
       0.009847041 -0.023859972 -0.065452926 -0.061481174
000300 12 9b 60 3e 96 ba 96 bb cf 04 a6 bd 67 68 9e 3c
       0.21934155 -0.0045998795 -0.08106386 0.019336892
000310 01 c5 66 3d 3a 03 52 bc 09 13 5b bd 17 41 e4 3c
       0.05634022 -0.012818152 -0.05348495 0.027863069
000320 1c 7d 89 ba 17 bf 69 bd a5 e6 6f 3c 60 33 f4 3d
       -0.0010489556 -0.057067003 0.014642392 0.119238615
000330 f3 71 73 3d e5 a0 19 bc 75 c2 46 bd 07 1a 26 be
       0.059434842 -0.009376739 -0.048525292 -0.16220866
000340 19 f2 90 bd 8a de ca 3d 51 4e 35 3e cd c4 6b bd
       -0.070774265 0.09905727 0.17705657 -0.05756073
000350 8b e5 9d bd d3 d3 09 3c 7d 0f 30 bd ff 25 44 3b
       -0.077097975 0.008412319 -0.04298352 0.0029929874
000360 eb 2b 4c 3d 69 a1 9e 3e b3 c2 4e 3c 4d 37 ed bd
       0.04984657 0.3098252 0.012619662 -0.115828134
000370 a2 7e b6 3c e1 53 18 bd 0e 22 d2 bd 65 56 f0 3d
       0.02227718 -0.03718937 -0.10260402 0.117352284
000380 52 38 7f 3e c0 7e 1f be ef b2 a0 bb c4 c2 7e bd
       0.24923828 -0.15575695 -0.004904143 -0.06219746
000390 77 ad 4f 3e c1 e4 b3 3c 8f 76 0e 3e 59 5f c0 bd
       0.20281015 0.021959664 0.13912414 -0.09393186
0003a0 02 43 fd 3d 4b 42 bb bb b3 20 02 3d 4d ec f1 ba
       0.12366296 -0.00571469 0.031769466 -0.0018457264
0003b0 2b 03 22 bd 13 7f 3b bd 84 e7 23 3e fa 51 3d be
       -0.039553802 -0.045775484 0.16006285 -0.18488303
0003c0 9d f6 1e 3e 4c 3d e4 bd 3b b1 71 3d 25 21 b9 bc
       0.15523763 -0.11144504 0.05900691 -0.022598812
0003d0 d3 e1 19 3c 60 8a 42 3c 28 de ca 3d 46 5b 9b bd
       0.00939222 0.0118738115 0.09905654 -0.075857684
0003e0 e5 77 59 be a4 ef 24 3e c4 7f 92 bc ad b8 a3 bc
       -0.21237142 0.1610704 -0.017883189 -0.019985521
0003f0 5f b0 5a bd e9 9f fc bc 9c bc d2 3d 32 e7 1d 3d
       -0.053390857 -0.03083797 0.10289881 0.038550563

onnx::LSTM_218 f4 [1, 256, 64]
000000 6b 4a fd bc fb 7c 3f 3e 88 87 19 bd 77 0d b8 3d
       -0.030919274 0.1870002 -0.03748277 0.08986943
000010 bd 37 c6 bd 9b b1 66 be 6c 49 76 bd 59 37 bb bd
       -0.096786 -0.22528689 -0.060128614 -0.09141416
000020 fd ea fe bd 8f 17 7b 3d 60 71 bd bb 8b 35 6a bd
       -0.12447164 0.061301764 -0.0057813376 -0.05717997
000030 a4 6d b2 bd 8a 81 5d 3e 06 19 bd bc 18 63 fd bd
       -0.087123185 0.21631446 -0.023083221 -0.12372416
000040 19 c7 4a 3c cd e0 8e 3b 36 1e 51 3e 99 04 12 be
       0.01237657 0.0043602944 0.20421681 -0.14259566
000050 8d 1d 01 3e e9 6a 2d be 20 6d 87 3d 1c 2a cc bc
       0.12608929 -0.16935314 0.06612611 -0.024922423
000060 c3 cf 06 bd 76 a1 82 3d af 86 67 bc ab 78 8b bd
       -0.03291298 0.063784525 -0.014131232 -0.06810125
000070 86 65 dc 3d b4 63 31 3e 82 f6 e1 3d 10 25 91 3e
       0.107615516 0.1732319 0.11033346 0.2834859
000080 81 37 25 3d b0 5f c0 bd 13 c0 e8 3c bd 8c 03 3d
       0.040336136 -0.09393251 0.0284119 0.03211664
000090 16 ac c5 3c 39 70 06 3d de d8 2a 3e 66 a3 d5 3d
       0.024129909 0.032821868 0.16684291 0.104315564
0000a0 a0 80 cd 3b 85 94 09 3c 92 17 5e be 0f 08 21 3e
       0.006271437 0.008397226 -0.21688679 0.1572573
0000b0 47 8a d4 bd 3b 5d 38 3d a3 39 7e 3e 58 c6 1f 3d
       -0.10377937 0.045010787 0.24826674 0.039007515
0000c0 85 64 28 3e aa a4 10 be 55 f8 7f 3b f9 cf 12 be
       0.16444595 -0.14125314 0.003905793 -0.14337148
0000d0 fd 20 b1 3d 59 cc 4c 3e 23 cc d8 bd c4 e1 89 bd
       0.0864887 0.19999827 -0.10585811 -0.067325145
0000e0 88 39 63 3e 5b b4 86 bd 3b 6d 18 3e 6e 90 e8 bd
       0.22189915 -0.06577369 0.14885418 -0.11355673
0000f0 ef 71 0a 3d b7 6f 0f be 97 31 0b 3d 9f a7 cd 3d
       0.03380006 -0.1400746 0.03398284 0.10041737
000100 bf df 55 bd 20 8f ba 3c e6 de b9 bb 72 f1 1a be
       -0.052215334 0.022773325 -0.0056723235 -0.15131167
000110 16 62 f4 bd e0 26 f4 bd 7b 11 34 3c d2 4d 00 be
       -0.11932771 -0.11921477 0.010990496 -0.12529686
000120 96 d3 1d 3e 27 9d 42 bd 04 21 ae 3c 01 db 10 3e
       0.15412745 -0.047513153 0.021255977 0.14146043
000130 6d 4c 2c 3d b6 5c a5 3d d4 a4 68 be 62 20 80 3d
       0.042065073 0.08074324 -0.22719127 0.062561765
000140 b1 78 1a bd e4 1a 41 3e aa 09 3e 3d 55 75 e5 bd
       -0.037712757 0.18857914 0.046395935 -0.1120402
000150 f3 26 aa 3d ee e4 26 bd a0 e1 47 3c 83 97 61 bd
       0.0830821 -0.040745668 0.012199789 -0.055076133
000160 9a 1e 27 bd 63 1d bb bd e3 40 fd bc b2 92 63 3e
       -0.04080067 -0.091364644 -0.03091473 0.22223929
000170 02 11 87 bd d9 a2 20 be c4 f4 34 3e 22 b3 f5 3d
       -0.06595041 -0.15687121 0.17671496 0.119970575
000180 5c 3c 99 3c bb f9 af 3e 3e bd 66 bd 52 86 02 be
       0.01870554 0.34370217 -0.05633282 -0.12746552
000190 13 65 28 bd d3 86 ad 3d cc 2e e1 3d 40 68 f2 3d
       -0.041112017 0.08472981 0.10995254 0.1183629
0001a0 40 5f 93 3d 07 7c 1e 3e 29 3e 45 3d 57 ff 0d bd
       0.07195902 0.15477 0.048154984 -0.03466734
0001b0 b1 6e 30 3e 37 d5 35 bd fd 44 7f 3d a4 d0 b7 3d
       0.17229725 -0.04439279 0.06232165 0.08975342
0001c0 f2 cf fd 3d 0c 3e d6 bc 49 81 22 3e 99 41 1e bd
       0.12393178 -0.026152633 0.15869631 -0.038636778
0001d0 0c 3a 4f 3e 11 cc 9e bb 61 2e 07 3d c7 9e f4 bc
       0.20236987 -0.004846104 0.033003215 -0.029860867
0001e0 75 bd de 3d a7 ce af 3d de dc 30 3e 4b 98 1c 3e
       0.1087598 0.08584338 0.17271754 0.1529247
0001f0 b6 46 20 3e 0c 5c 06 be e7 64 5b 3e 90 f6 97 be
       0.15651974 -0.1312105 0.2142521 -0.296803
000200 9f be e8 3d 61 d6 19 be a1 80 af 3c cc 4b 0f be
       0.11364483 -0.15023185 0.02142364 -0.13993758
000210 00 c9 f7 bd 00 e3 23 3e 59 e1 7f 3d a6 68 0a be
       -0.120988846 0.16004562 0.062470768 -0.13516483
000220 dc f5 6a bc ad f2 ca 3c 55 6d ec bd 0a e1 4b bd
       -0.014340844 0.02477392 -0.11544291 -0.04977516
000230 3e 8a 8e bd 94 e8 9b 3a b6 ac b3 bd 57 bf dd 3d
       -0.06959961 0.0011894875 -0.08773176 0.10827511
000240 40 fa 8b bc 49 c7 71 bd c0 94 ca 3b a4 65 19 3d
       -0.017087102 -0.059027944 0.006182283 0.037450448
000250 a9 e4 4e bd c5 ec da bb 3e f7 5a 3d 0c fa de 3d
       -0.050511036 -0.006681057 0.053458445 0.108875364
000260 9e 35 d0 bc 5a a5 a8 3c 85 8e 8c 3d a7 0a bd bc
       -0.025416192 0.020586658 0.06863121 -0.023076368
000270 00 df 26 be 97 a1 75 bd 86 59 e2 3c 30 93 a3 bc
       -0.16296005 -0.059968557 0.027630579 -0.019967645
000280 5c f9 8b bb 6c 19 d0 3d 32 c5 3c bd d4 e3 54 3e
       -0.0042716693 0.10161099 -0.046086498 0.20790035
000290 28 99 fc bc a4 fd 59 3e 95 c9 11 bc bc 7a e1 bc
       -0.03083475 0.21288162 -0.008898159 -0.027524345
0002a0 4d 53 9c bd 03 33 d7 bd 9d 89 9e bc 1d ea 1b bc
       -0.07633076 -0.105077766 -0.019352729 -0.009516266
0002b0 31 7d 59 3d 17 5e 31 3c 4b b0 03 3d e4 f8 c5 bd
       0.053097907 0.010825655 0.032150548 -0.09666613
0002c0 41 12 68 bd 69 ad 31 3e 99 30 69 bd 6a 17 9a bd
       -0.056658033 0.17351307 -0.056931112 -0.07523997
0002d0 f5 99 b9 bd 40 e9 01 3e b9 78 b7 bd b3 7d 87 3a
       -0.09062568 0.12686634 -0.08958573 0.0010337144
0002e0 87 1b be 3c f6 06 97 bd ae 72 bb bd 03 56 3c 3d
       0.023206485 -0.073743746 -0.09152733 0.045980465
0002f0 ad ee de bc 2a 1d 10 3c 86 31 55 bd 36 9f 00 3e
       -0.027213419 0.008796016 -0.052049182 0.12560734
000300 da 2e c7 bd 07 f3 a0 3d d7 1b eb bd aa 88 24 3e
       -0.09725733 0.07858854 -0.114799194 0.16067758
000310 f6 81 07 bd e9 ce 6f be d2 82 e4 3d 29 24 0a 3f
       -0.033082925 -0.23418774 0.111577645 0.53961426
000320 c7 f7 d9 3d e5 f5 14 3d 0b aa 8e 3e 84 1b 21 3e
       0.10642963 0.036367316 0.27864107 0.15733153
000330 c7 64 69 3d 49 ed 9a bd b1 fb 95 bd d3 46 b3 bd
       0.056980874 -0.0756479 -0.07323397 -0.08753743
000340 cc f6 0e bd 9f 2e 91 3d 4c cc 2b be a2 13 e8 bd
       -0.034903333 0.070889704 -0.16777152 -0.1133187
000350 8c 6a d9 bd a2 5c c0 bd 29 eb c3 bc 96 9d 08 be
       -0.10616025 -0.09392668 -0.023915844 -0.13341364
000360 0e 55 9d bd e1 c2 33 bd d0 40 a0 bb d7 61 ed 3d
       -0.076822385 -0.043887023 -0.0048905388 0.11590927
000370 f2 e0 a1 bb 13 fd 66 be 16 7a 3f 3c fd 99 aa 3d
       -0.0049401456 -0.22557478 0.011686822 0.08330152
000380 9a 32 9a 3e f7 a2 11 3f d1 f2 d2 3c f3 0c 40 be
       0.3011673 0.5688929 0.02575055 -0.1875494
000390 57 b6 d2 bb 65 fa 3d be ab 67 86 bd 2c c8 45 3d
       -0.006430428 -0.18552549 -0.06562742 0.048286602
0003a0 97 44 b9 3d 18 3c 10 3e 3e a9 0f 3e ad 78 61 be
       0.090462856 0.14085424 0.14029405 -0.2201869
0003b0 69 0d b4 3e ed 3d da 3c 28 d9 27 be 6d 67 2e be
       0.3516648 0.026640857 -0.16391432 -0.17031641
0003c0 9b f7 55 bd 74 aa 97 bc b2 dd 66 3e 77 d6 e5 3d
       -0.052238088 -0.018513896 0.22545508 0.112225465
0003d0 14 e8 7d 3e 35 44 6e bd d4 cd ba bc 7e ca a5 be
       0.24795562 -0.058170516 -0.022803225 -0.32381052
0003e0 c8 db b1 bd a8 b8 1c 3e 7a 56 0c 3e d7 a1 3c 3c
       -0.08684498 0.15304816 0.13704863 0.011513195
0003f0 39 d8 80 bd 2c 49 8a 3d d7 be bb 3e 09 1a 46 be
       -0.06291241 0.06752238 0.36669037 -0.19345869
