NEXUS_BACKUP_2025-10-24_07-47-05/BEST_UNIQUE_MODELS/PRODUCTION/06_RISK_MANAGEMENT/Risk_Classifier_optimized.onnx (onnx, 128273 bytes, 72 tensors)

model.hb.models.0.model._operators.0.weight_1 f4 [51, 15]
1.0 0.0 0.0 0.0 0.0 0.0 0.0 0.0
0.0 0.0 0.0 0.0 0.0 0.0 0.0 1.0
0.0 0.0 0.0 0.0 0.0 0.0 0.0 0.0
0.0 0.0 0.0 0.0 0.0 0.0 1.0 0.0
0.0 0.0 0.0 0.0 0.0 0.0 0.0 0.0
0.0 0.0 0.0 0.0 0.0 1.0 0.0 0.0
0.0 0.0 0.0 0.0 0.0 0.0 0.0 0.0
0.0 0.0 0.0 0.0 1.0 0.0 0.0 0.0
0.0 0.0 0.0 0.0 0.0 0.0 0.0 0.0
0.0 0.0 0.0 1.0 0.0 0.0 0.0 0.0
0.0 0.0 0.0 0.0 0.0 0.0 0.0 0.0
0.0 0.0 1.0 0.0 0.0 0.0 0.0 0.0
0.0 0.0 0.0 0.0 0.0 0.0 0.0 0.0
0.0 1.0 0.0 0.0 0.0 0.0 0.0 0.0
0.0 0.0 0.0 0.0 0.0 0.0 0.0 0.0
1.0 0.0 0.0 0.0 0.0 0.0 0.0 0.0
0.0 0.0 0.0 0.0 0.0 0.0 0.0 1.0
0.0 0.0 0.0 0.0 0.0 0.0 0.0 0.0
0.0 0.0 0.0 0.0 0.0 0.0 1.0 0.0
0.0 0.0 0.0 0.0 0.0 0.0 0.0 0.0
0.0 0.0 0.0 0.0 0.0 1.0 0.0 0.0
0.0 0.0 0.0 0.0 0.0 0.0 0.0 0.0
0.0 0.0 0.0 0.0 1.0 0.0 0.0 0.0
0.0 0.0 0.0 0.0 0.0 0.0 0.0 0.0
0.0 0.0 0.0 1.0 0.0 0.0 0.0 0.0
0.0 0.0 0.0 0.0 0.0 0.0 0.0 0.0
0.0 0.0 1.0 0.0 0.0 0.0 0.0 0.0
0.0 0.0 0.0 0.0 0.0 0.0 0.0 0.0
0.0 1.0 0.0 0.0 0.0 0.0 0.0 0.0
0.0 0.0 0.0 0.0 0.0 0.0 0.0 0.0
1.0 0.0 0.0 0.0 0.0 0.0 0.0 0.0
0.0 0.0 0.0 0.0 0.0 0.0 0.0 1.0
00000000: 0000 803f 0000 0000 0000 0000 0000 0000
00000010: 0000 0000 0000 0000 0000 0000 0000 0000
00000020: 0000 0000 0000 0000 0000 0000 0000 0000
00000030: 0000 0000 0000 0000 0000 0000 0000 803f
00000040: 0000 0000 0000 0000 0000 0000 0000 0000
00000050: 0000 0000 0000 0000 0000 0000 0000 0000
00000060: 0000 0000 0000 0000 0000 0000 0000 0000
00000070: 0000 0000 0000 0000 0000 803f 0000 0000
00000080: 0000 0000 0000 0000 0000 0000 0000 0000
00000090: 0000 0000 0000 0000 0000 0000 0000 0000
000000a0: 0000 0000 0000 0000 0000 0000 0000 0000
000000b0: 0000 0000 0000 803f 0000 0000 0000 0000
000000c0: 0000 0000 0000 0000 0000 0000 0000 0000
000000d0: 0000 0000 0000 0000 0000 0000 0000 0000
000000e0: 0000 0000 0000 0000 0000 0000 0000 0000
000000f0: 0000 803f 0000 0000 0000 0000 0000 0000
00000100: 0000 0000 0000 0000 0000 0000 0000 0000
00000110: 0000 0000 0000 0000 0000 0000 0000 0000
00000120: 0000 0000 0000 0000 0000 0000 0000 803f
00000130: 0000 0000 0000 0000 0000 0000 0000 0000
00000140: 0000 0000 0000 0000 0000 0000 0000 0000
00000150: 0000 0000 0000 0000 0000 0000 0000 0000
00000160: 0000 0000 0000 0000 0000 803f 0000 0000
00000170: 0000 0000 0000 0000 0000 0000 0000 0000
00000180: 0000 0000 0000 0000 0000 0000 0000 0000
00000190: 0000 0000 0000 0000 0000 0000 0000 0000
000001a0: 0000 0000 0000 803f 0000 0000 0000 0000
000001b0: 0000 0000 0000 0000 0000 0000 0000 0000
000001c0: 0000 0000 0000 0000 0000 0000 0000 0000
000001d0: 0000 0000 0000 0000 0000 0000 0000 0000
000001e0: 0000 803f 0000 0000 0000 0000 0000 0000
000001f0: 0000 0000 0000 0000 0000 0000 0000 0000
00000200: 0000 0000 0000 0000 0000 0000 0000 0000
00000210: 0000 0000 0000 0000 0000 0000 0000 803f
00000220: 0000 0000 0000 0000 0000 0000 0000 0000
00000230: 0000 0000 0000 0000 0000 0000 0000 0000
00000240: 0000 0000 0000 0000 0000 0000 0000 0000
00000250: 0000 0000 0000 0000 0000 803f 0000 0000
00000260: 0000 0000 0000 0000 0000 0000 0000 0000
00000270: 0000 0000 0000 0000 0000 0000 0000 0000
00000280: 0000 0000 0000 0000 0000 0000 0000 0000
00000290: 0000 0000 0000 803f 0000 0000 0000 0000
000002a0: 0000 0000 0000 0000 0000 0000 0000 0000
000002b0: 0000 0000 0000 0000 0000 0000 0000 0000
000002c0: 0000 0000 0000 0000 0000 0000 0000 0000
000002d0: 0000 803f 0000 0000 0000 0000 0000 0000
000002e0: 0000 0000 0000 0000 0000 0000 0000 0000
000002f0: 0000 0000 0000 0000 0000 0000 0000 0000
00000300: 0000 0000 0000 0000 0000 0000 0000 803f
00000310: 0000 0000 0000 0000 0000 0000 0000 0000
00000320: 0000 0000 0000 0000 0000 0000 0000 0000
00000330: 0000 0000 0000 0000 0000 0000 0000 0000
00000340: 0000 0000 0000 0000 0000 803f 0000 0000
00000350: 0000 0000 0000 0000 0000 0000 0000 0000
00000360: 0000 0000 0000 0000 0000 0000 0000 0000
00000370: 0000 0000 0000 0000 0000 0000 0000 0000
00000380: 0000 0000 0000 803f 0000 0000 0000 0000
00000390: 0000 0000 0000 0000 0000 0000 0000 0000
000003a0: 0000 0000 0000 0000 0000 0000 0000 0000
000003b0: 0000 0000 0000 0000 0000 0000 0000 0000
000003c0: 0000 803f 0000 0000 0000 0000 0000 0000
000003d0: 0000 0000 0000 0000 0000 0000 0000 0000
000003e0: 0000 0000 0000 0000 0000 0000 0000 0000
000003f0: 0000 0000 0000 0000 0000 0000 0000 803f

model.hb.models.0.model._operators.0.bias_1 f4 [51, 1]
0.0 0.0 0.0 0.0 0.0 0.0 0.0 0.0
0.0 0.0 0.0 0.0 0.0 0.0 0.0 0.0
0.0 0.0 0.0 0.0 0.0 0.0 0.0 0.0
0.0 0.0 0.0 0.0 0.0 0.0 0.0 0.0
0.0 0.0 0.0 0.0 0.0 0.0 0.0 0.0
0.0 0.0 0.0 0.0 0.0 0.0 0.0 0.0
0.0 0.0 0.0
00000000: 0000 0000 0000 0000 0000 0000 0000 0000
00000010: 0000 0000 0000 0000 0000 0000 0000 0000
00000020: 0000 0000 0000 0000 0000 0000 0000 0000
00000030: 0000 0000 0000 0000 0000 0000 0000 0000
00000040: 0000 0000 0000 0000 0000 0000 0000 0000
00000050: 0000 0000 0000 0000 0000 0000 0000 0000
00000060: 0000 0000 0000 0000 0000 0000 0000 0000
00000070: 0000 0000 0000 0000 0000 0000 0000 0000
00000080: 0000 0000 0000 0000 0000 0000 0000 0000
00000090: 0000 0000 0000 0000 0000 0000 0000 0000
000000a0: 0000 0000 0000 0000 0000 0000 0000 0000
000000b0: 0000 0000 0000 0000 0000 0000 0000 0000
000000c0: 0000 0000 0000 0000 0000 0000

model.hb.models.0.model._operators.0.weight_2 f4 [51, 2, 1]
1.0 -1.0 1.0 -1.0 1.0 -1.0 1.0 -1.0
1.0 -1.0 1.0 -1.0 1.0 -1.0 1.0 -1.0
1.0 -1.0 1.0 -1.0 1.0 -1.0 1.0 -1.0
1.0 -1.0 1.0 -1.0 1.0 -1.0 1.0 -1.0
1.0 -1.0 1.0 -1.0 1.0 -1.0 1.0 -1.0
1.0 -1.0 1.0 -1.0 1.0 -1.0 1.0 -1.0
1.0 -1.0 1.0 -1.0 1.0 -1.0 1.0 -1.0
1.0 -1.0 1.0 -1.0 1.0 -1.0 1.0 -1.0
1.0 -1.0 1.0 -1.0 1.0 -1.0 1.0 -1.0
1.0 -1.0 1.0 -1.0 1.0 -1.0 1.0 -1.0
1.0 -1.0 1.0 -1.0 1.0 -1.0 1.0 -1.0
1.0 -1.0 1.0 -1.0 1.0 -1.0 1.0 -1.0
1.0 -1.0 1.0 -1.0 1.0 -1.0
00000000: 0000 803f 0000 80bf 0000 803f 0000 80bf
00000010: 0000 803f 0000 80bf 0000 803f 0000 80bf
00000020: 0000 803f 0000 80bf 0000 803f 0000 80bf
00000030: 0000 803f 0000 80bf 0000 803f 0000 80bf
00000040: 0000 803f 0000 80bf 0000 803f 0000 80bf
00000050: 0000 803f 0000 80bf 0000 803f 0000 80bf
00000060: 0000 803f 0000 80bf 0000 803f 0000 80bf
00000070: 0000 803f 0000 80bf 0000 803f 0000 80bf
00000080: 0000 803f 0000 80bf 0000 803f 0000 80bf
00000090: 0000 803f 0000 80bf 0000 803f 0000 80bf
000000a0: 0000 803f 0000 80bf 0000 803f 0000 80bf
000000b0: 0000 803f 0000 80bf 0000 803f 0000 80bf
000000c0: 0000 803f 0000 80bf 0000 803f 0000 80bf
000000d0: 0000 803f 0000 80bf 0000 803f 0000 80bf
000000e0: 0000 803f 0000 80bf 0000 803f 0000 80bf
000000f0: 0000 803f 0000 80bf 0000 803f 0000 80bf
00000100: 0000 803f 0000 80bf 0000 803f 0000 80bf
00000110: 0000 803f 0000 80bf 0000 803f 0000 80bf
00000120: 0000 803f 0000 80bf 0000 803f 0000 80bf
00000130: 0000 803f 0000 80bf 0000 803f 0000 80bf
00000140: 0000 803f 0000 80bf 0000 803f 0000 80bf
00000150: 0000 803f 0000 80bf 0000 803f 0000 80bf
00000160: 0000 803f 0000 80bf 0000 803f 0000 80bf
00000170: 0000 803f 0000 80bf 0000 803f 0000 80bf
00000180: 0000 803f 0000 80bf 0000 803f 0000 80bf
00000190: 0000 803f 0000 80bf

model.hb.models.0.model._operators.0.bias_2 f4 [102, 1]
1.0 0.0 1.0 0.0 1.0 0.0 1.0 0.0
1.0 0.0 1.0 0.0 1.0 0.0 1.0 0.0
1.0 0.0 1.0 0.0 1.0 0.0 1.0 0.0
1.0 0.0 1.0 0.0 1.0 0.0 1.0 0.0
1.0 0.0 1.0 0.0 1.0 0.0 1.0 0.0
1.0 0.0 1.0 0.0 1.0 0.0 1.0 0.0
1.0 0.0 1.0 0.0 1.0 0.0 1.0 0.0
1.0 0.0 1.0 0.0 1.0 0.0 1.0 0.0
1.0 0.0 1.0 0.0 1.0 0.0 1.0 0.0
1.0 0.0 1.0 0.0 1.0 0.0 1.0 0.0
1.0 0.0 1.0 0.0 1.0 0.0 1.0 0.0
1.0 0.0 1.0 0.0 1.0 0.0 1.0 0.0
1.0 0.0 1.0 0.0 1.0 0.0
00000000: 0000 803f 0000 0000 0000 803f 0000 0000
00000010: 0000 803f 0000 0000 0000 803f 0000 0000
00000020: 0000 803f 0000 0000 0000 803f 0000 0000
00000030: 0000 803f 0000 0000 0000 803f 0000 0000
00000040: 0000 803f 0000 0000 0000 803f 0000 0000
00000050: 0000 803f 0000 0000 0000 803f 0000 0000
00000060: 0000 803f 0000 0000 0000 803f 0000 0000
00000070: 0000 803f 0000 0000 0000 803f 0000 0000
00000080: 0000 803f 0000 0000 0000 803f 0000 0000
00000090: 0000 803f 0000 0000 0000 803f 0000 0000
000000a0: 0000 803f 0000 0000 0000 803f 0000 0000
000000b0: 0000 803f 0000 0000 0000 803f 0000 0000
000000c0: 0000 803f 0000 0000 0000 803f 0000 0000
000000d0: 0000 803f 0000 0000 0000 803f 0000 0000
000000e0: 0000 803f 0000 0000 0000 803f 0000 0000
000000f0: 0000 803f 0000 0000 0000 803f 0000 0000
00000100: 0000 803f 0000 0000 0000 803f 0000 0000
00000110: 0000 803f 0000 0000 0000 803f 0000 0000
00000120: 0000 803f 0000 0000 0000 803f 0000 0000
00000130: 0000 803f 0000 0000 0000 803f 0000 0000
00000140: 0000 803f 0000 0000 0000 803f 0000 0000
00000150: 0000 803f 0000 0000 0000 803f 0000 0000
00000160: 0000 803f 0000 0000 0000 803f 0000 0000
00000170: 0000 803f 0000 0000 0000 803f 0000 0000
00000180: 0000 803f 0000 0000 0000 803f 0000 0000
00000190: 0000 803f 0000 0000

model.hb.models.0.model._operators.0.weight_3 f4 [51, 1, 2]
-0.0 -0.0 -0.0 -0.0 -0.0 -0.0 -0.0 -0.0
-0.0 -0.0 -0.0 -0.0 -0.0 -0.0 -0.0 -0.0
-0.0 -0.0 -0.0 -0.0 -0.0 -0.0 -0.0 -0.0
-0.0 -0.0 -0.0 -0.0 -0.0 -0.0 -0.0 -0.0
-0.0 -0.0 -0.0 -0.0 -0.0 -0.0 -0.0 -0.0
-0.0 -0.0 -0.0 -0.0 -0.0 -0.0 -0.0 -0.0
-0.0 -0.0 -0.0 -0.0 -0.0 -0.0 -0.0 -0.0
-0.0 -0.0 -0.0 -0.0 -0.0 -0.0 -0.0 -0.0
-0.0 -0.0 -0.0 -0.0 -0.0 -0.0 -0.0 -0.0
-0.0 -0.0 -0.0 -0.0 -0.0 -0.0 -0.0 -0.0
-0.0 -0.0 -0.0 -0.0 -0.0 -0.0 -0.0 -0.0
-0.0 -0.0 -0.0 -0.0 -0.0 -0.0 -0.0 -0.0
-0.0 -0.0 -0.0 -0.0 -0.0 -0.0
00000000: 0000 0080 0000 0080 0000 0080 0000 0080
00000010: 0000 0080 0000 0080 0000 0080 0000 0080
00000020: 0000 0080 0000 0080 0000 0080 0000 0080
00000030: 0000 0080 0000 0080 0000 0080 0000 0080
00000040: 0000 0080 0000 0080 0000 0080 0000 0080
00000050: 0000 0080 0000 0080 0000 0080 0000 0080
00000060: 0000 0080 0000 0080 0000 0080 0000 0080
00000070: 0000 0080 0000 0080 0000 0080 0000 0080
00000080: 0000 0080 0000 0080 0000 0080 0000 0080
00000090: 0000 0080 0000 0080 0000 0080 0000 0080
000000a0: 0000 0080 0000 0080 0000 0080 0000 0080
000000b0: 0000 0080 0000 0080 0000 0080 0000 0080
000000c0: 0000 0080 0000 0080 0000 0080 0000 0080
000000d0: 0000 0080 0000 0080 0000 0080 0000 0080
000000e0: 0000 0080 0000 0080 0000 0080 0000 0080
000000f0: 0000 0080 0000 0080 0000 0080 0000 0080
00000100: 0000 0080 0000 0080 0000 0080 0000 0080
00000110: 0000 0080 0000 0080 0000 0080 0000 0080
00000120: 0000 0080 0000 0080 0000 0080 0000 0080
00000130: 0000 0080 0000 0080 0000 0080 0000 0080
00000140: 0000 0080 0000 0080 0000 0080 0000 0080
00000150: 0000 0080 0000 0080 0000 0080 0000 0080
00000160: 0000 0080 0000 0080 0000 0080 0000 0080
00000170: 0000 0080 0000 0080 0000 0080 0000 0080
00000180: 0000 0080 0000 0080 0000 0080 0000 0080
00000190: 0000 0080 0000 0080

model.quantum.embed.bias f4 [30]
-0.18948933 0.1053755 0.2703273 0.08869544 -0.106106885 0.0007523269 0.12358508 -0.051671766
0.002110252 0.192467 0.07256262 0.14403735 -0.14768568 0.2071948 -0.19995931 0.060968965
-0.09328401 0.042997193 -0.21732625 0.140757 -0.18793021 -0.2300597 0.23084083 0.10690704
0.074253574 0.09457951 -0.30799133 -0.089971684 -0.21283132 -0.23767336
00000000: 7e09 42be 1ccf d73d 5768 8a3e f4a5 b53d
00000010: 914e d9bd ce37 453a 2d1a fd3d c6a5 53bd
00000020: 274c 0a3b 1216 453e b69b 943d 877e 133e
00000030: ea3a 17be e02a 543e 22c2 4cbe 98ba 793d
00000040: b00b bfbd d31d 303d c68a 5ebe 9a22 103e
00000050: c770 40be c594 6bbe 8a61 6c3e 14f2 da3d
00000060: 4212 983d e7b2 c13d 0ab1 9dbe 1343 b8bd
00000070: 74f0 59be a560 73be

model.quantum.blocks.0.0.bias f4 [30]
-0.09613865 -0.081485726 0.033740785 -0.062306587 -0.24529321 0.13472874 -0.05204993 0.088664696
0.1050218 0.09331436 0.11100067 0.1936639 -0.018746588 -0.022449665 0.13268527 0.068661906
0.17285925 0.0932272 0.23042245 -0.11534858 0.032490514 -0.1599478 0.042509317 -0.19701442
-0.011005682 -0.10706287 0.025432114 -0.016326612 0.050576206 -0.07447901
00000000: 57e4 c4bd fde1 a6bd c733 0a3d 3135 7fbd
00000010: 252e 7bbe 55f6 093e 4f32 55bd d695 b53d
00000020: ab15 d73d 991b bf3d 5254 e33d d44f 463e
00000030: 7292 99bc 5ce8 b7bc a6de 073e 9d9e 8c3d
00000040: 0402 313e e7ed be3d ddf3 6b3e e03b ecbd
00000050: c614 053d 5bc9 23be 401e 2e3d 26be 49be
00000060: 2d51 34bc c743 dbbd 0257 d03c 63bf 85bc
00000070: ff28 4f3d 7488 98bd

model.quantum.blocks.0.2.bias f4 [30]
0.064388946 0.06434034 -0.0645716 -0.047675893 -0.0808391 -0.06929867 -0.14484033 0.004300246
-0.119445555 0.08140503 0.13782696 -0.08640048 0.13808528 -0.15493868 -0.13558254 -0.20656225
-0.18143477 -0.080080986 0.18033203 0.20101625 0.05345729 -0.029304743 0.16171008 -0.06653372
-0.0042333878 0.15490155 -0.20460692 0.19876705 -0.08595498 -0.17000575
00000000: 5ade 833d dec4 833d 1d3e 84bd cc47 43bd
00000010: f88e a5bd 76ec 8dbd 0651 14be 14e9 8c3b
00000020: df9f f4bd aeb7 a63d 8322 0d3e bcf2 b0bd
00000030: 3a66 0d3e 3fa8 1ebe 26d6 0abe 0e85 53be
00000040: 09ca 39be 8001 a4bd f6a8 383e 34d7 4d3e
00000050: 08f6 5a3d 8010 f0bc 5497 253e d542 88bd
00000060: 3bb8 8abb 839e 1e3e 7a84 51be 9789 4b3e
00000070: 2a09 b0bd fd15 2ebe

model.quantum.blocks.1.0.bias f4 [30]
-0.04694695 -0.03659578 -0.007946115 -0.06716406 0.17849676 0.17700344 -0.21119495 -0.08984263
0.11978734 -0.048067953 0.12998669 0.0019888873 0.02329775 -0.09912324 0.036072694 -0.1219726
-0.11036791 -0.18877287 0.011856531 -0.1723455 0.19872746 -0.16404097 0.03642597 0.111045115
0.024004659 0.15057182 0.12688328 0.13912429 0.1825394 -0.13217428
00000000: 724b 40bd 75e5 15bd 6c30 02bc 508d 89bd
00000010: dbc7 363e 6440 353e 7d43 58be 6aff b7bd
00000020: 1153 f53d e7e2 44bd 3b1b 053e fe57 023b
00000030: ecda be3c 2001 cbbd f6c0 133d c5cc f9bd
00000040: 9208 e2bd ad4d 41be e541 423c 577b 30be
00000050: 367f 4b3e 5bfa 27be 6633 153d 9f6b e33d
00000060: 6ba5 c43c 802f 1a3e b1ed 013e 9976 0e3e
00000070: 9ceb 3a3e b258 07be

model.quantum.blocks.1.2.bias f4 [30]
0.10290567 0.06379595 -0.16475064 -0.111260146 0.07939192 0.007909107 -0.019178 -0.19016492
0.0121208355 0.10293361 -0.12754893 0.18736686 0.15828691 -0.07624485 -0.14278923 -0.050029133
0.02484632 0.0007564928 0.0023974786 0.15987025 -0.096604824 -0.05971997 0.12042713 -0.14718324
0.18263716 0.021876844 0.09668172 0.01614461 -0.15344438 -0.1696937
00000000: 35c0 d23d 73a7 823d 64b4 28be 5cdc e3bd
00000010: 3b98 a23d 3395 013c 2e1b 9dbc 98ba 42be
00000020: 7896 463c dbce d23d 309c 02be 19dd 3f3e
00000030: f715 223e 4326 9cbd 5737 12be 59eb 4cbd
00000040: 828a cb3c 5f4f 463a 041f 1d3b 07b5 233e
00000050: c0d8 c5bd ed9c 74bd 80a2 f63d 34b7 16be
00000060: 3c05 3b3e 1137 b33c 1101 c63d b341 843c
00000070: 8620 1dbe 2fc4 2dbe

model.quantum.blocks.2.0.bias f4 [30]
-0.1887575 -0.13313304 -0.1257691 0.04776275 -0.1036325 -0.16679895 0.16056676 0.023519536
0.019955862 0.18144654 0.05195462 0.08486479 -0.032589335 -0.084366515 0.20578276 -0.18098678
-0.07636453 -0.12003067 0.026380904 0.021368641 0.069726236 0.016324984 0.00998493 0.045129545
-0.22686939 0.10459197 -0.16869213 0.028940642 0.18892945 -0.15233369
00000000: a549 41be 0754 08be 9dc9 00be e0a2 433d
00000010: 473d d4bd 58cd 2abe 9d6b 243e 0bac c03c
00000020: 7a7a a33c 1fcd 393e 5ece 543d 97cd ad3d
00000030: 657c 05bd 5ac8 acbd b7b8 523e 9954 39be
00000040: 0265 9cbd a4d2 f5bd c41c d83c 4a0d af3c
00000050: a1cc 8e3d f9bb 853c d597 233c c2d9 383d
00000060: 7350 68be 5134 d63d a1bd 2cbe ed14 ed3c
00000070: b976 413e 5dfd 1bbe

model.quantum.blocks.2.2.bias f4 [30]
-0.14367925 -0.04818564 0.06277918 0.060733598 0.14582627 -0.07781263 -0.1986075 -0.051976398
0.05206245 -0.15189497 -0.07042094 0.1670281 -0.110166445 0.09396174 0.04390119 -0.012928353
0.14920677 -0.19691586 0.20598507 0.030528566 0.12329401 -0.0548493 0.0526657 -0.060571898
0.1501983 0.22050466 -0.03274773 -0.06922788 0.117777355 0.1261335
00000000: a720 13be 4e5e 45bd 5f92 803d cbc3 783d
00000010: 7b53 153e 3a5c 9fbd c45f 4bbe 34e5 54bd
00000020: 703f 553d 5b8a 1bbe db38 90bd 6a09 2b3e
00000030: f29e e1bd 036f c03d bcd1 333d 71d1 53bc
00000040: a9c9 183e 50a4 49be c0ed 523e 0b17 fa3c
00000050: 9281 fc3d a9a9 60bd fdb7 573d 3d1a 78bd
00000060: 95cd 193e f9cb 613e 7c22 06bd 59c7 8dbd
00000070: 4135 f13d 2429 013e

model.quantum.blocks.3.0.bias f4 [30]
-0.042697538 0.1444831 0.042065807 -0.16145359 0.2026537 -0.1464024 -0.043027505 -0.03793545
0.11135427 -0.15116853 -0.012638943 -0.06158439 -0.010749251 -0.03141815 0.060481258 -0.046040267
-0.12915137 -0.18636687 0.19305967 -0.19747263 0.046704188 -0.062241726 -0.0642387 -0.11749737
-0.15931098 0.15388444 -0.07789639 0.13834107 0.09551889 -0.063491516
00000000: 9de3 2ebd 61f3 133e 324d 2c3d 1754 25be
00000010: 7484 4f3e 83ea 15be 9c3d 30bd 3462 1bbd
00000020: b50d e43d eccb 1abe 9213 4fbc ea3f 7cbd
00000030: a01d 30bc 51b0 00bd 32bb 773d b894 3cbd
00000040: 4240 04be f5d6 3ebe 6fb1 453e 4436 4abe
00000050: e44c 3f3d 2ef1 7ebd 948f 83bd 76a2 f0bd
00000060: 6b22 23be e293 1d3e 2488 9fbd 48a9 0d3e
00000070: 689f c33d d707 82bd

model.quantum.blocks.3.2.bias f4 [30]
-0.06749267 0.10960673 0.08242822 0.1386669 -0.017459244 0.01144825 0.100800455 0.09531352
-0.13973348 0.10755274 -0.084236704 -0.110817 0.07875433 -0.013570356 -0.084040634 -0.19337766
0.009756591 -0.20420136 -0.08281995 -0.008614265 0.07678708 0.11894391 0.17776322 0.023024542
0.0689202 -0.018248761 -0.18592697 0.019647053 -0.023195922 -0.11974204
00000000: 9939 8abd 7e79 e03d 20d0 a83d b2fe 0d3e
00000010: b006 8fbc 7191 3b3c 7870 ce3d bc33 c33d
00000020: 4b16 0fbe 9c44 dc3d 4b84 acbd 06f4 e2bd
00000030: f349 a13d 3356 5ebc 7f1d acbd cb04 46be
00000040: 1cda 1f3c 291a 51be 829d a9bd d922 0dbc
00000050: 8b42 9d3d dd98 f33d 9007 363e f79d bc3c
00000060: 0926 8d3d 6d7e 95bc a463 3ebe dbf2 a03c
00000070: 6005 bebc 513b f5bd

model.quantum.blocks.4.0.bias f4 [30]
0.03570117 -0.07654123 0.115185976 -0.04516733 -0.14175229 0.041021492 0.10041833 0.15782438
0.043447703 0.030368064 0.034653265 0.06402232 -0.15766568 -0.14216994 -0.14563867 0.09853758
0.05138352 -0.0754385 -0.03513882 -0.11189518 -0.06638388 -0.121656775 0.15994436 0.03183213
-0.13339125 -0.022879558 -0.1246783 0.11865338 0.07492355 -0.04686564
00000000: 643b 123d a6c1 9cbd a0e6 eb3d 6101 39bd
00000010: 8327 11be 2706 283d 20a8 cd3d b79c 213e
00000020: 38f6 313d 72c6 f83c 95f0 0d3d 221e 833d
00000030: 1d73 21be ff94 11be 4e22 15be 12ce c93d
00000040: 8777 523d 807f 9abd b9ed 0fbd 4d29 e5bd
00000050: 46f4 87bd 3027 f9bd 74c8 233e 6862 023d
00000060: b797 08be e96d bbbc 5657 ffbd 8b00 f33d
00000070: 8571 993d 2ff6 3fbd

model.quantum.blocks.4.2.bias f4 [30]
0.13089435 -0.026333489 0.18704674 -0.09190351 0.053258616 -0.16345578 -0.07737258 -0.009060321
-0.11133155 0.12086896 -0.16001134 -0.04183556 0.16565515 -0.12402479 0.016798645 0.11317723
0.08678929 0.061144184 -0.050311133 -0.12917665 -0.06427021 -0.06698456 0.10014587 0.08407037
0.034312703 0.0039095837 0.01862727 -0.12792102 0.10343553 -0.20330536
00000000: 2b09 063e 54b9 d7bc 2e89 3f3e e837 bcbd
00000010: b525 5a3d f460 27be 8475 9ebd be71 14bc
00000020: cc01 e4bd 258a f73d 03da 23be c45b 2bbd
00000030: 81a1 293e b600 febd 509d 893c 77c9 e73d
00000040: 95be b13d 5372 7a3d 0c13 4ebd e246 04be
00000050: 1aa0 83bd 332f 89bd 4719 cd3d 162d ac3d
00000060: 7a8b 0c3d f71b 803b 3798 983c bafd 02be
00000070: 02d6 d33d 482f 50be

model.quantum.blocks.5.0.bias f4 [30]
-0.026120227 -0.13265827 0.14534687 -0.08462629 -0.062145326 -0.16752113 -0.09164819 0.18444724
-0.14030862 0.14599644 -0.14060877 -0.16025133 0.059865657 -0.011526789 -0.14294322 0.019173438
-0.034632526 -0.15687722 -0.18628441 0.10987299 0.093113616 -0.075330466 -0.14463097 0.1779357
-0.11210433 0.20057946 -0.035196263 -0.16447473 0.08887759 0.10480964
00000000: 16fa d5bc 92d7 07be cfd5 143e 8c50 adbd
00000010: 198c 7ebd a98a 2bbe 0cb2 bbbd bddf 3c3e
00000020: 10ad 0fbe 1780 153e bffb 0fbe ed18 24be
00000030: b135 753d dbda 3cbc b55f 12be 9d11 9d3c
00000040: d6da 0dbd 6ca4 20be 57c1 3ebe 1705 e13d
00000050: 5ab2 be3d dc46 9abd 241a 14be c734 363e
00000060: f496 e5bd b464 4d3e f529 10bd 106c 28be
00000070: 7405 b63d 70a6 d63d

model.quantum.blocks.5.2.bias f4 [30]
-0.06698548 -0.16532253 -0.07375479 0.019956596 -0.0842297 -0.011111617 0.032109346 0.022259535
0.0025873315 0.07690317 0.027586106 0.19779937 0.11420866 -0.16145876 0.09667288 -0.061769135
0.113111384 -0.027247954 0.08926403 -0.12082099 0.0954518 -0.0752244 0.024017083 0.13165998
0.015112932 0.018892944 -0.06482171 -0.22385506 -0.053886913 -0.19885282
00000000: af2f 89bd 4f4a 29be c00c 97bd 047c a33c
00000010: 9f80 acbd 800d 36bc 1785 033d a159 b63c
00000020: 3890 293b 697f 9d3d 42fc e13c eb8b 4a3e
00000030: 3be6 e93d 7255 25be 6efc c53d a201 7dbd
00000040: f1a6 e73d 1a37 dfbc 0fd0 b63d ff70 f7bd
00000050: 3c7c c33d 400f 9abd 79bf c43c e0d1 063e
00000060: 3b9c 773c 60c5 9a3c 3fc1 84bd 433a 65be
00000070: 86b8 5cbd 13a0 4bbe

model.quantum.blocks.6.0.bias f4 [30]
0.0030838526 -0.19230947 -0.10971414 -0.12648486 0.08370062 -0.06302282 0.19513048 -0.098837115
-0.08111428 0.16820966 0.20467046 -0.035291526 0.16425872 -0.118936606 0.07990573 0.001656394
-0.0169621 -0.05890825 -0.007863739 0.09423736 -0.00912994 0.14976808 0.021689674 -0.00390237
0.04242304 -0.06983738 0.04437029 -0.033023942 0.09686643 -0.13514078
00000000: 761a 4a3b c6ec 44be cfb1 e0bd 3f85 01be
00000010: 3b6b ab3d 1c12 81bd 49d0 473e 1d6b cabd
00000020: 3e1f a6bd 273f 2c3e 2295 513e d98d 10bd
00000030: 7033 283e 0995 f3bd 9ea5 a33d 5c1b d93a
00000040: 1af4 8abc c749 71bd e9d6 00bc 84ff c03d
00000050: be95 15bc ce5c 193e 8bae b13c e8be 7fbb
00000060: c8c3 2d3d e606 8fbd 9fbd 353d 1d44 07bd
00000070: e861 c63d 5862 0abe

model.quantum.blocks.6.2.bias f4 [30]
-0.05700408 0.060485784 0.022326369 -0.06855459 -0.014579625 -0.16798504 0.026159704 -0.13831902
0.0076606334 -0.18024187 -0.119871646 -0.015977675 -0.01850271 -0.105595775 -0.16018683 -0.045805003
-0.021984648 -0.12608866 -0.020736337 -0.14399113 -0.010792159 -0.09025674 -0.011308298 0.112941064
0.09048665 0.008819932 -0.12581946 -0.20626645 0.05846009 0.0465976
00000000: 1c7d 69bd f1bf 773d cae5 b63c 5966 8cbd
00000010: 61df 6ebc 4504 2cbe e04c d63c 80a3 0dbe
00000020: 0d06 fb3b 5391 38be 447f f5bd 9de3 82bc
00000030: ff92 97bc 9942 d8bd 0408 24be 079e 3bbd
00000040: 2619 b4bc 631d 01be 40df a9bc 6972 13be
00000050: 98d1 30bc 87d8 b8bd 7146 39bc a54d e73d
00000060: 1151 b93d 7a81 103c d1d6 00be 8337 53be
00000070: d973 6f3d 20dd 3e3d

model.quantum.blocks.7.0.bias f4 [30]
0.17971249 0.059957545 0.16126522 -0.14457099 -0.08049437 0.15957175 -0.19652078 -0.045512147
-0.08942919 -0.18844338 -0.027867634 -0.021661261 0.027559454 -0.15273058 -0.10258076 -0.10576799
0.039926272 0.18624252 0.16822246 -0.06770829 0.14463124 0.09804818 -0.12581015 -0.13645495
0.038175594 -0.10365852 0.15301417 0.13303491 -0.16374043 0.15397371
00000000: 8d06 383e 0b96 753d b622 253e 6b0a 14be
00000010: 3bda a4bd c766 233e be3c 49be f26a 3abd
00000020: a726 b7bd 4df7 40be aa4a e4bc f572 b1bc
00000030: 5dc4 e13c 6865 1cbe dd15 d2bd e39c d8bd
00000040: bb89 233d 5cb6 3e3e 8242 2c3e a5aa 8abd
00000050: 361a 143e 7ccd c83d 60d4 00be d9ba 0bbe
00000060: 035e 1c3d eb4a d4bd bfaf 1c3e 4e3a 083e
00000070: 92ab 27be 49ab 1d3e

model.quantum.blocks.7.2.bias f4 [30]
0.09538056 -0.05437213 0.08495982 -0.07715935 -0.019186392 -0.12892894 -0.20437515 -0.14199378
-0.058692344 0.1324914 -0.046367526 -0.044921465 -0.056509256 0.08616896 0.12403965 0.13984796
0.14891186 -0.012147546 0.037883002 0.13654003 0.18843985 -0.116289526 0.065979585 -0.18401133
-0.04885836 -0.01952948 -0.1223876 -0.15492499 0.06919032 0.09308427
00000000: e256 c33d 50b5 5ebd 6aff ad3d b905 9ebd
00000010: c82c 9dbc f305 04be b847 51be d166 11be
00000020: 6267 70bd d3ab 073e e0eb 3dbd 92ff 37bd
00000030: 4076 67bd 5a79 b03d 8008 fe3d 4e34 0f3e
00000040: 5a7c 183e 8006 47bc 352b 1b3d 26d1 0b3e
00000050: 60f6 403e 3429 eebd 4e20 873d 776d 3cbe
00000060: b41f 48bd 4afc 9fbc 5aa6 fabd a8a4 1ebe
00000070: a8b3 8d3d f7a2 be3d

model.quantum.blocks.8.0.bias f4 [30]
0.06233125 -0.14392658 -0.16788606 -0.052186288 0.079074025 -0.10299535 0.036025938 -0.077098384
-0.01675783 0.022649258 0.058824256 -0.0067584226 0.028033698 -0.17897765 -0.1642167 0.18819553
0.0617524 0.13740462 -0.021134028 -0.11652627 -0.07779186 0.038452405 0.07036262 -0.10435585
-0.028047217 0.03703222 -0.10836335 0.06391071 -0.11355129 0.1326659
00000000: 0e4f 7f3d 7d61 13be 53ea 2bbe 4ac1 55bd
00000010: 90f1 a13d 3aef d2bd ef8f 133d c2e5 9dbd
00000020: b747 89bc f08a b93c b4f1 703d c275 ddbb
00000030: eda6 e53c eb45 37be 6c28 28be 54b6 403e
00000040: 16f0 7c3d ccb3 0c3e 4521 adbc 53a5 eebd
00000050: 5751 9fbd 4580 1d3d 471a 903d 85b8 d5bd
00000060: 47c3 e5bc 19af 173d 9bed ddbd 9ee3 823d
00000070: 948d e8bd 92d9 073e

model.quantum.blocks.8.2.bias f4 [30]
0.06950487 -0.14492318 0.03467045 -0.0925694 0.17957334 0.0864649 -0.0146074975 -0.18772095
0.100203976 -0.109147854 -0.046539985 0.21814983 0.17790833 -0.08806707 0.18510182 0.14385745
0.21238413 0.015914768 -0.06870019 -0.14280462 0.001607896 -0.015889104 -0.0029933015 0.09980388
0.22952732 0.15279229 -0.14287812 -0.07886608 0.10524563 -0.035837084
00000000: 9258 8e3d be66 14be 9a02 0e3d 0795 bdbd
00000010: 13e2 373e 8214 b13d 4954 6fbc ec39 40be
00000020: be37 cd3d e988 dfbd b6a0 3ebd ab62 5f3e
00000030: 9a2d 363e 825c b4bd 558b 3d3e 5e4f 133e
00000040: 3a7b 593e b05f 823c afb2 8cbd 603b 12be
00000050: 09c0 d23a de29 82bc 442b 44bb fa65 cc3d
00000060: 3609 6b3e 9575 1c3e a44e 12be 8a84 a1bd
00000070: 058b d73d e8c9 12bd

model.quantum.blocks.9.0.bias f4 [30]
0.026557535 -0.058456548 -0.10632666 0.1563467 -0.19482225 -0.04190471 -0.13712387 -0.1405659
0.11399939 0.1872357 -0.100787155 -0.14101568 -0.07643306 -0.06663539 -0.1810421 0.07200291
0.09810851 0.19215015 0.20747252 0.13231848 0.069801286 0.19477095 -0.013555347 0.023121987
0.11342072 0.017652737 0.16354772 -0.13459054 0.12387298 0.12902951
00000000: 308f d93c 2270 6fbd cbc1 d9bd 5919 203e
00000010: 7c7f 47be 46a4 2bbd 336a 0cbe 82f0 0fbe
00000020: 8378 e93d b7ba 3f3e 7f69 cebd 6a66 10be
00000030: f088 9cbd 2378 88bd 1a63 39be 4376 933d
00000040: 1ded c83d 02c3 443e ad73 543e 7f7e 073e
00000050: faf3 8e3d 0972 473e 3f17 5ebc 526a bd3c
00000060: 1f49 e83d 799c 903c 0e79 273e 1ad2 09be
00000070: 1eb1 fd3d 5020 043e

model.quantum.blocks.9.2.bias f4 [30]
-0.052564185 0.06538611 0.04115072 -0.032438572 0.18080135 0.10863388 -0.15818061 0.0740461
-0.15137781 -0.116526216 0.020857936 0.08606728 0.21435954 -0.12360476 0.16698231 -0.09243647
0.04799006 -0.22377358 0.11338611 -0.08852805 0.07488798 -0.11195619 0.13460958 -0.07158925
0.22205803 0.06265489 -0.048936058 -0.14539622 -0.017491266 -0.019728884
00000000: 8b4d 57bd 27e9 853d a88d 283d 4fde 04bd
00000010: fd23 393e 717b de3d 19fa 21be 7ba5 973d
00000020: c902 1bbe 4ca5 eebd 43de aa3c 0b44 b03d
00000030: 1181 5b3e 7e24 fdbd 69fd 2a3e 554f bdbd
00000040: 3a91 443d e724 65be fa36 e83d 324e b5bd
00000050: df5e 993d 4949 e5bd 18d7 093e 629d 92bd
00000060: 2e63 633e 3551 803d 2d71 48bd bfe2 14be
00000070: d849 8fbc 789e a1bc

model.quantum.gates.0.bias f4 [30]
0.12984261 0.16483186 -0.13610576 0.14383923 0.007199251 0.18105002 0.11054565 -0.10747922
-0.04098326 -0.15406778 0.09157774 0.18525341 0.14399685 0.0040006395 -0.04387366 -0.065940775
0.1914545 -0.018475955 0.10202337 0.24074449 -0.03536992 0.12706926 0.21844836 0.075142734
0.009385066 0.04595612 0.02740056 0.100382395 -0.08218826 -0.00038280286
00000000: 76f5 043e afc9 283e 4f5f 0bbe 974a 133e
00000010: b2e7 eb3b 2d65 393e c265 e23d 111e dcbd
00000020: 10de 27bd f2c3 1dbe 1c8d bb3d 12b3 3d3e
00000030: e973 133e cc17 833b deb4 33bd f50b 87bd
00000040: a60c 443e e35a 97bc a1f1 d03d b985 763e
00000050: 0de0 10bd 721e 023e edb0 5f3e 6fe4 993d
00000060: d2c3 193c 7c3c 3c3d 2477 e03c 4995 cd3d
00000070: 5252 a8bd eeb2 c8b9

model.quantum.gates.1.bias f4 [30]
0.07753644 -0.08870843 -0.0765547 -0.04667905 -0.04768171 0.104717664 0.10627272 0.09696862
-0.18578826 0.0018120052 -0.045308005 0.22540599 0.006458982 0.16476043 0.09694266 0.07731546
0.24640921 0.13722914 0.24876657 -0.013188636 0.14412336 -0.060371514 0.11851368 0.014650007
0.0764152 0.07114222 -0.17797695 -0.10294878 0.21986367 0.10904498
00000000: 6dcb 9e3d c4ac b5bd b6c8 9cbd 8832 3fbd
00000010: e64d 43bd 3776 d63d 83a5 d93d 7c97 c63d
00000020: 473f 3ebe ce80 ed3a e394 39bd d4d0 663e
00000030: dea5 d33b f5b6 283e e089 c63d 9157 9e3d
00000040: b252 7c3e cc85 0c3e aabc 7e3e 2615 58bc
00000050: 1395 133e 1f48 77bd 4db7 f23d 9506 703c
00000060: 937f 9c3d 03b3 913d 973f 36be cfd6 d2bd
00000070: f123 613e f952 df3d

model.quantum.gates.2.bias f4 [30]
0.008442373 0.08639239 0.18980022 -0.030335918 0.10083643 -0.0072826957 -0.085385986 0.20685357
0.21703516 0.15805799 0.01564098 0.16925876 0.036003623 0.022978397 0.20810029 0.11325523
0.083080225 0.046244737 0.10994338 0.123896874 0.08181119 0.117332645 0.017353717 0.16307656
-0.042941544 0.022998944 -0.05990574 -0.10999713 0.06345117 0.020271743
00000000: e151 0a3c 7eee b03d fd5a 423e 0883 f8bc
00000010: 5583 ce3d aea3 eebb d9de aebd 6cd1 533e
00000020: 773e 5e3e f4d9 213e 8321 803c 2b52 2d3e
00000030: 8978 133d 313d bc3c 3e18 553e 5cf2 e73d
00000040: f725 aa3d 1f6b 3d3d ff29 e13d a5bd fd3d
00000050: a08c a73d 194c f03d 6229 8e3c 8bfd 263e
00000060: 79e3 2fbd 4868 bc3c b95f 75bd 2d46 e1bd
00000070: b0f2 813d ed10 a63c

model.quantum.gates.3.bias f4 [30]
0.024165405 0.05620185 -0.01456211 0.009634863 0.033343285 -0.023818703 0.13432205 0.147792
0.2299635 0.00166697 0.06275221 0.1284934 0.16692209 0.1707863 0.020069674 0.07175128
0.19890292 0.009305289 -0.0041088597 -0.0063771755 0.033930253 -0.130661 0.023481248 0.057608508
0.23536348 0.13182336 0.20114781 0.14930628 0.07971236 0.039651383
00000000: 87f6 c53c e933 663d eb95 6ebc 8bdb 1d3c
00000010: f892 083d 711f c3bc b88b 093e c956 173e
00000020: 8d7b 6b3e 3b7e da3a 3b84 803d c693 033e
00000030: a0ed 2a3e 9be2 2e3e 2869 a43c 56f2 923d
00000040: 35ad 4b3e 3675 183c 9da3 86bb a0f7 d0bb
00000050: 73fa 0a3d ffcb 05be bf5b c03c e6f6 6b3d
00000060: 2003 713e b4fc 063e b1f9 4d3e bfe3 183e
00000070: 3c40 a33d 7d69 223d

model.quantum.gates.4.bias f4 [30]
-0.13500614 0.12348579 0.1373568 0.045053113 0.10112973 0.16081986 -0.009801801 0.18342514
0.07176862 -0.10295146 -0.084188215 0.0725257 0.0014664514 -0.036908384 0.115893885 0.10237014
0.21463601 -0.12813185 -0.17220788 0.15215069 -0.13955262 -0.019252075 -0.08310407 0.025033297
0.15646587 -0.0123759415 -0.06758027 0.03964023 -0.021667238 0.13457416
00000000: 0d3f 0abe 1ee6 fc3d 43a7 0c3e 9d89 383d
00000010: 1b1d cf3d f6ad 243e bc97 20bc cdd3 3b3e
00000020: 6dfb 923d 37d8 d2bd df6a acbd 5b88 943d
00000030: f235 c03a 3f2d 17bd c659 ed3d 70a7 d13d
00000040: 8bc9 5b3e ff34 03be 4357 30be 64cd 1b3e
00000050: e2e6 0ebe 87b6 9dbc 7732 aabd a112 cd3c
00000060: 9738 203e 76c4 4abc 8667 8abd cb5d 223d
00000070: 7e7f b1bc cfcd 093e

model.quantum.gates.5.bias f4 [30]
0.2123982 -0.031658553 -0.16344643 0.09353372 0.15712203 -0.023781791 -0.0096187815 -0.097393766
-0.012267524 -0.0028739364 -0.0372255 -0.04483691 0.1907024 -0.0061384565 0.04830483 -0.10677794
0.052355666 -0.055966113 0.0405938 -0.18134873 0.13454363 -0.09830499 -0.012042023 -0.022837555
-0.12159119 -0.029433649 0.15521209 0.16028115 -0.021943416 0.062397353
00000000: ea7e 593e 66ac 01bd 805e 27be 9b8e bf3d
00000010: 99e4 203e 08d2 c2bc 1898 1dbc 6276 c7bd
00000020: bafd 48bc a758 3cbb c479 18bd e8a6 37bd
00000030: 7d47 433e 1b25 c9bb 49db 453d 65ae dabd
00000040: e572 563d b93c 65bd af45 263d 7bb3 39be
00000050: cec5 093e 2054 c9bd e84b 45bc d315 bbbc
00000060: cd04 f9bd d61e f1bc ebef 1e3e be20 243e
00000070: aec2 b3bc 5e94 7f3d

model.quantum.gates.6.bias f4 [30]
-0.04290068 0.049840543 0.11861996 0.15985554 -0.077325605 0.082523555 0.017628772 -0.020466026
0.065762505 0.14383906 -0.019142717 0.18974979 0.20788938 0.23284651 0.121888906 -0.12664673
-0.115152955 -0.07959283 0.10384943 -0.053639222 0.16739146 0.08478534 0.052924152 -0.020989984
0.2398357 -0.17097658 0.09175357 -0.06595352 0.058380537 -0.041192915
00000000: a0b8 2fbd 9925 4c3d 06ef f23d 2cb1 233e
00000010: e35c 9ebd 1c02 a93d 376a 903c 5ea8 a7bc
00000020: 7eae 863d 8c4a 133e 30d1 9cbc c54d 423e
00000030: f4e0 543e 516f 6e3e e4a0 f93d aeaf 01be
00000040: 50d5 ebbd 9101 a3bd 03af d43d cdb4 5bbd
00000050: ab68 2b3e f0a3 ad3d ffc6 583d 30f3 abbc
00000060: 7d97 753e 7c14 2fbe 4ce9 bb3d a412 87bd
00000070: 6e20 6f3d e7b9 28bd

model.quantum.gates.7.bias f4 [30]
0.1860989 -0.14435032 -0.12746534 0.059533115 0.13522555 0.20752476 0.080403686 0.18239775
0.17720617 -0.0057809176 -0.05409934 -0.029074365 -0.18946709 -0.034699243 0.05703336 -0.07905687
-0.0037257278 0.16101332 0.041248 -0.0069582006 0.076002575 0.054551728 -0.10135003 0.17666529
-0.13884835 0.126462 0.11386579 -0.102249324 -0.10193205 0.10192879
00000000: b690 3e3e 92d0 13be 4686 02be ffd8 733d
00000010: 9178 0a3e 5f81 543e b0aa a43d 7ac6 3a3e
00000020: 8975 353e da6d bdbb 4597 5dbd 5d2d eebc
00000030: a903 42be cb20 0ebd d09b 693d 91e8 a1bd
00000040: 572b 74bb ade0 243e aaf3 283d 9e01 e4bb
00000050: 3da7 9b3d a271 5f3d 9b90 cfbd bfe7 343e
00000060: 432e 0ebe 417f 013e 7832 e93d 1868 d1bd
00000070: c0c1 d0bd 0bc0 d03d

model.quantum.gates.8.bias f4 [30]
0.0810179 0.10138805 0.1966424 -0.06675895 0.09079252 -0.058585968 0.020843538 0.15543124
0.003228369 0.0085323835 0.063120164 0.082963906 -0.10131595 0.090776496 -0.026281673 -0.17213325
0.11769596 0.1868502 0.0039873715 0.13309842 -0.07058204 0.065425806 -0.15333489 -0.032979045
-0.0716534 0.080444634 0.06288719 -0.118860945 0.021031016 0.004921198
00000000: b6ec a53d 8aa4 cf3d a05c 493e ebb8 88bd
00000010: 6ef1 b93d d7f7 6fbd 11c0 aa3c 5e29 1f3e
00000020: 0b93 533b 69cb 0b3c 2545 813d fbe8 a93d
00000030: bd7e cfbd 07e9 b93d aa4c d7bc b343 30be
00000040: 940a f13d a955 3f3e 7fa8 823b f44a 083e
00000050: 518d 90bd f7fd 853d d203 1dbe 0915 07bd
00000060: 05bf 92bd 28c0 a43d 00cb 803d 5e6d f3bd
00000070: 3d49 ac3c 0042 a13b

model.quantum.gates.9.bias f4 [30]
-0.002827917 -0.10605925 -0.14822061 -0.03942022 0.02023506 0.106786445 0.01568353 -0.11193852
0.045302138 -0.035056565 0.0097404085 -0.017035555 -0.06329121 0.12118216 0.07482223 0.02120752
-0.077924386 0.06178581 -0.09677769 -0.021850526 0.223702 0.10943636 -0.08952216 0.09344452
-0.037524622 0.12830874 -0.082553945 0.016571093 0.06769351 0.1273108
00000000: 9354 39bb 9835 d9bd 25c7 17be 1977 21bd
00000010: ffc3 a53c dab2 da3d bf7a 803c 0640 e5bd
00000020: bc8e 393d 7997 0fbd 3c96 1f3c 268e 8bbc
00000030: d29e 81bd 5a2e f83d 663c 993d 65bb ad3c
00000040: d296 9fbd 1e13 7d3d 6233 c6bd e0ff b2bc
00000050: 2312 653e 2c20 e03d 6557 b7bd d75f bf3d
00000060: 6bb3 19bd 5e63 033e 0b12 a9bd 1ac0 873c
00000070: e5a2 8a3d c35d 023e

model.comb.0.bias f4 [8]
0.18276182 0.6207522 0.5439508 -0.3003468 -0.439929 0.19561258 -0.2847047 0.5475505
00000000: ea25 3b3e 9ee9 1e3f 5c40 0b3f 0ec7 99be
00000010: 603e e1be aa4e 483e d0c4 91be 452c 0c3f

model.quantum.embed.weight_quantized i1 [15, 30]
41 -71 4 18 56 -16 -29 39
-85 79 2 -4 37 -24 15 -69
64 -60 -68 7 71 -7 -93 54
-19 -61 -68 -99 -78 72 -16 -5
-1 7 -38 82 78 -77 -1 -46
-3 35 1 -5 -76 -66 29 60
-31 -39 -1 38 -32 -99 -81 36
-71 30 27 3 -1 3 -40 81
38 25 -20 -8 -73 -80 -66 123
31 36 -93 -97 -54 -90 -8 70
-35 3 -84 -79 41 -74 45 63
-11 34 51 -46 -61 73 -5 -30
-71 -80 61 66 -81 -79 -15 6
28 -103 -78 42 -109 7 53 14
-46 -87 17 13 -22 31 -99 43
-63 85 -63 48 96 -51 44 -56
65 -14 -9 -50 -5 66 48 75
4 1 49 29 25 56 86 48
-35 72 35 36 -97 -12 -14 53
-42 62 79 -62 42 -22 10 100
-82 103 -23 60 -27 -70 -66 34
14 65 -23 63 -21 -70 92 3
30 74 -56 -37 56 -57 -72 -5
-12 -79 16 40 -98 90 -67 1
55 -36 -54 -3 25 -63 84 -13
10 85 -78 14 78 25 -108 44
-35 -33 15 95 -45 -10 -20 63
65 36 -43 -24 53 -43 2 82
-34 -98 -26 88 13 16 25 80
-31 15 -92 -29 31 114 10 -36
-85 28 -79 -92 -62 -34 -85 47
38 65 104 77 100 51 -103 -36
00000000: 29b9 0412 38f0 e327 ab4f 02fc 25e8 0fbb
00000010: 40c4 bc07 47f9 a336 edc3 bc9d b248 f0fb
00000020: ff07 da52 4eb3 ffd2 fd23 01fb b4be 1d3c
00000030: e1d9 ff26 e09d af24 b91e 1b03 ff03 d851
00000040: 2619 ecf8 b7b0 be7b 1f24 a39f caa6 f846
00000050: dd03 acb1 29b6 2d3f f522 33d2 c349 fbe2
00000060: b9b0 3d42 afb1 f106 1c99 b22a 9307 350e
00000070: d2a9 110d ea1f 9d2b c155 c130 60cd 2cc8
00000080: 41f2 f7ce fb42 304b 0401 311d 1938 5630
00000090: dd48 2324 9ff4 f235 d63e 4fc2 2aea 0a64
000000a0: ae67 e93c e5ba be22 0e41 e93f ebba 5c03
000000b0: 1e4a c8db 38c7 b8fb f4b1 1028 9e5a bd01
000000c0: 37dc cafd 19c1 54f3 0a55 b20e 4e19 942c
000000d0: dddf 0f5f d3f6 ec3f 4124 d5e8 35d5 0252
000000e0: de9e e658 0d10 1950 e10f a4e3 1f72 0adc
000000f0: ab1c b1a4 c2de ab2f 2641 684d 6433 99dc

model.quantum.gates.0.weight_quantized i1 [30, 30]
54 -33 -55 44 58 34 34 -55
-65 41 32 2 -64 27 -49 30
-38 -66 68 -62 -12 47 -63 -88
-78 5 -16 0 -59 -92 2 1
-13 14 24 54 -70 -40 54 -43
-43 52 -43 32 -24 46 28 -71
59 6 -56 -47 -58 13 18 18
52 1 -58 -88 -54 53 59 69
48 64 49 16 -34 -45 14 58
44 17 -26 103 -40 117 -16 43
52 34 49 -38 60 61 67 19
-1 -5 84 -16 19 79 -9 -7
67 17 17 -16 27 20 100 -51
-16 62 -39 113 19 -11 19 31
56 17 9 102 101 20 44 -43
64 -69 67 -80 70 30 -92 -69
9 -35 -74 68 -60 -58 43 -68
-75 -51 28 -2 -55 -39 52 22
-3 -52 28 9 -75 -10 11 52
-80 58 -64 42 -60 -47 34 -33
17 -42 43 2 -77 22 -28 -88
-34 5 -44 74 15 24 14 -50
3 3 -60 -49 75 -54 34 33
0 69 -80 -32 83 15 14 -47
39 -49 -48 25 -65 -22 -85 -48
42 -71 43 37 -50 -39 -70 -1
47 7 -4 -101 -66 -27 -37 -87
57 11 21 78 -81 86 -52 -21
-61 -12 -53 8 65 27 -83 -41
-36 -64 8 -38 46 -13 -41 -52
-98 -12 67 57 80 80 -52 -8
-53 -5 -10 -45 -70 -3 77 -63
00000000: 36df c92c 3a22 22c9 bf29 2002 c01b cf1e
00000010: dabe 44c2 f42f c1a8 b205 f000 c5a4 0201
00000020: f30e 1836 bad8 36d5 d534 d520 e82e 1cb9
00000030: 3b06 c8d1 c60d 1212 3401 c6a8 ca35 3b45
00000040: 3040 3110 ded3 0e3a 2c11 e667 d875 f02b
00000050: 3422 31da 3c3d 4313 fffb 54f0 134f f7f9
00000060: 4311 11f0 1b14 64cd f03e d971 13f5 131f
00000070: 3811 0966 6514 2cd5 40bb 43b0 461e a4bb
00000080: 09dd b644 c4c6 2bbc b5cd 1cfe c9d9 3416
00000090: fdcc 1c09 b5f6 0b34 b03a c02a c4d1 22df
000000a0: 11d6 2b02 b316 e4a8 de05 d44a 0f18 0ece
000000b0: 0303 c4cf 4bca 2221 0045 b0e0 530f 0ed1
000000c0: 27cf d019 bfea abd0 2ab9 2b25 ced9 baff
000000d0: 2f07 fc9b bee5 dba9 390b 154e af56 cceb
000000e0: c3f4 cb08 411b add7 dcc0 08da 2ef3 d7cc
000000f0: 9ef4 4339 5050 ccf8 cbfb f6d3 bafd 4dc1

model.quantum.blocks.0.0.weight_quantized i1 [30, 30]
54 -47 26 25 63 35 -95 -102
-79 90 55 66 -122 -43 -32 87
-43 -36 -12 99 -86 -54 59 37
-93 29 -27 47 20 60 -12 4
53 -26 98 -13 20 68 -87 62
51 49 -32 9 71 -46 13 52
86 60 -45 31 1 47 57 -19
-34 -53 -53 56 94 50 -26 -69
34 -55 7 9 79 -64 52 -27
-36 -79 55 59 86 -17 47 -56
98 -61 -14 -43 53 -28 91 20
-7 31 73 70 55 -63 25 -78
103 -57 67 9 -58 75 51 55
6 -77 98 81 -27 -88 -68 -16
47 -56 -2 -66 83 -80 56 41
-70 -25 -29 -23 -50 4 -99 -98
-83 47 -75 32 56 72 -39 -26
-83 52 -89 84 -10 45 2 29
21 5 -22 17 -60 -51 -29 82
72 68 55 -81 -11 -23 -43 -22
-63 -50 0 70 -73 50 -84 27
-35 -24 -33 40 100 37 -88 -46
13 63 -29 15 -9 -61 -20 10
-65 -53 -3 16 -61 12 -53 24
-51 12 18 63 -1 3 -29 -13
4 9 -8 -86 56 -29 19 8
-53 34 -77 -4 71 14 97 70
-1 -54 80 -70 47 -84 41 -42
-31 59 1 5 -66 -22 -12 -36
58 -35 -20 -53 -20 -63 -27 20
-21 84 -6 -8 22 21 25 27
-83 -6 -28 51 41 -25 60 14
00000000: 36d1 1a19 3f23 a19a b15a 3742 86d5 e057
00000010: d5dc f463 aaca 3b25 a31d e52f 143c f404
00000020: 35e6 62f3 1444 a93e 3331 e009 47d2 0d34
00000030: 563c d31f 012f 39ed decb cb38 5e32 e6bb
00000040: 22c9 0709 4fc0 34e5 dcb1 373b 56ef 2fc8
00000050: 62c3 f2d5 35e4 5b14 f91f 4946 37c1 19b2
00000060: 67c7 4309 c64b 3337 06b3 6251 e5a8 bcf0
00000070: 2fc8 febe 53b0 3829 bae7 e3e9 ce04 9d9e
00000080: ad2f b520 3848 d9e6 ad34 a754 f62d 021d
00000090: 1505 ea11 c4cd e352 4844 37af f5e9 d5ea
000000a0: c1ce 0046 b732 ac1b dde8 df28 6425 a8d2
000000b0: 0d3f e30f f7c3 ec0a bfcb fd10 c30c cb18
000000c0: cd0c 123f ff03 e3f3 0409 f8aa 38e3 1308
000000d0: cb22 b3fc 470e 6146 ffca 50ba 2fac 29d6
000000e0: e13b 0105 beea f4dc 3add eccb ecc1 e514
000000f0: eb54 faf8 1615 191b adfa e433 29e7 3c0e

model.quantum.blocks.0.2.weight_quantized i1 [30, 30]
42 -6 -26 67 -3 13 -12 11
-58 23 66 76 28 -43 -66 -21
-10 -72 -34 -75 -6 30 34 29
-33 22 -21 16 -65 -66 5 -7
23 -32 26 9 -44 -59 -34 -3
-34 -48 -20 43 1 -65 37 16
51 33 -71 64 65 48 -10 -87
59 -31 67 55 -40 -32 -45 -18
-97 5 -28 14 -56 -24 -6 34
-6 14 -5 23 -52 89 -33 38
-18 68 29 38 53 -34 63 7
30 -27 -39 -114 -77 31 -69 87
-35 -23 -19 44 17 -35 21 88
-3 32 57 44 57 -54 -14 22
-63 25 -79 -104 60 -73 42 69
78 -74 -8 4 -6 19 -32 40
24 -76 -42 10 -82 103 36 -48
44 62 0 -55 -28 32 -78 71
24 -81 -34 -99 52 18 43 -9
-40 20 -23 73 -78 -17 -16 66
49 30 -34 -61 20 -27 -64 4
20 73 -59 32 -77 32 66 40
2 63 -23 18 52 -13 -40 -32
-27 -53 -76 53 -29 53 -41 16
-13 -35 -52 -59 -17 -87 -47 -21
-7 -42 1 -65 75 37 -14 -36
-53 -75 -38 78 23 18 61 -88
24 25 -44 -15 -39 -30 25 -78
-32 -77 -1 -83 4 -41 -10 64
74 -35 -5 1 12 15 -71 -74
-80 -31 -10 -47 -9 41 -46 15
5 -49 20 88 15 2 67 14
00000000: 2afa e643 fd0d f40b c617 424c 1cd5 beeb
00000010: f6b8 deb5 fa1e 221d df16 eb10 bfbe 05f9
00000020: 17e0 1a09 d4c5 defd ded0 ec2b 01bf 2510
00000030: 3321 b940 4130 f6a9 3be1 4337 d8e0 d3ee
00000040: 9f05 e40e c8e8 fa22 fa0e fb17 cc59 df26
00000050: ee44 1d26 35de 3f07 1ee5 d98e b31f bb57
00000060: dde9 ed2c 11dd 1558 fd20 392c 39ca f216
00000070: c119 b198 3cb7 2a45 4eb6 f804 fa13 e028
00000080: 18b4 d60a ae67 24d0 2c3e 00c9 e420 b247
00000090: 18af de9d 3412 2bf7 d814 e949 b2ef f042
000000a0: 311e dec3 14e5 c004 1449 c520 b320 4228
000000b0: 023f e912 34f3 d8e0 e5cb b435 e335 d710
000000c0: f3dd ccc5 efa9 d1eb f9d6 01bf 4b25 f2dc
000000d0: cbb5 da4e 1712 3da8 1819 d4f1 d9e2 19b2
000000e0: e0b3 ffad 04d7 f640 4add fb01 0c0f b9b6
000000f0: b0e1 f6d1 f729 d20f 05cf 1458 0f02 430e

model.quantum.gates.1.weight_quantized i1 [30, 30]
40 -12 7 -27 -27 32 -38 -48
80 -44 15 -42 -19 -17 -96 -47
-103 36 -70 0 -4 66 40 18
-57 -127 -66 -59 -93 -82 4 26
-43 0 4 63 82 -55 -14 76
22 81 45 -36 -25 81 40 87
83 3 -11 58 -14 -18 6 94
-47 19 33 -38 -98 11 30 -40
72 89 -15 37 -52 44 52 57
1 29 -37 57 52 13 12 -17
67 3 -52 50 19 101 -71 26
-37 0 18 -70 14 -14 11 -49
70 28 5 59 -29 123 44 84
46 -33 30 26 20 77 8 -47
-16 -31 2 22 13 -93 17 -25
19 -29 -27 74 13 -94 -14 59
40 -59 16 -67 -16 -21 -28 45
33 -28 6 -60 -29 -54 10 -4
57 -46 -52 -14 -90 37 -87 41
-16 -51 -40 -46 -57 -20 57 53
-17 -109 17 -98 -13 42 -45 -92
35 -2 11 -23 -57 -10 -11 19
-30 -38 23 43 65 -59 -68 -2
-13 -44 -32 54 -82 31 -8 -5
-83 -41 -60 -64 12 -75 20 -22
6 -70 -51 -28 -19 -59 -53 43
57 27 0 26 52 -42 27 51
0 -24 18 11 70 -52 -57 20
28 -61 -45 26 -67 -11 49 -35
-24 -9 -8 46 -61 21 65 -46
45 -32 54 -9 -49 46 -31 -9
24 17 -5 48 -41 -30 10 51
00000000: 28f4 07e5 e520 dad0 50d4 0fd6 edef a0d1
00000010: 9924 ba00 fc42 2812 c781 bec5 a3ae 041a
00000020: d500 043f 52c9 f24c 1651 2ddc e751 2857
00000030: 5303 f53a f2ee 065e d113 21da 9e0b 1ed8
00000040: 4859 f125 cc2c 3439 011d db39 340d 0cef
00000050: 4303 cc32 1365 b91a db00 12ba 0ef2 0bcf
00000060: 461c 053b e37b 2c54 2edf 1e1a 144d 08d1
00000070: f0e1 0216 0da3 11e7 13e3 e54a 0da2 f23b
00000080: 28c5 10bd f0eb e42d 21e4 06c4 e3ca 0afc
00000090: 39d2 ccf2 a625 a929 f0cd d8d2 c7ec 3935
000000a0: ef93 119e f32a d3a4 23fe 0be9 c7f6 f513
000000b0: e2da 172b 41c5 bcfe f3d4 e036 ae1f f8fb
000000c0: add7 c4c0 0cb5 14ea 06ba cde4 edc5 cb2b
000000d0: 391b 001a 34d6 1b33 00e8 120b 46cc c714
000000e0: 1cc3 d31a bdf5 31dd e8f7 f82e c315 41d2
000000f0: 2de0 36f7 cf2e e1f7 1811 fb30 d7e2 0a33

model.quantum.blocks.1.0.weight_quantized i1 [30, 30]
61 102 69 67 -98 15 54 81
-42 17 24 10 -110 -74 -68 27
9 99 -76 86 42 94 -60 -43
-127 -55 0 -90 -41 61 -50 -1
23 48 -41 46 -37 -25 83 65
-14 56 72 89 -61 -105 59 -126
-51 -94 -34 -2 14 46 94 -31
-53 3 87 -83 -72 -25 -104 -57
98 71 25 -7 -38 16 98 41
-43 9 -36 -68 31 -96 8 30
48 -37 77 -8 19 -37 -9 0
-21 -105 -65 2 63 1 44 3
80 -72 -61 18 66 57 90 -38
-73 51 74 50 -51 36 7 -69
-10 -19 20 -49 -50 64 23 71
-8 50 -11 80 47 17 14 66
64 -1 -2 -26 -85 32 20 -64
42 78 -7 -43 -55 89 -67 30
-76 -52 -48 -85 -79 80 3 -10
-3 -21 38 29 5 104 -105 22
42 -64 -59 32 20 -27 -91 -27
-3 66 -63 49 -28 -25 -63 43
50 24 -19 82 3 3 54 -76
-71 6 -42 37 8 -4 18 -84
48 -47 -40 -10 -63 7 -51 -6
69 -49 7 -54 58 7 -5 24
-30 -5 -28 44 -2 -19 71 30
51 63 -27 0 -47 -62 48 -23
57 87 -15 -44 44 30 -36 -61
-20 -64 91 -16 -3 -23 8 -69
49 112 -46 -36 -89 -12 21 11
16 9 -88 7 -45 -90 -91 -55
00000000: 3d66 4543 9e0f 3651 d611 180a 92b6 bc1b
00000010: 0963 b456 2a5e c4d5 81c9 00a6 d73d ceff
00000020: 1730 d72e dbe7 5341 f238 4859 c397 3b82
00000030: cda2 defe 0e2e 5ee1 cb03 57ad b8e7 98c7
00000040: 6247 19f9 da10 6229 d509 dcbc 1fa0 081e
00000050: 30db 4df8 13db f700 eb97 bf02 3f01 2c03
00000060: 50b8 c312 4239 5ada b733 4a32 cd24 07bb
00000070: f6ed 14cf ce40 1747 f832 f550 2f11 0e42
00000080: 40ff fee6 ab20 14c0 2a4e f9d5 c959 bd1e
00000090: b4cc d0ab b150 03f6 fdeb 261d 0568 9716
000000a0: 2ac0 c520 14e5 a5e5 fd42 c131 e4e7 c12b
000000b0: 3218 ed52 0303 36b4 b906 d625 08fc 12ac
000000c0: 30d1 d8f6 c107 cdfa 45cf 07ca 3a07 fb18
000000d0: e2fb e42c feed 471e 333f e500 d1c2 30e9
000000e0: 3957 f1d4 2c1e dcc3 ecc0 5bf0 fde9 08bb
000000f0: 3170 d2dc a7f4 150b 1009 a807 d3a6 a5c9

model.quantum.blocks.1.2.weight_quantized i1 [30, 30]
-45 19 -24 16 -88 64 -25 32
7 55 49 27 -95 -5 -18 25
-87 96 -74 39 -53 -28 -24 14
-71 -64 36 13 -23 51 58 -43
-44 -11 44 67 52 94 -22 -15
-48 9 -7 36 68 87 -68 49
-73 -7 -84 -67 -78 17 -7 -26
43 -14 66 4 -69 16 -57 -60
-41 -9 45 19 3 71 70 -30
-8 -61 47 -35 48 29 -58 -25
16 15 58 41 -15 -61 64 -51
-39 47 88 30 9 -28 -11 -36
-26 10 36 -39 -57 38 33 54
-14 8 -36 -39 14 -10 -6 -31
-21 -24 31 40 -55 -50 89 64
57 35 -27 -65 93 -96 -15 -24
37 18 74 -9 27 -98 -81 -16
-46 -102 60 76 -51 22 20 -69
6 88 17 58 -84 -6 1 32
-37 -24 49 -42 -57 -16 0 8
-14 66 110 -5 -44 47 -19 -75
-30 40 49 -69 29 -56 73 20
-59 -20 -53 4 41 -6 -52 -23
26 32 80 14 -25 -36 -31 -101
-92 66 90 -28 -67 -21 18 -68
46 0 -45 61 -42 -75 14 -34
88 24 -27 42 -38 -42 -64 53
28 -13 42 9 -27 -78 -47 -26
29 59 34 44 -20 -87 -3 -3
-29 68 -110 -16 -51 -11 100 1
-17 74 -2 2 82 -40 -57 -92
30 42 69 99 -3 -54 26 -62
00000000: d313 e810 a840 e720 0737 311b a1fb ee19
00000010: a960 b627 cbe4 e80e b9c0 240d e933 3ad5
00000020: d4f5 2c43 345e eaf1 d009 f924 4457 bc31
00000030: b7f9 acbd b211 f9e6 2bf2 4204 bb10 c7c4
00000040: d7f7 2d13 0347 46e2 f8c3 2fdd 301d c6e7
00000050: 100f 3a29 f1c3 40cd d92f 581e 09e4 f5dc
00000060: e60a 24d9 c726 2136 f208 dcd9 0ef6 fae1
00000070: ebe8 1f28 c9ce 5940 3923 e5bf 5da0 f1e8
00000080: 2512 4af7 1b9e aff0 d29a 3c4c cd16 14bb
00000090: 0658 113a acfa 0120 dbe8 31d6 c7f0 0008
000000a0: f242 6efb d42f edb5 e228 31bb 1dc8 4914
000000b0: c5ec cb04 29fa cce9 1a20 500e e7dc e19b
000000c0: a442 5ae4 bdeb 12bc 2e00 d33d d6b5 0ede
000000d0: 5818 e52a dad6 c035 1cf3 2a09 e5b2 d1e6
000000e0: 1d3b 222c eca9 fdfd e344 92f0 cdf5 6401
000000f0: ef4a fe02 52d8 c7a4 1e2a 4563 fdca 1ac2

model.quantum.gates.2.weight_quantized i1 [30, 30]
-70 -31 -58 -104 5 41 34 37
-31 -28 -64 -21 -27 -60 -2 -73
7 -12 -17 76 -11 11 -20 -6
-92 23 -43 -15 -34 5 67 14
-29 90 48 -5 93 91 72 79
-70 110 65 -1 -16 21 61 127
-26 -4 81 68 21 56 127 22
-21 -35 2 81 52 28 31 33
0 101 -49 -29 -1 60 -17 -17
-44 -51 72 -55 -42 0 -47 -66
-42 19 -6 -16 -37 -11 -22 59
67 -24 10 -69 -31 38 -33 47
-13 16 -71 15 30 25 -66 -7
-34 36 14 -105 43 76 -11 -5
-9 -36 -65 50 5 11 -14 7
56 48 -58 -15 -23 6 34 38
-51 31 -59 -55 -52 93 71 67
93 11 -4 29 -49 -4 26 -10
73 -41 27 83 -22 79 -24 -74
-33 34 17 -91 -26 -47 11 49
14 -32 -38 58 -21 20 29 -103
-31 -67 22 -112 18 -30 -16 -104
-47 -65 -24 73 79 -31 -19 -3
33 47 -6 17 38 -16 -100 17
-6 14 -54 -46 -62 -32 6 59
-2 49 72 17 -29 -78 45 17
-14 57 30 44 -63 -91 -101 -19
-102 25 50 -40 -76 -6 32 -1
-23 33 4 14 61 81 61 -76
-28 33 -105 -7 -13 -7 48 44
21 32 1 45 -3 -52 -1 31
83 20 -82 -20 -82 -60 -79 -43
00000000: bae1 c698 0529 2225 e1e4 c0eb e5c4 feb7
00000010: 07f4 ef4c f50b ecfa a417 d5f1 de05 430e
00000020: e35a 30fb 5d5b 484f ba6e 41ff f015 3d7f
00000030: e6fc 5144 1538 7f16 ebdd 0251 341c 1f21
00000040: 0065 cfe3 ff3c efef d4cd 48c9 d600 d1be
00000050: d613 faf0 dbf5 ea3b 43e8 0abb e126 df2f
00000060: f310 b90f 1e19 bef9 de24 0e97 2b4c f5fb
00000070: f7dc bf32 050b f207 3830 c6f1 e906 2226
00000080: cd1f c5c9 cc5d 4743 5d0b fc1d cffc 1af6
00000090: 49d7 1b53 ea4f e8b6 df22 11a5 e6d1 0b31
000000a0: 0ee0 da3a eb14 1d99 e1bd 1690 12e2 f098
000000b0: d1bf e849 4fe1 edfd 212f fa11 26f0 9c11
000000c0: fa0e cad2 c2e0 063b fe31 4811 e3b2 2d11
000000d0: f239 1e2c c1a5 9bed 9a19 32d8 b4fa 20ff
000000e0: e921 040e 3d51 3db4 e421 97f9 f3f9 302c
000000f0: 1520 012d fdcc ff1f 5314 aeec aec4 b1d5

model.quantum.blocks.2.0.weight_quantized i1 [30, 30]
69 -38 34 -48 3 -43 -73 107
74 3 80 41 38 -9 -94 -49
35 36 -45 -30 -98 -3 -33 62
-37 -70 65 -36 -91 42 23 -91
36 -35 -89 -91 -19 -77 -68 17
-88 -94 13 -63 -6 -5 106 -57
-20 -27 116 57 -36 -25 72 102
3 -4 -37 -29 48 84 67 -5
11 60 -7 57 15 6 32 -4
64 -16 54 -34 36 38 -84 16
-8 10 32 0 7 -22 -94 19
75 -48 -4 70 -44 -20 60 24
50 56 50 52 93 34 -83 42
-5 -50 -67 -61 5 44 50 24
-12 12 21 -17 52 -33 57 43
-67 -40 -6 -93 -3 -55 -47 8
58 1 37 13 -77 -54 52 -68
-87 -5 22 9 -61 9 -74 22
-17 37 3 15 38 -8 8 -34
-8 -61 -61 47 -18 54 78 -57
72 48 -1 -36 -45 48 -29 -49
91 75 -84 25 -107 87 -41 -86
-27 90 7 94 -43 -39 13 -9
6 -2 -117 21 -1 26 68 -20
-34 92 60 -18 21 -14 10 54
23 94 -29 -2 44 -76 2 101
14 -63 81 -46 81 -94 -3 -57
-48 16 115 2 -9 84 68 -13
42 72 -101 61 70 4 -44 40
-66 23 73 -28 8 37 -28 -41
-7 -7 -2 -4 0 40 -10 63
-53 -16 -75 -7 57 -21 29 -27
00000000: 45da 22d0 03d5 b76b 4a03 5029 26f7 a2cf
00000010: 2324 d3e2 9efd df3e dbba 41dc a52a 17a5
00000020: 24dd a7a5 edb3 bc11 a8a2 0dc1 fafb 6ac7
00000030: ece5 7439 dce7 4866 03fc dbe3 3054 43fb
00000040: 0b3c f939 0f06 20fc 40f0 36de 2426 ac10
00000050: f80a 2000 07ea a213 4bd0 fc46 d4ec 3c18
00000060: 3238 3234 5d22 ad2a fbce bdc3 052c 3218
00000070: f40c 15ef 34df 392b bdd8 faa3 fdc9 d108
00000080: 3a01 250d b3ca 34bc a9fb 1609 c309 b616
00000090: ef25 030f 26f8 08de f8c3 c32f ee36 4ec7
000000a0: 4830 ffdc d330 e3cf 5b4b ac19 9557 d7aa
000000b0: e55a 075e d5d9 0df7 06fe 8b15 ff1a 44ec
000000c0: de5c 3cee 15f2 0a36 175e e3fe 2cb4 0265
000000d0: 0ec1 51d2 51a2 fdc7 d010 7302 f754 44f3
000000e0: 2a48 9b3d 4604 d428 be17 49e4 0825 e4d7
000000f0: f9f9 fefc 0028 f63f cbf0 b5f9 39eb 1de5

model.quantum.blocks.2.2.weight_quantized i1 [30, 30]
-13 19 46 71 -87 -14 50 77
70 -93 56 -46 -52 58 -51 12
-127 111 -38 -68 -13 -43 28 -41
-53 17 -38 -20 70 33 5 61
-54 -27 -95 -40 -10 67 72 33
61 7 -64 99 -44 79 -92 87
7 1 -58 62 -20 75 -90 16
54 42 -32 53 -8 -83 -15 15
52 36 73 34 50 49 40 -38
-48 64 39 -26 -19 -26 -79 -87
63 72 -45 44 2 30 -39 -4
-38 -7 -15 -38 4 -13 36 -45
-54 -23 45 81 -60 -11 -38 -67
-25 -30 81 55 30 51 68 5
20 -53 11 -7 20 2 -74 -7
78 40 55 41 -86 75 84 94
-25 3 68 0 -56 63 89 70
-108 -27 -100 -1 -47 70 -28 -53
-37 -97 20 -9 -39 14 69 -49
-72 11 -85 97 -41 86 -37 -27
36 -54 -17 17 72 12 -91 17
-51 5 -13 74 -41 37 -57 -39
60 67 93 19 -55 51 49 -1
32 -14 -97 28 -67 12 42 115
75 3 -9 -5 47 -75 67 -22
9 -57 18 -59 -25 15 -15 40
-35 -25 -23 -11 -52 101 -96 81
45 -13 80 -77 3 -93 -44 17
-36 -12 -63 11 -44 -21 56 -32
-14 -63 -47 -67 -66 -49 2 58
71 -35 -58 -7 -56 0 19 77
94 43 43 -81 -95 78 57 35
00000000: f313 2e47 a9f2 324d 46a3 38d2 cc3a cd0c
00000010: 816f dabc f3d5 1cd7 cb11 daec 4621 053d
00000020: cae5 a1d8 f643 4821 3d07 c063 d44f a457
00000030: 0701 c63e ec4b a610 362a e035 f8ad f10f
00000040: 3424 4922 3231 28da d040 27e6 ede6 b1a9
00000050: 3f48 d32c 021e d9fc daf9 f1da 04f3 24d3
00000060: cae9 2d51 c4f5 dabd e7e2 5137 1e33 4405
00000070: 14cb 0bf9 1402 b6f9 4e28 3729 aa4b 545e
00000080: e703 4400 c83f 5946 94e5 9cff d146 e4cb
00000090: db9f 14f7 d90e 45cf b80b ab61 d756 dbe5
000000a0: 24ca ef11 480c a511 cd05 f34a d725 c7d9
000000b0: 3c43 5d13 c933 31ff 20f2 9f1c bd0c 2a73
000000c0: 4b03 f7fb 2fb5 43ea 09c7 12c5 e70f f128
000000d0: dde7 e9f5 cc65 a051 2df3 50b3 03a3 d411
000000e0: dcf4 c10b d4eb 38e0 f2c1 d1bd becf 023a
000000f0: 47dd c6f9 c800 134d 5e2b 2baf a14e 3923
