BEST_UNIQUE_MODELS/PRODUCTION/07_MODEL_GOVERNANCE/ONNX_ModelGovernor_Meta_optimized.onnx (onnx, 91396 bytes, 14 tensors)

encoder.0.weight f4 [128, 75]
00000000: 6acd df3d 18de 793d e817 583d dd19 e1bd
00000010: 04e5 3e3d 0ad5 9bbd 84e1 843d f64f ca3d
00000020: 521c b53d 2065 ef3b 0477 c93d 800d 42bb
00000030: 6841 de3c e479 30bd b88b 703d a61e c93d
00000040: 289f 643d 588a b53d a044 063b 5dee d0bd
00000050: 8821 6a3d 68c6 29bd 0b3b e0bd 3ad2 9dbd
00000060: 58fc 473d 7e72 33bd 64ab ac3d 59de d5bd
00000070: 9cbd 85bd 7c8a f9bc bc8b 4e3d e660 ba3d
00000080: 0ea1 aebd b4ee 8cbd 90e0 8b3d 94d9 823d
00000090: 6c4f b53d 8a30 883d e2b8 6abd 2c0c 3bbd
000000a0: 77f5 85bd 1077 febc e261 b03d 503a 9bbd
000000b0: b67b 4dbd db99 8cbd 4afc 8ebd 9947 c0bd
000000c0: d03b e8bb de7e b53d a4d4 373d f529 a8bd
000000d0: 7641 e1bd 84ec ea3d fa2e dfbd e2b6 cabd
000000e0: f413 99bd 04f0 233d 64d1 da3d b27b 20bd
000000f0: dea3 6fbd d42c 44bd d28e cbbd c007 d63d
00000100: 9014 34bc 1009 5ebc 990b 68bd 919a b3bd
00000110: 1673 32bd 0068 d6bc 58ee d9bd 098f c9bd
00000120: 404b c3ba d264 97bd 6a5a 34bd dce8 833d
00000130: c8e5 71bd deb5 98bd 607b 123c 9cd1 913d
00000140: 644c 31bd 48b0 a83c 25fd 69bd 92d5 babd
00000150: 1411 ae3d 1eb7 80bd 2261 a03d 089b d63c
00000160: 5025 ad3d 6a3a ba3d 30d5 543c 00b2 57ba
00000170: 2057 833c fc68 e23d e87b df3c 8cf1 5a3d
00000180: ce64 913d 6e43 993d e0a1 b23d 305f 143c
00000190: 94c0 29bd 16b6 d7bd a6bc a3bd 6c9a 0d3d
000001a0: 0cd6 743d adab 8ebd 9083 f3bc 8aa7 a8bd
000001b0: 804e 7c3d 2065 28bd 3058 e03c 94b9 f2bc
000001c0: a8e1 853c 5833 babd 7bf2 67bd 4310 aebd
000001d0: e5ee bfbd 50c0 583c f2e9 a3bd d058 e63d
000001e0: 9604 83bd 401f 333c d8df b1bd 8c31 2d3d
000001f0: 2c96 81bd ef40 b7bd b0b4 523d 28eb 8b3d
00000200: 1c74 10bd 30ae 393c a24e 08bd 8079 9c3a
00000210: a897 b03d 2058 6cbc 047c b43d b29e ca3d
00000220: 8ca7 8cbc d478 573d 4674 49bd 86fd bc3d
00000230: 3810 d13d 04aa bbbd 29bf 5bbd e0ed 8bbc
00000240: 0033 8e3c 1cae e53d 34ba 87bc b2ea 38bd
00000250: 4879 c63d 049b 543d 2ceb dbbd d454 c2bd
00000260: 08a7 aabd 8841 223d 18b7 d6bd 60c9 39bc
00000270: 10ef 9cbc 8660 98bd 52a0 3cbd bc67 a8bd
00000280: f065 ec3d 4047 da3a 4c7d 133d 6e39 b43d
00000290: f613 89bd 6cb1 6c3d 78fb 23bc 93b6 c9bd
000002a0: c528 bfbd 021f 953d 7ad7 81bd 0098 97bd
000002b0: 6076 8bbd 8083 18bd 7294 8ebd fa56 25bd
000002c0: fc4f eb3d ec48 a73d c00e 7ebc 5395 77bd
000002d0: 9802 893c c695 963d 0011 073d 1008 6d3c
000002e0: 4a1f 35bd e6ab aa3d f0a8 bb3c 40ec c73c
000002f0: 9e91 85bd 727b bebd 4885 68bc f8db 493d
00000300: e8c5 31bd 7071 443d 5a68 b33d baff de3d
00000310: 5e90 bb3d 5ebc e5bd 6cf5 55bd 90a8 043d
00000320: 66ef b83d 8c06 a1bc f254 9f3d 3039 703c
00000330: d02d a73b 8e01 d23d 0033 9d3c 5e3c b1bd
00000340: c042 c63b 9aff 863d 3aab a4bd 866c af3d
00000350: a4cc e23d a01d 02bb abf7 debd 306d d73c
00000360: 8499 b7bd ceda 19bd fcbd 41bd e05c bfbb
00000370: 76a8 97bd 8277 53bd a005 d43d c03e 9c3d
00000380: e494 b2bd 8001 aabb e834 853c c03e c23d
00000390: 48d4 723d 3064 a6bd 00da 633a cae1 d43d
000003a0: e2fa da3d 1cda 183d f09e 7cbd d038 02bd
000003b0: a022 f6bb ca05 8a3d 4083 ac3c 4835 abbc
000003c0: 3c35 343d 4cc9 9d3d da74 ea3d 586f e63d
000003d0: 21ae e5bd 8bbf b6bd 5904 adbd aaab 8fbd
000003e0: 12f3 b4bd 4f10 bbbd 5839 ccbc d0ec c3bd
000003f0: b3d5 59bd f4a3 8fbd b030 873b 7141 5cbd
0.109278515 0.06100282 0.052757174 -0.10991261 0.046605125 -0.07608993 0.06488326 0.098785326
0.08843292 0.007305756 0.098371536 -0.0029610097 0.027130798 -0.043084994 0.058726996 0.09820299
0.055815846 0.088642776 0.002048768 -0.10201714 0.057160884 -0.04144898 -0.109487616 -0.07706113
0.048824638 -0.04381036 0.08431128 -0.104428 -0.06530306 -0.030461542 0.05042623 0.09100513
-0.085268125 -0.068814665 0.06829941 0.06389156 0.08853039 0.06649883 -0.057305224 -0.045665905
-0.06540959 -0.031062633 0.0861242 -0.075794816 -0.050166808 -0.06865283 -0.06981714 -0.09388656
-0.0070872083 0.088620886 0.044880524 -0.08211128 -0.10998814 0.11470893 -0.10897632 -0.098981634
-0.07474509 0.04002382 0.10684469 -0.039180465 -0.058505885 -0.047894314 -0.0993935 0.10450697
-0.010991231 -0.013551965 -0.056651685 -0.087697156 -0.043566786 -0.026172638 -0.106411636 -0.09841735
-0.0014899746 -0.07392277 -0.044031538 0.06440899 -0.059057027 -0.074565634 0.008940548 0.07120058
-0.043285742 0.02059187 -0.057126183 -0.091227666 0.08499351 -0.06284927 0.078310266 0.026196972
0.084543824 0.09093173 0.012990281 -0.0008228123 0.016032755 0.110551804 0.027280763 0.053453013
0.07099305 0.07483564 0.087222815 0.009055898 -0.041443422 -0.10532777 -0.07994966 0.034571096
0.059774444 -0.06966338 -0.02972582 -0.082350805 0.0615983 -0.041112065 0.027385801 -0.029629506
0.016342953 -0.09091824 -0.05662773 -0.084991954 -0.093717374 0.013229445 -0.08003606 0.112474084
-0.06397359 0.010932744 -0.08685273 0.04228358 -0.06327471 -0.08947932 0.05144185 0.06831962
-0.03526698 0.011333033 -0.033278115 0.0011938065 0.08622676 -0.0144253075 0.088127166 0.0989355
-0.017169736 0.052605465 -0.049183153 0.09228043 0.102081716 -0.09163287 -0.0536491 -0.017081201
0.017358303 0.11214849 -0.01656828 -0.045145698 0.09691101 0.051905647 -0.10738215 -0.09488836
-0.0833264 0.039613277 -0.10484141 -0.011339515 -0.019156963 -0.074402854 -0.04605133 -0.08222911
0.115428805 0.0016653314 0.036008164 0.08800016 -0.0669326 0.05778639 -0.010008685 -0.098492764
-0.09333948 0.07281305 -0.06339927 -0.074020386 -0.068096876 -0.037234783 -0.069619074 -0.04036615
0.11489865 0.081682056 -0.015506446 -0.06044514 0.01672487 0.07352786 0.032975197 0.014467254
-0.044219293 0.08333568 0.022907704 0.024404645 -0.06521915 -0.09300889 -0.014191933 0.049282044
-0.04340163 0.047959745 0.08760138 0.1088862 0.09158395 -0.11217569 -0.052236006 0.032387316
0.09030037 -0.019656442 0.07779874 0.014662072 0.005101897 0.10254203 0.019189358 -0.08654092
0.0060504377 0.06591721 -0.080404714 0.08565621 0.11074188 -0.0019854084 -0.10887083 0.026297182
-0.08964828 -0.037562184 -0.047300324 -0.005839929 -0.07405178 -0.051627643 0.103526354 0.07629156
-0.08719805 -0.005188167 0.01626058 0.09484625 0.05928448 -0.08124578 0.00086918473 0.10394628
0.10692383 0.03731738 -0.061675012 -0.031792462 -0.007511452 0.067393854 0.021058679 -0.02089943
0.04399608 0.0770441 0.11448069 0.11251706 -0.11214853 -0.08923253 -0.08448095 -0.07015164
-0.088354245 -0.0913397 -0.024929687 -0.09566653 -0.053182315 -0.070136935 0.004125677 -0.053773347

encoder.0.bias f4 [128]
00000000: 0c94 b3bd b0fd a53b 76e9 9b3d 6093 4b3c
00000010: 90be 7e3c 0983 dabd c010 d13d fed2 aa3d
00000020: ba2f 913d 4cac 2d3d 44b5 0f3d d8f6 a63c
00000030: 9094 40bd 0afa d8bd 26ef 8d3d e469 023d
00000040: 628c 9cbd d843 b13c c613 ebbd 7492 1a3d
00000050: 4030 22bc 1c18 523d e694 07bd 4063 d63c
00000060: b5b7 e2bd 24fc b43d 08e2 2a3d fcda 3f3d
00000070: ace9 bebd 90a6 d43c 8cab 91bc 90df a43d
00000080: 4867 58bd dc13 acbd 0036 82ba b846 973d
00000090: f885 7e3d f0e0 0dbc 0416 cebd 8067 a73c
000000a0: 5221 873d 4884 ae3c 18d0 8b3c f744 74bd
000000b0: da08 e23d d0a2 193d 7072 efbb cd51 e4bd
000000c0: 1042 8e3c 98be 243d a8af 2d3d 002d 8c3b
000000d0: b84c 9d3d e8ac 843c a888 c93d da1d 28bd
000000e0: 0c5c 2b3d c8d4 2a3d be71 d93d 6c09 2b3d
000000f0: 30dd 833b 312a 6fbd b814 643d 6e94 863d
00000100: c21a bb3d 7080 4ebd 6c9b c23d 844e a3bd
00000110: 2ac0 3fbd 78f3 94bc 4e5c 833d 9887 c43d
00000120: 6020 453d 149e 023d 602e 763b 980a 03bc
00000130: 12a2 aebd f470 89bd 84d3 c03d f0bd 833b
00000140: e0c7 c7bc 8311 d0bd 6404 e4bd 47f7 e3bd
00000150: 8d45 ddbd 988c a73d a5b5 dabd 6667 8a3d
00000160: 74e9 e13d 5c1e 01bd 1a8a 84bd 5efe a23d
00000170: 00d2 7539 0ccb fbbc cf19 d8bd 8031 55bc
00000180: 5044 653c e0d4 80bb e030 b0bc ba7e a03d
00000190: f0cb 543c 24b0 1d3d cc31 573d 4a04 ea3d
000001a0: ea71 32bd 02f7 a3bd 48b0 c73c d06f 8dbb
000001b0: 48b7 273d 4830 92bc 007f 313c d072 8c3d
000001c0: c844 ea3d 4a81 8a3d 42cd d8bd c4c0 a1bc
000001d0: e8ed 173c b8ed a4bc 761e cbbd ee6e 8ebd
000001e0: 284a 273d b4e0 a0bc 14cf 533d 541a 153d
000001f0: 224a 97bd 1004 9b3c 8458 a83d b686 a23d
-0.08768472 0.0050656423 0.076128885 0.012425274 0.015548363 -0.10669524 0.10208273 0.08341025
0.07089181 0.042400643 0.035084978 0.020381376 -0.04701668 -0.10594566 0.069303796 0.031839266
-0.076439634 0.021638796 -0.11478381 0.037737325 -0.009899199 0.051292524 -0.033100985 0.026170373
-0.110701956 0.088371545 0.041719466 0.0468397 -0.09321913 0.02595833 -0.017781995 0.08050454
-0.05283287 -0.084022254 -0.0009934306 0.073865354 0.06213948 -0.008659586 -0.10062793 0.020435095
0.06598152 0.021303311 0.017067 -0.059636083 0.110368446 0.037508786 -0.007307343 -0.11148415
0.017365485 0.040220827 0.042403847 0.0042778254 0.076806486 0.01619573 0.09840518 -0.041044094
0.04183583 0.04170683 0.10617398 0.041757032 0.0040241703 -0.058389846 0.05568382 0.065712795
0.09135963 -0.050415456 0.095023006 -0.0797396 -0.04681412 -0.018182501 0.0641409 0.09596175
0.04812658 0.031889036 0.0037564263 -0.007998131 -0.08527006 -0.06710997 0.094153434 0.004020445
-0.0243873 -0.1015959 -0.1113365 -0.11131149 -0.108042814 0.08181113 -0.10679177 0.06758003
0.11030856 -0.031523094 -0.06471653 0.07958673 0.00023443252 -0.030736469 -0.105517976 -0.01301229
0.013993338 -0.0039316267 -0.02150768 0.07836671 0.012988076 0.03849806 0.052537724 0.11426599
-0.04356567 -0.080060974 0.02437605 -0.0043163076 0.040946275 -0.017845288 0.010833502 0.06857836
0.114389 0.06762941 -0.10586025 -0.019745238 0.00927303 -0.020132884 -0.09917919 -0.06954752
0.040842205 -0.019638397 0.051711157 0.03640206 -0.073871866 0.018922836 0.08220008 0.0793585

encoder.2.weight f4 [64, 128]
00000000: 6dd6 883d 60e6 06bd 06b1 023d 11aa ab3d
00000010: 2a13 3f3d a2f8 80bd 22e1 323d 1701 18bd
00000020: cb9e 913d b180 813d 8f62 9dbd b94e abbd
00000030: 6b5c 813d 7254 243d b62e 3e3d 60cd f23c
00000040: d647 363d 38f4 033c 3062 a2bb 0612 273d
00000050: 60bc 79bd 165f 083d f2f8 783d 8860 28bc
00000060: 7749 84bd 2574 28bd 4174 63bd 1a25 76bd
00000070: dab6 8cbd 37d5 aa3d 7ed2 263d 20ad 6fbc
00000080: ca22 7e3d 0e28 67bd 270e 8bbd 82c3 9dbd
00000090: 957a 4cbd d9a2 a03d b509 813d d882 c5bc
000000a0: 1b2c 35bd 3299 7e3d 0ac2 2d3d 886c 25bc
000000b0: 1ab1 4a3d 2793 953d 4c72 a7bc 578c 8d3d
000000c0: e625 82bd 40c0 5f3b 92b3 79bd e23c 2e3d
000000d0: b09d 98bb ab9b 2ebd ac80 8cbd 4271 493d
000000e0: 5032 24bc 6b40 25bd c1e7 b33d b884 303c
000000f0: 5c6b 023d 9ba4 a73d 096e 903d ea1a b4bd
00000100: 40c2 b2bd cca8 9cbd 8dc2 9c3d 6a1e 333d
00000110: a5ce 2abd b51c 963d d70c 9c3d 8029 513a
00000120: 8fd0 ae3d b6c7 7a3d 955a 833d 26d4 d4bc
00000130: c6b0 713d a93f 8c3d 401d 3dbc ef71 76bd
00000140: b89b 1ebc a045 8abd f559 63bd 62d0 4a3d
00000150: 237a a0bd 9044 d73c 002e 32bb 6049 bebc
00000160: 48b2 a03c 74e4 83bd 8138 a73d 2e41 363d
00000170: 4411 ab3c dea3 3f3d 70d9 063c ecac 84bd
00000180: 8003 b53a 7cd8 92bd bb44 9abd c66b 3cbd
00000190: 142e a43c 29c6 ac3d a36b 26bd be2e 783d
000001a0: e507 a6bd fa0e 393d 624c 83bd 0cd2 0c3d
000001b0: 740b f2bc 88d4 7ebd 0564 853d 00df c3bc
000001c0: 09d2 933d e865 1b3c 485a fabc dfc5 873d
000001d0: f4ed 093d 1efb 4f3d bc57 cc3c 4eaa 153d
000001e0: 8085 20bb bc82 51bd 7470 a9bc 28ce 063d
000001f0: e888 30bc 1484 d2bc 9fae 8bbd b694 3cbd
00000200: e75b 26bd da4f 063d 52f4 afbd c033 2abb
00000210: 8765 b13d 3322 913d e078 f8bb 722f 683d
00000220: e461 db3c 591a 92bd 80e1 c5ba 9553 0bbd
00000230: 0074 e43a 8ef0 533d 7724 983d 0054 aabd
00000240: 6cce aebc b60f 11bd 1e74 403d b84f 3fbd
00000250: dcfb cbbc 1764 9e3d 6355 19bd 7ca8 77bd
00000260: 08a6 6ebc 348e 92bc e0c4 efbb cb8d 27bd
00000270: d90a 31bd 722f 5e3d e030 87bd de96 513d
00000280: 5cfc 923c c694 483d 09be 8a3d 44c5 12bd
00000290: 501e 2bbc ea5b 623d 3883 8abd 9876 abbd
000002a0: 9868 86bc 5a8c 1c3d 708b 7f3c cca9 99bd
000002b0: 9975 a13d 4770 a5bd 7733 9c3d f7e0 a93d
000002c0: 4081 b0bc 153f b43d b06a 08bc 5420 dc3c
000002d0: 317b b33d 95ee a63d f4b7 e73c 7ec1 453d
000002e0: 2264 50bd 5a76 173d f0b4 ffbb 3d41 9e3d
000002f0: da0d 163d b904 91bd 19c8 8c3d fae9 6a3d
00000300: 9172 1fbd 5416 91bc 4057 b73b 7622 3a3d
00000310: f6ad eebc 720c 77bd 3d5c b23d dd3f 9bbd
00000320: 3058 843c 37eb 06bd c0e2 a1ba 3eb5 74bd
00000330: 8faa 8f3d 61d5 6cbd e292 4e3d 663e 353d
00000340: a23e a3bd dcbe 8d3c 901e 603c 28d3 a83c
00000350: 8ccd 81bc 6e48 083d a4de b3bc 12fd 663d
00000360: 6ca7 a2bc 19e3 0ebd 507c 1bbc 6943 99bd
00000370: 677d 37bd 7e95 4f3d 1185 afbd ce1f 14bd
00000380: 08b4 81bc 1804 af3c 4a98 96bd 596a ac3d
00000390: 404b 6d3b f893 71bc 167d febc df73 64bd
000003a0: 863e 1b3d 32a1 5bbd 0e67 3a3d 2014 9b3b
000003b0: 5ef0 6c3d bc1f 9bbc 7a07 7a3d c8e7 57bc
000003c0: 6081 e4bc b0e9 bbbc 6035 353c da55 353d
000003d0: febf 773d 0059 fc3a cd07 a9bd d04f b6bb
000003e0: a0ea 643c e0ff b8bb 825f 9bbd 7bf1 a53d
000003f0: 7005 b13b 809e 09bd 5023 04bd 48ef 19bc
0.066815235 -0.032934546 0.031907104 0.08382047 0.046649136 -0.06297423 0.043671735 -0.037110414
0.071103655 0.06323374 -0.07684814 -0.083646245 0.063164555 0.040119596 0.046431266 0.029638946
0.0445021 0.008053832 -0.0049555525 0.040788673 -0.060970664 0.033293806 0.060784288 -0.010276921
-0.06459325 -0.04112639 -0.05553079 -0.060093977 -0.06870814 0.08341449 0.040728085 -0.014628679
0.062044896 -0.056434684 -0.06789809 -0.07703306 -0.04992159 0.07843561 0.063006796 -0.024110243
-0.044231515 0.062157817 0.04242138 -0.010096677 0.049485303 0.07303458 -0.020440243 0.06911533
-0.06354885 0.003414169 -0.060962267 0.04253853 -0.0046574697 -0.042628925 -0.0686048 0.049180277
-0.010021761 -0.040344637 0.08784438 0.01077383 0.031840667 0.08185693 0.070522375 -0.08794196
-0.087284565 -0.07649383 0.07654295 0.043730177 -0.041700978 0.07329694 0.076196365 0.0007978901
0.08535873 0.061225615 0.064137615 -0.025980067 0.059006475 0.0684808 -0.011542618 -0.06016725
-0.009680681 -0.06751561 -0.05550571 0.049515136 -0.07835796 0.02627781 -0.0027188063 -0.023228347
0.019616261 -0.06440058 0.08165074 0.044495754 0.020882256 0.046787135 0.008230552 -0.06478295
0.0013810247 -0.07170197 -0.075326405 -0.04600122 0.020041503 0.084362336 -0.040629994 0.06059145
-0.081069745 0.0451803 -0.06411053 0.034380004 -0.029546477 -0.062214404 0.06513218 -0.023910046
0.072177954 0.009484746 -0.030560628 0.06629538 0.033674195 0.050776593 0.024944179 0.03653937
-0.0024493635 -0.05115007 -0.020683505 0.03291145 -0.0107748285 -0.025697745 -0.06820416 -0.04604026
-0.04061499 0.032790996 -0.08591522 -0.0025970787 0.08661943 0.07086601 -0.007582769 0.056685872
0.026780076 -0.07133932 -0.0015097111 -0.034015257 0.001742959 0.051743083 0.0742883 -0.08316803
-0.021338664 -0.035415374 0.046985738 -0.046706885 -0.02490037 0.077339344 -0.037434947 -0.060463414
-0.014565952 -0.017890073 -0.0073171705 -0.04090671 -0.043223236 0.054244466 -0.06601119 0.05116927
0.0179426 0.048970006 0.067745276 -0.03583266 -0.010444239 0.055263437 -0.06763309 -0.08372229
-0.016407296 0.038219787 0.015597209 -0.07503089 0.07883758 -0.08078056 0.07627004 0.08294862
-0.021546006 0.088010944 -0.0083262175 0.026870884 0.08763731 0.08150975 0.028285958 0.04828023
-0.050876744 0.036978103 -0.007803552 0.07727287 0.036634304 -0.07080979 0.06874103 0.057352044
-0.03892762 -0.017710842 0.005595118 0.04544302 -0.029135685 -0.060314603 0.08708999 -0.0758054
0.016155332 -0.032939162 -0.0012350902 -0.05974316 0.07014953 -0.05782068 0.050433047 0.04424896
-0.07970931 0.017302923 0.013679162 0.0206085 -0.015845083 0.0332722 -0.02195675 0.05639369
-0.019855224 -0.034884546 -0.009490088 -0.074835606 -0.044797327 0.050679676 -0.08570302 -0.036163144
-0.015832916 0.021364257 -0.073532656 0.08418722 0.0036208183 -0.014744751 -0.031065505 -0.055774566
0.037901424 -0.053620525 0.045508437 0.0047326237 0.05784642 -0.01893603 0.061042286 -0.01317782
-0.027893722 -0.02293858 0.011060089 0.044271328 0.060485832 0.0019252598 -0.08253441 -0.0055637136
0.013971955 -0.005645737 -0.07586576 0.08102699 0.0054022595 -0.033598423 -0.03226024 -0.009395428

encoder.2.bias f4 [64]
00000000: 9e54 613d a163 a2bd bc5e b2bd 510b 953d
00000010: db79 813d ced4 323d 9440 a8bd ec9a b03c
00000020: a871 febc fa40 323d de22 7fbd d44d da3c
00000030: 7e6f 2b3d a6ff 99bd 6ff9 8a3d 21b2 71bd
00000040: d09b de3c f087 3c3c b886 9cbc b47a 833c
00000050: 4099 dc3b e3d4 2cbd f0e1 123d 106d 94bd
00000060: 98d3 783c 0034 11ba c21e 4c3d 2c24 20bd
00000070: e54d 98bd 1a0b 1f3d 1cb9 2ebd 9268 203d
00000080: 9539 1abd ffeb 6ebd 906d debb 8cd5 b53c
00000090: 5e3b 7abd aa1d 1d3d b6a8 6c3d dc39 893c
000000a0: 20d8 d1bb e2a7 b2bd 3942 a43d 4e37 083d
000000b0: 9794 8d3d bca5 4fbd fc11 073d f23d eabc
000000c0: a803 1abd c14e 9ebd 2e69 163d 0644 9bbd
000000d0: 88b9 453c 401d 10bd 858a a63d cba1 813d
000000e0: 1e63 2e3d d2f0 633d d14c a6bd b546 85bd
000000f0: c094 adbd b072 8ebd 7567 b1bd c0c5 fb3a
0.055012338 -0.07929159 -0.087094754 0.07277549 0.0632207 0.043659978 -0.08215442 0.021558248
-0.031060055 0.043518998 -0.06228911 0.02664844 0.041854374 -0.07519464 0.06785857 -0.059007768
0.027173907 0.011507019 -0.019107208 0.01604972 0.006732136 -0.042195212 0.035860002 -0.072473645
0.015187167 -0.00055390596 0.04983402 -0.039096996 -0.07436732 0.038828947 -0.042657003 0.039162226
-0.03765257 -0.058330532 -0.006787963 0.022196554 -0.061091773 0.038358368 0.057778083 0.016751222
-0.006403938 -0.08723427 0.080204435 0.033255868 0.06913107 -0.050695166 0.032976136 -0.028593991
-0.037601143 -0.07729865 0.0367214 -0.07581334 0.01206816 -0.035184145 0.08131889 0.06329688
0.042574994 0.055649586 -0.0812012 -0.06507627 -0.084756374 -0.06955469 -0.08662311 0.0019208714

encoder.4.weight f4 [32, 64]
00000000: f837 d9bc f0e1 ea3d 5ac5 dd3d e266 89bd
00000010: 8c2d 34bd 5ad3 f0bd 62e0 cdbd 5427 b93d
00000020: a4d9 cdbd dcfa 953d 808c 41bd 4494 aabd
00000030: c0f3 623b b8f8 d6bd 121c e0bd 92ca edbd
00000040: 7203 e63d 580e f03c 9247 8e3d 908c 32bc
00000050: 5406 be3d 94d8 45bd 90e5 ddbd b8c0 4ebd
00000060: e071 09bc 2064 b9bb 4875 993c 94e0 d2bd
00000070: e05d c1bd e8e6 873d e482 bebd 0e45 973d
00000080: ae00 b4bd b46b e6bd 143c c83d 4829 9bbd
00000090: 4468 80bd 6812 49bd 8c37 dfbd 001e 5b3b
000000a0: 508d 823c 6431 ebbd a658 e6bd 50c7 ff3c
000000b0: dc91 6c3d 30b3 94bd ece2 913d dc90 f7bd
000000c0: 86db fcbd eeb1 e53d 3aca bd3d 4874 fd3c
000000d0: 9a7b c7bd 08c9 ba3c 82b2 873d 587a 05bd
000000e0: 62f8 bcbd 405f e7bc 72f6 f63d 6cb6 20bd
000000f0: c8ca 53bd b025 e2bc a05d 703c 60a8 283d
00000100: c05c 0f3d e832 0a3d 54fd 1e3d acc8 ce3d
00000110: 9afc f33d 0431 dcbd 0486 783d 0cf8 023d
00000120: 8c53 25bd 489a f7bc 3e51 95bd 7011 a23c
00000130: 4c2e 5c3d 50c8 6a3c d4e6 d7bd 6043 e1bc
00000140: a88c f43c 6880 983d 80fe 41bc f0d6 6a3c
00000150: 18a0 c43c c8dc 393d 6451 9ebd 80a8 d63a
00000160: 50be 843d 5223 fbbd a0d9 3cbd 0ee0 e03d
00000170: 7aa3 cabd 1806 dbbc 005b 763a 182b dc3c
00000180: b8a6 66bd b81b 8bbc f837 8f3d 2c94 4c3d
00000190: d079 2bbd 9cfb bebd 8e0d e33d 1a33 c7bd
000001a0: 8050 cfbb bce1 0e3d 6649 a6bd 4092 f4bb
000001b0: a062 7bbc a8c7 b63d da98 f63d 660a a63d
000001c0: 86a0 d63d ce52 bc3d 00cb 8f3c 50be 25bd
000001d0: 3eea 9cbd fe44 e93d 5c8a aabd e41b 993d
000001e0: f809 adbd 2055 da3b 58bd bdbd ee4b a83d
000001f0: 546b 3e3d 186d 6bbd 34fb c53d 58b7 8b3c
00000200: b2d2 f2bd dcb9 4b3d 1c6a 5b3d 20b2 7a3d
00000210: 0021 733b 0009 caba 78e0 c23d 7c2f d33d
00000220: c019 bbbd 80fb 2bbc 386f e53d 7e53 ff3d
00000230: 700b 663d 2063 42bd b82a da3c 68f3 3abd
00000240: b09b c2bc c2ab 833d eceb ab3d 5001 f9bd
00000250: 3cc3 fcbd 1089 0f3c 0877 f7bd 0043 56ba
00000260: c032 57bd 52bd c73d 925c f83d c0f0 73bd
00000270: 9a27 c5bd 80b0 d8ba f2bb f73d f855 2abd
00000280: 3004 53bd f894 adbc f0c2 30bc 5ccd f0bd
00000290: f0c2 dc3c f816 c23d 1437 ad3d 90be bfbd
000002a0: 3ce2 923d 82e9 80bd fc44 1fbd d035 5cbd
000002b0: 3449 b33d 9890 933d 804c b1bd 00dc 6b39
000002c0: 0cd0 f43d 208f 8ebc 208a 2fbc 0c3a b53d
000002d0: 30d4 4fbd 24f3 bebd 98f3 49bd ea52 d9bd
000002e0: 14b1 34bd 18f1 43bd 1078 8ebc 845a 29bd
000002f0: 4c51 85bd 3819 633d 9c23 223d f454 75bd
00000300: 5a0a 923d a825 923d 8002 f93d 38b5 6abd
00000310: 0077 feba 765e f3bd 7cdb 60bd a85a c83c
00000320: 4e51 febd 906d 873c b034 47bc 482a 113d
00000330: 4abe eb3d 7c74 1d3d c267 f43d ba19 c03d
00000340: d80d f53d dc2a 633d 0446 9a3d 9c78 c93d
00000350: a229 ed3d 8886 463d 7449 3abd e031 dabd
00000360: 507f 1a3c 30e7 82bd d618 fd3d 707d f5bd
00000370: ee9a bf3d 400e 943d 60cf 7fbd 3804 c5bd
00000380: 904f 603c c06d 563b 80bd c0bc 20e6 2d3d
00000390: e82a 2f3d 8ab2 b33d 0097 26bb 6c84 cf3d
000003a0: ce0c c93d c021 c2bd 84c8 993d a811 e1bd
000003b0: 986d a0bc fc0b 1bbd 64ab 86bd 24f6 f1bd
000003c0: f0dc f03c de2d e83d be29 9ebd bcf9 a43d
000003d0: 7a41 cf3d e4f2 55bd aadc bb3d be76 d9bd
000003e0: 54fc f83d 54af 3abd 18a0 58bd 8036 77bd
000003f0: 10bb 73bd a044 b13d 10d5 cebc fc40 d93d
-0.026515946 0.114688754 0.108286574 -0.067090765 -0.04398875 -0.11759062 -0.10052563 0.09040704
-0.10051277 0.07323238 -0.047253132 -0.08329061 0.003463015 -0.10496658 -0.10942854 -0.11610903
0.11231126 0.029303715 0.06947245 -0.0108977705 0.09278551 -0.048302248 -0.10834801 -0.05047676
-0.008388966 -0.005657688 0.018732682 -0.10296741 -0.09441733 0.06635839 -0.09302309 0.07386218
-0.08789192 -0.112510115 0.09777084 -0.07576233 -0.06269887 -0.04908982 -0.108992666 0.003343463
0.015936524 -0.1148403 -0.11247377 0.03122297 0.05775629 -0.0726074 0.0712336 -0.120881766
-0.12346558 0.11215578 0.09267087 0.030939236 -0.09740372 0.022800937 0.066258445 -0.03258738
-0.09227063 -0.02824366 0.120587245 -0.03923647 -0.05170706 -0.027605861 0.014670759 0.0411762
0.035000563 0.033739954 0.03881581 0.10096869 0.11913414 -0.107515365 0.060674682 0.031974837
-0.04036288 -0.030224934 -0.07290886 0.019783705 0.05375509 0.014329985 -0.10542074 -0.027497947
0.029852226 0.074463665 -0.011840463 0.014333472 0.02400212 0.04537657 -0.07730368 0.0016377121
0.06481612 -0.12262596 -0.04610598 0.10980235 -0.09894462 -0.026736304 0.00093977153 0.026876017
-0.05631134 -0.01698099 0.06993097 0.049945995 -0.041864216 -0.093253344 0.1108657 -0.09726544
-0.006326735 0.034883246 -0.081194684 -0.0074637234 -0.015343338 0.089248 0.12040873 0.08107452
0.10479836 0.09195481 0.017552853 -0.0404647 -0.07661866 0.11390112 -0.08327171 0.07476023
-0.08449167 0.0066629797 -0.0926463 0.082176074 0.046489075 -0.057477087 0.09667054 0.017055199
-0.11856593 0.049737796 0.05356799 0.06120503 0.0037098527 -0.0015414059 0.0951547 0.10311791
-0.09135771 -0.010496974 0.11202854 0.12467097 0.05616325 -0.047457814 0.026631698 -0.045642287
-0.023755878 0.064292446 0.08394608 -0.121584535 -0.123419255 0.008760706 -0.1208325 -0.0008173436
-0.052538633 0.09752907 0.121270314 -0.05955577 -0.09626694 -0.0016532093 0.120963946 -0.041585892
-0.051517665 -0.021189198 -0.010788664 -0.11757919 0.026948422 0.09477037 0.08457771 -0.09362519
0.07172057 -0.06294538 -0.038884148 -0.053762257 0.08754197 0.072053134 -0.08657169 0.00022493303
0.11953744 -0.017402232 -0.010714084 0.08848962 -0.050739467 -0.09323719 -0.049304575 -0.10611518
-0.044114187 -0.047837347 -0.017391235 -0.041346088 -0.06509647 0.055443972 0.03958474 -0.05989547
0.07130881 0.071360886 0.1215868 -0.05730173 -0.0019414127 -0.11883251 -0.054896817 0.02445729
-0.124178514 0.016531736 -0.012158558 0.035440713 0.11510904 0.038441166 0.11933853 0.09379907
0.11965531 0.055460796 0.07532886 0.098374575 0.115802065 0.048468143 -0.045480207 -0.10654044
0.009429768 -0.06391752 0.12358253 -0.11986816 0.09355722 0.072292805 -0.062453628 -0.09619945
0.013690844 0.0032719225 -0.02352786 0.042455792 0.042765528 0.08774288 -0.0025419593 0.10132679
0.098168954 -0.094790936 0.075089484 -0.10989696 -0.019583508 -0.037853226 -0.06575659 -0.11814526
0.029402226 0.113368735 -0.077228054 0.080554456 0.101199105 -0.05223359 0.09172948 -0.106183514
0.12157503 -0.045577362 -0.052887052 -0.06035471 -0.05950457 0.08655667 -0.02524808 0.10608098

encoder.4.bias f4 [32]
00000000: 14cc 373d 00d9 993a 8e33 b13d 0062 3e3a
00000010: 90fc 0a3c 5c97 13bd 9a0b e5bd ae94 eb3d
00000020: c088 9c3b d873 adbd b0ad 443d 5054 9d3d
00000030: 4048 c8bd 24d6 8fbd f814 223d 08e4 c0bc
00000040: a49d 78bd 5019 bbbd 4443 c43d 723d 9bbd
00000050: 9c6b ffbd b8a5 c2bc e423 dd3d 7094 ca3c
00000060: 7a53 f23d a2f0 a0bd d81b b8bd 04cb 9abd
00000070: 14d4 ed3d 48db b1bd 74f0 71bd 00dc dbbc
0.04487236 0.0011737645 0.086524114 0.0007262528 0.008483067 -0.03603302 -0.111838534 0.11502968
0.004777044 -0.08469361 0.048017204 0.07682097 -0.097794056 -0.07023266 0.03957078 -0.023546234
-0.060697213 -0.09135687 0.095831424 -0.07580079 -0.12471697 -0.023760661 0.10797861 0.024728984
0.11832328 -0.07858397 -0.08989686 -0.075582534 0.11612716 -0.08684403 -0.059067205 -0.026838303

weight_head.0.weight f4 [15, 32]
00000000: 0bbf 1bbe 03a1 fabd 666a d2bd d060 883c
00000010: d00b 29be e047 583c fca7 38bd cb56 01be
00000020: 2b75 0d3e 53ee 063e a501 8dbd c144 a0bd
00000030: b8e7 d7bc cc09 0dbd 522f af3d 5834 e8bd
00000040: 0c6e 03bd 503b b33c 7e7c d43d 9336 173e
00000050: 4973 f3bd d0c5 4b3d 0a60 e83d 94c8 1ebd
00000060: 00b4 5a3d cc0f 3a3d 486c b2bc 0abb b63d
00000070: 6221 a83d 017f cabd 0ad3 b43d 6869 dcbc
00000080: 4207 18be c0ae 683b 9a1e c33d 00b4 af39
00000090: de56 16be 8c4e 323d e3ca d4bd 6007 f93b
000000a0: 5e33 d2bd 3ccf 2dbe 3dc8 113e f402 00bd
000000b0: da13 e33d 7a95 c23d 8aef c33d 8557 273e
000000c0: c1cd 15be e01d 793c 7317 33be 3e1e f53d
000000d0: bfc6 0a3e 00d2 49bc 261e fe3d 92a5 fc3d
000000e0: 18e2 45bd a8a0 83bc 00aa 053d d7b3 0a3e
000000f0: 1266 f53d 2c00 0dbe 578a 1c3e 950d c1bd
00000100: cb9a 31be 2d90 173e a319 203e 7bbd 123e
00000110: 6c23 413d b684 debd a1cb 0e3e 284d c0bc
00000120: 2887 93bc 8095 67bb 103d f0bd 0ecd f3bd
00000130: d5bf afbd 6635 be3d cdcc 333e 8843 03be
00000140: 115a c8bd 2892 c8bc f0e5 3d3d beb1 e53d
00000150: 2e8a f9bd e921 01be a062 49bc ee54 ed3d
00000160: c006 6e3c 5220 0ebe 0596 093e e9f3 fabd
00000170: be50 0abe 3892 9abc dc17 4fbd 8899 95bc
00000180: 6518 0abe 304b 913d ff43 88bd e44d 073d
00000190: bcfe 383d c390 04be a18b a9bd 3889 803c
000001a0: b6f0 29be a6a7 ac3d 0856 173d 8cdf 2abd
000001b0: eb9e 19be 6145 b0bd ef0f 10be 0a06 f53d
000001c0: 876d 1dbe 846c 4abd f747 d1bd 6855 24be
000001d0: 9213 b53d b068 fbbc 8018 4e3b 54f7 b6bd
000001e0: 2aca a33d a968 263e 4fb3 12be 1e1c 873d
000001f0: fe6c a13d 7d16 013e da9d c83d 3022 29bd
00000200: aa5d b23d 588b 12bd 404f d3bb d830 813c
00000210: 50c2 573c 7e5a a23d ca7f 99bd 5c95 4abd
00000220: 104f 3e3c 5223 89bd 19d0 dfbd b6cd 9d3d
00000230: 2394 123e 4bb0 9bbd 3872 423d 88bf 11bd
00000240: ce0f e93d 2443 063d 71e9 173e ee0f e63d
00000250: f431 31be ac13 5a3d 0295 a3bd 861c 64bd
00000260: 7803 57bd 6fc7 283e 860a a43d b0c6 71bd
00000270: 2a56 a5bd 2c77 663d f8e7 53bd 82f5 f4bd
00000280: c049 cebd 7f71 debd 2026 bc3b 1b43 f9bd
00000290: 00a1 89bc 106a fc3c 6012 1e3c 8c5b 6cbd
000002a0: 3a10 d3bd 9719 8fbd 9c1c 18be 2638 b83d
000002b0: 9902 1b3e faaf 0fbe b04f 12bd 8c22 913d
000002c0: d25b 25be 0084 873a 4b31 26be 0b71 073e
000002d0: b836 883d c166 263e 3969 cbbd 23e8 0b3e
000002e0: e587 223e 8c40 3ebd c817 c9bd 1d86 023e
000002f0: b136 173e ce92 00be e708 333e 709c 13be
00000300: 405c 613c ccea 03bd 4eaa 1bbe 50ca 483c
00000310: 3771 1ebe 7b2c 003e 0078 11ba 0a91 1ebe
00000320: 126e d23d 780b 17bd e0e4 babd e4ec 50bd
00000330: f6a3 b9bd 9694 c63d d019 e13c 0092 6c3b
00000340: 68dc 613d e0d8 2b3d 64af 96bd ea05 c03d
00000350: 6f1c 343e d0c3 debc 9b9b a9bd ab05 8dbd
00000360: 48b6 10be 6f02 e9bd 31e2 24be 0c4d 283d
00000370: 8d7f 043e 8317 bdbd 0ed3 ef3d a0c0 13bd
00000380: 0669 fe3d bf44 063e d724 9bbd cf30 293e
00000390: b033 333d 2f19 143e 38c9 14bd 3666 bd3d
000003a0: 6be0 033e 75ba 2f3e 9e28 e13d 7ff4 99bd
000003b0: cf01 c6bd 9099 e93c f0dc ec3c 5013 28bd
000003c0: b4c7 5dbd a5ec cdbd fc0f 38bd 45aa 323e
000003d0: 9990 b6bd f286 a13d 4891 803d 3939 2d3e
000003e0: e0e7 d3bb df04 113e 40d9 0bbd 0b0d 223e
000003f0: 8040 eb3b 9aab 8ebd 7474 633d 8af7 85bd
-0.15209596 -0.12237742 -0.102742 0.016647726 -0.16508412 0.01320073 -0.045082077 -0.12630765
0.13814227 0.13176851 -0.06885079 -0.07825614 -0.02635561 -0.03443317 0.085539475 -0.11338109
-0.03208737 0.021878868 0.103753075 0.14766912 -0.11887223 0.049749196 0.11346443 -0.038765505
0.053394318 0.04542522 -0.021780148 0.089223936 0.08209492 -0.09887505 0.08829315 -0.02690573
-0.14846519 0.003550455 0.09527321 0.00033512712 -0.14681575 0.04353194 -0.1039026 0.007599756
-0.10263704 -0.16973585 0.14236541 -0.031252816 0.11087771 0.09501167 0.09567173 0.1634198
-0.1462927 0.015204877 -0.17489414 0.11968659 0.13552378 -0.012318134 0.12408094 0.123362675
-0.048311323 -0.016067818 0.032632828 0.13545166 0.11982359 -0.13769597 0.15287147 -0.09426419
-0.17344205 0.14801092 0.1563478 0.14330094 0.04715292 -0.10865156 0.13944866 -0.023474291
-0.018008783 -0.0035336912 -0.11730397 -0.119043455 -0.08581511 0.09287529 0.17558594 -0.1281873
-0.09782804 -0.024483755 0.046361864 0.11215542 -0.12184559 -0.12610592 -0.01229158 0.11588465
0.0145279765 -0.13879517 0.13436134 -0.122535534 -0.13507363 -0.01886855 -0.050559863 -0.018261686
-0.13485868 0.07094419 -0.06653594 0.033033267 0.04516481 -0.12945847 -0.08278585 0.015690431
-0.1659573 0.08430414 0.03694728 -0.041717097 -0.15002029 -0.08606983 -0.14068578 0.119640425
-0.15373813 -0.049419895 -0.10218804 -0.16048205 0.08841623 -0.030689567 0.0031447709 -0.08933893
0.07997544 0.16250862 -0.14326213 0.0659716 0.07882117 0.12606235 0.09795733 -0.04129237
0.08709271 -0.03577742 -0.0064486563 0.01577036 0.013168886 0.07927416 -0.07495077 -0.049458846
0.01161553 -0.0669619 -0.10928363 0.07705252 0.14314322 -0.076019846 0.04747221 -0.03558305
0.11379968 0.032778874 0.14835145 0.11233507 -0.17304212 0.053241417 -0.07987405 -0.055691265
-0.052493542 0.16482328 0.0800982 -0.059027374 -0.08073075 0.056265995 -0.051734895 -0.119608894
-0.100726604 -0.108614914 0.0057418495 -0.121710025 -0.016800404 0.030812293 0.009647936 -0.057704493
-0.10305829 -0.06987303 -0.14854664 0.089950845 0.1513771 -0.14031973 -0.035720527 0.070866674
-0.16148308 0.0010339022 -0.16229741 0.13226716 0.06651062 0.16250135 -0.09932179 0.13662772
0.15872152 -0.046448275 -0.09818989 0.12746473 0.14766957 -0.12556002 0.17483865 -0.14415145
0.013754904 -0.03220634 -0.15201685 0.012255266 -0.15472876 0.12516968 -0.00055491924 -0.15485016
0.102749005 -0.03687617 -0.09125686 -0.051007167 -0.09064476 0.09696309 0.027478129 0.0036097765
0.055141836 0.041954875 -0.07357672 0.09376128 0.17588972 -0.02719298 -0.082816325 -0.06885847
-0.14132035 -0.11377417 -0.1610191 0.041089103 0.12939282 -0.09233 0.11710177 -0.036072373
0.124223754 0.13112162 -0.07575386 0.16522525 0.043750465 0.14462732 -0.03632471 0.09248011
0.12878577 0.17160971 0.10994075 -0.07517337 -0.09668314 0.028515607 0.028913945 -0.041034043
-0.05414553 -0.10054902 -0.04493712 0.17447765 -0.089142986 0.07887067 0.0627771 0.1691636
-0.0064668506 0.14162014 -0.034142733 0.15825288 0.00717932 -0.06966324 0.05553098 -0.06541355

weight_head.0.bias f4 [15]
00000000: a063 153d 643f 2d3d 811c 093e 44b3 8b3d
00000010: 26e9 8b3d 3a8b cbbd 0d5c 1f3e fe16 cd3d
00000020: 12c8 0ebe 68a1 0abd b36b 0f3e b8ed 903c
00000030: 8b45 17be 6a9b 0bbe 004f 11bc
0.036471963 0.042296782 0.1338978 0.068213016 0.06831579 -0.09938665 0.15562458 0.10014151
-0.13943508 -0.033845335 0.14005928 0.017691478 -0.14772622 -0.13633505 -0.008868933

threshold_head.0.weight f4 [15, 32]
00000000: 0041 25be cad1 d83d f4d5 09be b509 15be
00000010: 930b 29be 74a9 733d 1107 13be 88ca 7fbd
00000020: aecd fd3d 8049 3bbd a4f7 323d 0021 203c
00000030: c526 073e e28f e33d 91cc 27be ee10 973d
00000040: 1911 1b3e c25f 89bd ac21 243d d6c6 9e3d
00000050: 0880 aabc 7498 66bd 2485 513d 3b3c f1bd
00000060: 82bf aa3d e81c efbc 40e4 29bb b468 503d
00000070: 586e 8e3c 4d82 1cbe e6d7 c83d e268 c8bd
00000080: fa91 ca3d 8c40 103d fe5e 0abe f89b 32bd
00000090: ca2b ca3d 1e05 f33d 8740 0c3e 2298 efbd
000000a0: bab8 dd3d cf85 193e 9dc6 183e dcc6 c0bd
000000b0: ac35 4abd bf1c 033e 2928 d5bd ebf8 1ebe
000000c0: 608c 183d 9555 163e 5c1b 38bd b253 9c3d
000000d0: 3a83 30be c220 1dbe 389a b9bc 0000 fbb9
000000e0: d071 66bc c32b b1bd 1aee fb3d 6674 23be
000000f0: a20f c53d 853a f9bd 4ce9 0fbe 801d 1fbc
00000100: 60da d0bc a6b0 ce3d ff82 273e 2b78 073e
00000110: b037 613c f06c 16bc 9af2 22be 5d7a 143e
00000120: 6daf 113e f00a 71bc 41ba 2b3e e0ef 00be
00000130: 45a8 dfbd f8fc 06bd 079e 183e fe39 903d
00000140: 2068 5f3c f02f f83c 0116 0dbe 4cb1 2abd
00000150: 2bab 1dbe 821f 60bd 4621 943d 8bac 1dbe
00000160: b807 f6bc 5a11 62bd 7751 293e 5b48 ecbd
00000170: 1a1d a0bd e943 1c3e 8684 e73d a860 813c
00000180: 1e7e 9b3d c21a df3d 4db1 163e b7ce 92bd
00000190: 921d c33d 3684 c5bd 166a fb3d 2e6d c83d
000001a0: b4e1 1c3d 28f5 97bc a1b6 c2bd f0b1 dabc
000001b0: 3cfd 29be 68df f7bc c0b8 4a3b 2846 f2bd
000001c0: d42e 763d d0a0 babc a2f4 a33d daa8 76bd
000001d0: e575 34be a02c 21be c05c ecbc 8bab 283e
000001e0: 8792 273e 8df0 0d3e fe7c ae3d 6651 69bd
000001f0: d8c9 963c 0687 c03d 240c 34be 25c4 243e
00000200: 8025 e6bc a246 ccbd 909f 04be a410 363d
00000210: 00b2 c5ba 3edc 0bbe c4a3 6e3d b68a 923d
00000220: 32fb f3bd 8057 02bd 1331 cdbd f4e0 31be
00000230: 66d3 fc3d 1442 61bd e61a 993d 0033 3c3b
00000240: 626e a03d e08a 08bd eca8 17be 1fe7 d1bd
00000250: 1a63 d13d 53b1 323e 48ee 92bc 5e10 9fbd
00000260: b807 8c3d b634 b7bd e02d 0bbe bb65 1d3e
00000270: 90d0 483d 93d0 053e 6a92 0abe b973 2d3e
00000280: a941 223e ce3e 23be 004a 7eba fad6 f13d
00000290: 2f6d 0c3e 8240 0fbe 5a6f 2bbe a690 be3d
000002a0: 365b ab3d 86fd c23d c057 d9bb 3d7f 2dbe
000002b0: f766 163e 4906 343e c07c 70bc b8ca 0dbe
000002c0: fe6d e63d 2c00 943d 70c5 08bc 9aca 2cbe
000002d0: f6e1 e33d 6d3a cabd e075 e43b bc16 57bd
000002e0: 4003 03bc a85c 453d 82df 06be ba22 f83d
000002f0: b832 babc c4b1 ffbd 639c e4bd 9da1 f5bd
00000300: e4e4 093d 7475 0dbd 9eb0 9b3d c068 163b
00000310: 8d24 183e 2140 edbd 21b5 07be e043 9dbc
00000320: 00dd 18ba e85f 633d 3e70 b23d 9907 233e
00000330: 8294 6dbd 1ed7 eb3d dbf3 193e 5bcf 0d3e
00000340: 116f 253e 0456 6d3d 00c4 20ba 28b9 d63c
00000350: 1896 193d d8f6 cdbc 1c59 003d ba7a d63d
00000360: a09c 4ebc 3e3d 16be 2a42 b63d b2ff c83d
00000370: 97f2 343e 1037 e7bc e7b3 e1bd 265f 7dbd
00000380: 52e8 7abd da76 fb3d f030 0ebe 1311 86bd
00000390: 4fb1 0fbe 9c97 53bd 4093 d63c d4d0 b9bd
000003a0: 6918 2c3e d05a ca3c 4bd6 333e 4ee3 d93d
000003b0: 88aa e33c f281 883d cbbe 28be 00e5 9f3c
000003c0: f0f3 adbd 1572 14be e95b fbbd c6f1 d7bd
000003d0: 5312 2e3e 4006 d9bc f8d7 07bd e008 743c
000003e0: 62f1 79bd 8a38 75bd 809e 583b 943c 69bd
000003f0: d903 033e 6624 9d3d 8ad1 c1bd ac8e fabd
-0.16138077 0.10586889 -0.13460523 -0.14554484 -0.16508321 0.059487775 -0.14358164 -0.06244901
0.12392746 -0.045724392 0.0436932 0.009773493 0.13198383 0.11111428 -0.1638663 0.07376276
0.15143241 -0.067077175 0.040071175 0.07752769 -0.020813003 -0.056297734 0.051152363 -0.11779066
0.083373085 -0.029188588 -0.00259234 0.050881103 0.0173866 -0.15284081 0.09806804 -0.0978563
0.09891124 0.035217807 -0.13512799 -0.043605775 0.09871633 0.118662104 0.1369649 -0.11698939
0.108262494 0.1499245 0.14919515 -0.094129294 -0.04936759 0.12803935 -0.104080506 -0.15524642
0.037243247 0.14681084 -0.044947967 0.07633151 -0.17237559 -0.15344527 -0.022656545 -0.0004787445
-0.014065221 -0.08650925 0.12301274 -0.15962371 0.09622122 -0.12169365 -0.1405384 -0.009711623
-0.025494754 0.10092287 0.16358565 0.13229434 0.013746187 -0.009181246 -0.15912858 0.14499803
0.14227076 -0.01471208 0.16770269 -0.12591505 -0.10920767 -0.032956094 0.14904033 0.07042311
0.013635665 0.030296296 -0.13777925 -0.04167299 -0.15397327 -0.05471755 0.07232909 -0.15397851
-0.030032977 -0.05519233 0.16534983 -0.11537238 -0.07818051 0.1526028 0.11304574 0.01579316
0.07592414 0.108937755 0.14716072 -0.07168334 0.095271245 -0.09644358 0.12276094 0.097864494
0.038301185 -0.018549517 -0.0950749 -0.026696175 -0.16600507 -0.030257896 0.0030932873 -0.118297875
0.060103253 -0.02278176 0.080056444 -0.060219623 -0.17623098 -0.1573968 -0.02885282 0.16471688
0.1636449 0.13861294 0.08519934 -0.056962393 0.018406793 0.09400754 -0.17582756 0.16090448
-0.028094053 -0.0997441 -0.12951493 0.044449463 -0.0015082955 -0.13658234 0.058261648 0.07155363
-0.11913146 -0.031821728 -0.10019126 -0.17370969 0.123450086 -0.054994658 0.074758336 0.0028716922
0.07833554 -0.033335567 -0.14810532 -0.10249161 0.1022398 0.17450456 -0.017935887 -0.07766794
0.0683741 -0.08945601 -0.13591719 0.15370838 0.049027026 0.13067846 -0.13532415 0.16938676
0.1584536 -0.15941927 -0.0009700358 0.11808582 0.13713525 -0.13989452 -0.16741696 0.09304933
0.083670065 0.09521012 -0.006632775 -0.16943069 0.14687715 0.17580523 -0.01467818 -0.13846862
0.11251448 0.07226595 -0.008347854 -0.16874161 0.11127083 -0.09874425 0.0069720596 -0.052511916
-0.00799638 0.048184067 -0.13171199 0.121159986 -0.022729263 -0.12485078 -0.11162641 -0.11993716
0.033665553 -0.03453584 0.076020464 0.002295062 0.14857693 -0.11584497 -0.13252689 -0.019197404
-0.00058312714 0.055511385 0.08712815 0.15920867 -0.058002956 0.1151564 0.1503443 0.13848631
0.1615565 0.05794336 -0.0006132722 0.026211336 0.037496656 -0.025142118 0.03133498 0.10472627
-0.0126105845 -0.146718 0.088993385 0.09814395 0.17670666 -0.028224498 -0.11020642 -0.06185832
-0.061256714 0.122785285 -0.13885856 -0.065462254 -0.14032482 -0.051658258 0.026193261 -0.09073034
0.16806187 0.024701506 0.17562215 0.10639058 0.027791277 0.0666541 -0.16479032 0.019518375
-0.08493793 -0.14496644 -0.1227339 -0.105441615 0.16999178 -0.026492238 -0.03316495 0.014894694
-0.061021216 -0.059868373 0.0033053458 -0.056942537 0.12794437 0.07672958 -0.094637945 -0.12234244

threshold_head.0.bias f4 [15]
00000000: b039 14be b9f0 87bd ed0d 2a3e 47aa 0c3e
00000010: ba07 c5bd aa2a b53d a052 1fbe 30d6 b3bc
00000020: a80a 07bd a093 063c 0cd1 08be 4e62 bf3d
00000030: 3df3 f3bd 3e46 f03d dd03 0e3e
-0.14475131 -0.06637711 0.16606875 0.1373683 -0.09620614 0.08846028 -0.15558863 -0.021952718
-0.032969147 0.0082139075 -0.13360995 0.09344922 -0.119116284 0.11732148 0.13868661

risk_head.0.weight f4 [15, 32]
00000000: f670 dfbd 08a9 333d 14b9 99bd 583a e7bc
00000010: 4df7 29be b8e0 40bd f27b b23d 7080 da3c
00000020: e25a 8bbd 8dae 243e b24f a63d 391e 1fbe
00000030: cece 01be 3653 e83d 2b44 0d3e ec4e 15bd
00000040: f8f0 d33c 6df6 013e dcbc 573d 3519 143e
00000050: 3233 eb3d 1fa3 2f3e 3f37 1a3e 079f 0cbe
00000060: fa29 0bbe dfcc 2abe b8c6 87bd 2c1e afbd
00000070: 56e5 5dbd 532d 023e c656 89bd c430 263d
00000080: 789b 3f3d 5aba dd3d dc35 22bd 4c37 443d
00000090: a0db 18be c67a e63d 1697 9ebd 9597 113e
000000a0: 4024 dfbc a06d ac3b 803e f63a c46c 1bbe
000000b0: 317e 073e c83a bfbd 09fa c2bd ce64 57bd
000000c0: 6cb2 343d 4093 0fbe c01e 063b 7467 043d
000000d0: 203a 7bbd 9cff 0dbe 40a4 77bc 6752 243e
000000e0: fe3b c6bd 759c 0a3e 7cb7 26be e594 07be
000000f0: 4c5d 233d 2c96 4e3d 1765 2e3e 7c74 3cbd
00000100: 712f 153e 1a39 f73d e245 de3d bde9 333e
00000110: 3f37 c5bd 5308 9bbd d3e5 8cbd 7499 4f3d
00000120: 9182 053e d0c8 8dbc afbd e9bd c8b3 20bd
00000130: bf6d 0e3e ed1b 053e ee3f bfbd 5622 853d
00000140: 7243 a43d b677 d73d 60ff 6f3c 80ac 9aba
00000150: 8f84 0b3e 90b3 90bc 1897 fbbc 6459 433d
00000160: 20e3 06bc c256 e93d 58ed c13c bfb5 d9bd
00000170: c1b2 d7bd 3821 30bd a7d2 1c3e f916 e5bd
00000180: 37e9 25be 14d9 263d f817 e0bd e459 e5bd
00000190: 500a d8bd bd98 263e fc3f 10bd d4f5 22be
000001a0: cc16 883d 2f02 333e 1339 0f3e 74ca b9bd
000001b0: 0082 573a 22af ae3d 537b 0e3e 8646 58bd
000001c0: 2890 c5bc 8517 8bbd 7e71 ed3d 2951 1d3e
000001d0: c76b e1bd 2bf9 0a3e 0e6e ad3d 18a1 92bd
000001e0: 8c15 44bd 4e6d d23d 0668 b93d a5f0 2fbe
000001f0: f02f 23bc 0a5c 9dbd 4004 09bd 496b 313e
00000200: 3616 d53d 8e4d 843d d864 083d dc8d 473d
00000210: f550 173e 0b8b 0c3e 5785 c7bd e626 e43d
00000220: 98e9 663d 6e09 b93d 04ac 13be caea a33d
00000230: a7ca 023e 8260 eb3d 65da 0f3e 7694 82bd
00000240: 0120 c4bd 8f46 1a3e e44b 803d d88a 093d
00000250: 3052 0abd 704d a0bd 4007 da3b 8073 1bbe
00000260: 3099 11bc b2f6 ec3d 6689 79bd 3020 e3bc
00000270: 071c 0b3e c072 e0bc ff43 03be 8332 bcbd
00000280: f793 243e 17cd 203e 9686 d13d f0e7 fcbc
00000290: 3c90 593d c27b ec3d 19b1 2f3e 56ae 18be
000002a0: 3ae2 e33d 0e02 6bbd 20b9 d23c 0c74 0ebe
000002b0: 18f3 f9bc 60b1 8a3c 75c5 01be 42d1 bd3d
000002c0: ec3b 03bd e0fc a4bb 1a58 68bd 604e 03bd
000002d0: a4ed 503d e433 04be ef07 b5bd 886b 22bd
000002e0: 7805 8f3d 904c 4e3c a0df d03c 98ff 0bbd
000002f0: 3cfa 22bd 9c7c 2f3d 8e94 60bd 1e30 a53d
00000300: 484f 8e3c 9271 13be 82d5 bebd 81dc 1ebe
00000310: 40e8 10bd e899 933d 1433 0d3d bc5d 523d
00000320: 8540 2abe beea ee3d 9e90 a63d 6bff 273e
00000330: 8c56 323d 23fd 0e3e 889f 03bd 1cfc 0e3d
00000340: c341 b3bd ebb6 193e 2148 143e 00be 0abd
00000350: c51a 173e 90cd 963c 8f84 2a3e 097b b3bd
00000360: fa83 df3d e045 fdbc d828 003d 7a3d c13d
00000370: 1292 983d 48ad 4e3d f4aa 31be c8e1 f33c
00000380: 707c 1b3d 2263 bcbd 4340 193e 0002 51bc
00000390: d04e 163c 00bc 22bb 3c39 493d 1310 263e
000003a0: 00ec 403d e843 e5bc d0b0 da3c a2ba dc3d
000003b0: 688a 643d 2e68 b93d ec2c c0bd 3c94 03be
000003c0: 4eda fd3d 0a4d 66bd 9185 053e a7e6 acbd
000003d0: abda 183e 8655 bf3d dde3 85bd c4f4 4f3d
000003e0: 37ef 213e d21e 90bd 4862 7e3d a0b4 893b
000003f0: d31a 20be d4f7 1ebe ec07 7e3d 64b9 02bd
-0.109102175 0.043862373 -0.07506004 -0.028226063 -0.16598244 -0.04708931 0.08715047 0.026672572
-0.06804444 0.16082211 0.081206694 -0.15538873 -0.12676546 0.11343996 0.13795535 -0.03645222
0.025871739 0.1269166 0.052670345 0.1446274 0.11484374 0.1715207 0.15060137 -0.13732539
-0.13590232 -0.16679715 -0.066296995 -0.08550677 -0.05417379 0.12712602 -0.06706004 0.04057385
0.046779126 0.10826559 -0.039602146 0.047904298 -0.1492753 0.11253886 -0.07743661 0.1421798
-0.027238965 0.0052620918 0.0018786937 -0.1517821 0.13231732 -0.093373835 -0.09520347 -0.05258637
0.04411547 -0.14021015 0.0020465106 0.032325223 -0.06133473 -0.13867038 -0.015114844 0.16047059
-0.09679411 0.13536246 -0.16280931 -0.13240393 0.039883897 0.050436184 0.1703075 -0.046009526
0.14568879 0.12071438 0.10853173 0.17569633 -0.09629678 -0.07569947 -0.06879773 0.050683454
0.13038088 -0.017307669 -0.114131324 -0.039233953 0.13909052 0.12998934 -0.093383655 0.0650069
0.08020677 0.1052088 0.0146482885 -0.0011800677 0.13624786 -0.017663747 -0.030711696 0.04769267
-0.008232862 0.11393501 0.023672745 -0.106303684 -0.105321415 -0.04300043 0.15314732 -0.11186022
-0.16202246 0.040734366 -0.10942072 -0.11198786 -0.10548842 0.16269203 -0.03521727 -0.15914088
0.06644973 0.17481302 0.13986616 -0.09071818 0.00082209706 0.08529498 0.13914232 -0.05280163
-0.02411659 -0.06791595 0.115939125 0.15362991 -0.11006885 0.13571613 0.08468257 -0.071596324
-0.04787211 0.102747545 0.09053044 -0.17181642 -0.00996016 -0.07683571 -0.03345132 0.17326082
0.10404627 0.06460105 0.033299297 0.048719272 0.14776976 0.13724916 -0.097422294 0.11140232
0.056375116 0.09035002 -0.14421088 0.08003767 0.12772618 0.11493017 0.14048155 -0.06375973
-0.09576417 0.15065978 0.06264475 0.033579677 -0.033769786 -0.0782727 0.0066536963 -0.15180779
-0.00888662 0.11570491 -0.06092205 -0.02772531 0.1358491 -0.027398467 -0.12818907 -0.09189322
0.16072069 0.15703236 0.10230748 -0.030872315 0.05311607 0.115470424 0.17157401 -0.14910254
0.11127134 -0.057375006 0.02572304 -0.13911456 -0.030511424 0.016930282 -0.1267298 0.092684284
-0.032039568 -0.005035028 -0.056724645 -0.032057166 0.05100788 -0.1291042 -0.08839404 -0.03965333
0.06983465 0.012591496 0.025497258 -0.0341793 -0.039789423 0.042843446 -0.054829173 0.08065818
0.017371789 -0.14398792 -0.09318067 -0.15513803 -0.03537774 0.0720709 0.03447254 0.051358923
-0.16626175 0.11665867 0.08133052 0.16406028 0.04353957 0.13963751 -0.032134563 0.0349084
-0.087527774 0.15011184 0.1448064 -0.033872604 0.14756306 0.018408567 0.1665213 -0.087637015
0.109138444 -0.030917108 0.03128895 0.09435554 0.07449736 0.050458223 -0.1735037 0.029770747
0.03796047 -0.091985956 0.1496592 -0.0127568245 0.009174064 -0.0024831295 0.04912685 0.1621707
0.047100067 -0.027986482 0.026695639 0.10777785 0.055796057 0.09053074 -0.09383568 -0.12849516
0.12395154 -0.056225814 0.13039233 -0.08442431 0.14927165 0.09342484 -0.06537602 0.050770536
0.1581391 -0.070371285 0.062105447 0.0042024404 -0.15635233 -0.15524226 0.062019274 -0.031915084

risk_head.0.bias f4 [15]
00000000: d55d 173e fc15 08be 4496 90bd 0185 223e
00000010: 223b 26be ecc4 f7bd 9a9a da3d e274 02be
00000020: b0c7 29be 89b1 24be e07e 0f3c 9e18 cebd
00000030: 8039 30bd 5871 01bd 0051 6bbb
0.14781888 -0.13289636 -0.07059911 0.1587105 -0.16233495 -0.12098107 0.10674019 -0.127399
-0.16580081 -0.1608335 0.008758277 -0.10063289 -0.043023586 -0.031602234 -0.0035906434
