BEST_UNIQUE_MODELS/PRODUCTION/05_SIGNAL_AGGREGATION/ONNX Signal Aggregator.onnx (onnx, 296885 bytes, 22 tensors)

causal.conv.weight f4 [64, 20, 3]
00000000: ee47 48bd 9742 9d3d bf97 d7bd 9680 4ebb
00000010: 13f4 913d 16ec 9a3d beb6 c33c 8e97 db3d
00000020: 3da8 9d3d 8586 a8bd 6b7b 843c f188 9ebb
00000030: 6b78 2fbd 3eea 793d d53e b1bd b6a2 e33d
00000040: 5276 4d3d 3dd1 e03d 8959 98bd 26c2 f8bd
00000050: f6a4 15bd 82bc 7bbd a719 b8bd f497 bf3c
00000060: 9761 9e3d 0b81 323d c433 c5bd 3642 db3d
00000070: 2673 debd f374 1b3d 3f6b 213d 91d9 9f3d
00000080: 1328 8ebd 4f9d bc3d f1cc 00bd 978a 75bc
00000090: f590 a1bd b144 03be 0233 e4bb a5d6 92bd
000000a0: 0e93 573d 2bee fb3d 5a97 b0bd 2b57 bb3b
000000b0: 6065 e3bd 76c5 e9bb be73 6abd ea39 80bd
000000c0: 769f 403c c89d f83d 5ab7 b4bd 377b 9dbd
000000d0: f9ab b73d 61a4 033d 9fa0 293d 52f7 55bd
000000e0: e746 f4bd bad5 e3bc 3274 e83d 2815 953d
000000f0: 2e80 78bc 2b4a 83bb ef8c a73d 5391 9c3c
00000100: 2f27 a4bc 896f cc3d 2ec0 ea3d 3aab 013e
00000110: c2b9 843d 9254 653d 0ded 00be 1626 06be
00000120: 713c 9bbd 0b04 1d3d 82bc e53c 54ce eb3d
00000130: 5f66 a9bd ee2f fb3d c9bb e6bd 03ae a8bc
00000140: b579 843d cb0e a13d d3d4 973d 627d 943d
00000150: f455 e43d 3bee 2a3c 9d11 13bc c2b5 d4bd
00000160: 8b18 8d3c 7f7c 8a3d 626e 013e 2cc2 e73d
00000170: 103d 78bd 7ad1 513d d755 24bd 142c 493d
00000180: 8e50 dd3c 7f8e b73d 0b18 acbd 1831 b9bd
00000190: 42bf cbbc 2e85 e93c aec2 7bbc 2baf 863d
000001a0: 5af0 74bd 81ac 90bd 5244 413d 00df e63d
000001b0: a4a0 ec3d df08 0c3d 076e d83d ee36 df3c
000001c0: 0b1c c0bd 7a9c cdbd 7236 e0bc d0c7 fa3d
000001d0: e623 b1ba e115 993d a3d5 92bd e7d3 cfbb
000001e0: fcb2 c0bd 11ce 8fbd a8a4 343d 6c99 eabd
000001f0: 5878 6bbd 5dbc cbbd be2b da3d 5fc0 81bd
00000200: d501 803d 7b7c 9ebd d394 19bd 5230 27bd
00000210: baa9 633d 115d cdbd 4e27 5c3d 6e1b cf3c
00000220: ae3d 41bc 0aed 363d 3671 5bbd 01ed 1ebd
00000230: d961 9abd 6b45 8e3c 9d31 b7bd 45df c03d
00000240: 16c3 53bb d3d9 84bc 4a04 54bd 3764 9dbc
00000250: 47cd 0b3d 331e 273d 6bb1 923c 2e5a f73d
00000260: 3ebb 47bd 7a47 76bd 57cb f5bd 1f11 873d
00000270: 61a8 3dbd 73b4 be3c 3b58 83bd 4675 c9bd
00000280: 4a27 e4bc 7c41 b9bb 62eb 573d 961d 54bb
00000290: dfcc 20bc 66a6 403d d617 c5bc 4c14 873c
000002a0: 3e34 433d d890 c1bd 91b5 e8bd 9433 d9bd
000002b0: 0202 7f3d 9253 f6bb 357f 35bd 7969 e7bd
000002c0: d71b e03d 7346 9bbd f8ee e7bd 2f7a d8bd
000002d0: beac e33d 923b e93d ad71 c03d 47fd 0a3d
000002e0: 3b70 d5bd 474f 03bb 6b91 92bb b4bb f93d
000002f0: 8a05 00bd b21e e4bd 82d8 82bd e538 0e3d
00000300: 1310 813c 087b c13d c301 ee3c f583 d6bd
00000310: 07b0 02be 3d37 32bd e04d fbbd 4f42 0cbd
00000320: 7261 993d e3c2 833d d0b8 d9bd 39a3 7d3c
00000330: 3c4d d2bd 924a 443d c0ff 273d 9306 b73c
00000340: 96fc dcba 2251 6c3d 1bfc 33bc b10d ae3d
00000350: fb31 c4bc 3ff7 903d 5526 37bd a645 503d
00000360: f62a cbbd 9b99 bc3d 38d7 803d 47e6 eebd
00000370: 81b1 813d 03bf b2bd c006 d13d a3c9 893c
00000380: 04dd 943d 46e5 c8bc e9b8 f1bd d2eb 5e3d
00000390: 6abd cfbd e7a7 0dbd a003 debd b347 9b3c
000003a0: 0300 06bd 5e64 df3d 9a40 b3bd da5c d5bd
000003b0: 7d46 3dbc fa95 d93d 83a5 a5bc 8afc aabd
000003c0: 2e62 cabc 4d3e 88bd dc22 353d 6ae7 c83d
000003d0: ab4b e5bd 0664 02be 220b 583d 689c d73d
000003e0: 4582 d2bd afd3 07bd ab1b 95bd b23f bd3d
000003f0: f8f9 b2bd 87b2 00bd b39f a9bd 5357 f0bd
-0.048896722 0.07678717 -0.1052699 -0.0031509749 0.071266316 0.07564561 0.02389085 0.10722266
0.076981045 -0.082287826 0.016172132 -0.004838102 -0.04283945 0.061014406 -0.086545624 0.11115019
0.050161667 0.10977409 -0.074389525 -0.12146406 -0.036534272 -0.061459072 -0.08989268 0.023387887
0.077334575 0.043580096 -0.09629014 0.10705988 -0.108618066 0.03795333 0.03940892 0.078051694
-0.06941237 0.09209692 -0.031445447 -0.014986656 -0.078889765 -0.12819172 -0.0069640884 -0.071698464
0.052630477 0.12301286 -0.08622618 0.0057171783 -0.1110332 -0.007134135 -0.057239287 -0.06261046
0.011756768 0.121394694 -0.08824034 -0.07689517 0.08968348 0.032139186 0.041412946 -0.052237816
-0.11927586 -0.027811874 0.113502875 0.07279426 -0.015167279 -0.0040066442 0.08181178 0.019112265
-0.020038215 0.09982211 0.114624366 0.12662974 0.06480743 0.055988856 -0.12590428 -0.13100466
-0.07579888 0.038333934 0.02804399 0.11513963 -0.08271479 0.12265001 -0.11266286 -0.020590788
0.06468526 0.0786415 0.0741364 0.072504774 0.11149207 0.010432775 -0.008976367 -0.1038623
0.017223617 0.06762027 0.12639764 0.11316332 -0.06060511 0.051225163 -0.040120926 0.0491143
0.02701595 0.08962726 -0.08403023 -0.09042567 -0.024871472 0.028505888 -0.0153662395 0.065763794
-0.05979953 -0.070641525 0.047184296 0.112730026 0.11554077 0.034188148 0.10567861 0.027247872
-0.09380349 -0.10039611 -0.027369712 0.122451425 -0.0013514727 0.07474876 -0.07169654 -0.0063423994
-0.094091386 -0.07021726 0.04410234 -0.11455044 -0.057487816 -0.09948037 0.106528744 -0.0633552
0.062503494 -0.077385865 -0.037495445 -0.040817566 0.055581786 -0.10027517 0.05374842 0.025281634
-0.011794491 0.04465965 -0.053574763 -0.038800243 -0.07538194 0.017367085 -0.0894501 0.09417585
-0.0032312325 -0.016217148 -0.051761903 -0.019212825 0.034131315 0.040800285 0.017906865 0.12077747
-0.048762552 -0.06012676 -0.120016746 0.065950625 -0.046303157 0.023279404 -0.06413313 -0.09836821
-0.027850766 -0.0056535583 0.052714713 -0.0032366267 -0.00981447 0.04703369 -0.024059217 0.01648917
0.047657244 -0.09451455 -0.11362756 -0.10605541 0.062257774 -0.0075172866 -0.044310767 -0.11299414
0.1094281 -0.075817965 -0.113248765 -0.1057018 0.11116932 0.11388315 0.09396682 0.03393295
-0.10421797 -0.0020036267 -0.0044729016 0.12194005 -0.031255282 -0.11138667 -0.06388952 0.034722228
0.015754735 0.094472945 0.029053574 -0.104743876 -0.12762462 -0.04350971 -0.12270713 -0.034242924
0.07489289 0.06433656 -0.10630953 0.01548081 -0.102686375 0.04792268 0.041015387 0.022342002
-0.0016859944 0.05769456 -0.0109854 0.08498705 -0.023949614 0.070784084 -0.04471429 0.050847672
-0.099203035 0.092089854 0.0629105 -0.11665016 0.06332684 -0.08727839 0.102063656 0.01681978
0.07268718 -0.024523389 -0.11802847 0.054424115 -0.1014355 -0.034583952 -0.10840535 0.018955087
-0.032714855 0.109078154 -0.08752556 -0.10418101 -0.01155245 0.10624309 -0.020220524 -0.08348949
-0.024705019 -0.06652508 0.044222698 0.09809764 -0.11196073 -0.12733468 0.052744992 0.10527879
-0.10278753 -0.03316086 -0.07280668 0.092406645 -0.08739084 -0.031420257 -0.08282413 -0.11735406

causal.conv.bias f4 [64]
00000000: a8d0 0fbd ecea 323d 8a1f 01be efee 073e
00000010: 897b ce3d 4ae4 843d f569 d73c a982 973d
00000020: 797c 0cbe 1f2a 203d 0eb9 c1bd a39b 87bc
00000030: a21c bb39 5e63 dcbd b6b9 8c3d e56d e23d
00000040: 0ffc e1bd 6962 d0bd 6624 c8bd 0180 7dbd
00000050: 3b46 a4bd 77c8 8f3d 7e09 883d 9f06 bc3d
00000060: e423 db3d 2747 5ebd 802d 7e3b 6f4a ecbd
00000070: 58c8 37bd e186 00be 138f 063e daf9 8e3d
00000080: a031 be3d ba4f 783d e59b ecbd df15 193d
00000090: 3fab 903d 7eb4 bc3d 58e3 f1bd 3b43 e73d
000000a0: 9cb8 e4bd 47f7 c3bd 7b96 b5bd 2e72 14bd
000000b0: 361e 113e b42e d93d e9d7 933d 8669 b83d
000000c0: 8da0 f33c 7ff1 6c3d ee75 73bd 7bb9 ff3d
000000d0: 7b6c 043c 4e11 38bd 8c2d 6f3d bd9a 3d3d
000000e0: 55fc 193d 9afc 193c b234 40bd 9b6e 963d
000000f0: f634 96ba 4909 5a3d c078 8fbd f44b db3d
-0.0351111 0.04368107 -0.12609687 0.1327474 0.10082156 0.06488855 0.026295641 0.07397968
-0.13719358 0.03910267 -0.094591245 -0.016553706 0.00035688753 -0.1076114 0.06871359 0.11056117
-0.110344045 -0.1017502 -0.097725675 -0.061889652 -0.08021208 0.070206575 0.066424355 0.091809504
0.10700205 -0.054267075 0.0038784444 -0.115376346 -0.044868797 -0.12551452 0.13140516 0.06981249
0.09286809 0.06062291 -0.11553172 0.037374374 0.070639126 0.09214114 -0.118109405 0.1129212
-0.11168024 -0.09568649 -0.088665925 -0.036241703 0.14171681 0.10604611 0.07218916 0.09004502
0.029739643 0.057847496 -0.05943864 0.124865495 0.008082504 -0.044938378 0.058393046 0.046290148
0.03759416 0.009398604 -0.046925254 0.07345315 -0.0011459875 0.05323151 -0.07005453 0.10707846

se.se.2.weight f4 [16, 64]
00000000: b6c3 ef3d b0c2 e0bc a85c d03c 81e1 b0bd
00000010: f606 77bd 9433 283c 79ed 46bc fb95 9dbd
00000020: 4f50 e93d 8b00 9ebb 48e2 7abc ec5c 663d
00000030: 6817 72bd 7874 983d 04e3 e6bd 8f89 e5bd
00000040: 886d d03d b691 a83d 3413 bebd dfc9 c53d
00000050: 4a38 b7bd ec2a c1bd 5508 6a3d a1a4 5cbd
00000060: 1d35 223d 03e5 b1bc fbee f83d 043e c0bd
00000070: 334c 103d 9f0a 0e3d 604e ae3c 00ce 12bd
00000080: 90a2 a5bc a8eb d43d e50c 9dbd 3462 f13c
00000090: 3268 243c d191 d9bd c81e c4bd 517a 913d
000000a0: 3902 c93d 00bc 193d 9698 2b3c 66d0 ddbc
000000b0: d58b 2abb e61a c8bd 511d b03c 6b45 0d3e
000000c0: 853a cbbd 9b61 86bc f9f4 77bd 9cb2 c5bd
000000d0: 88ae 21bd 7da9 fdb8 3b2b 6e3d 9227 d53c
000000e0: 74dd af3c a3f2 aabd 2400 833d 55a3 df3d
000000f0: 536b b5bd b4df ac3d 8371 3bbd 74a0 9bbd
00000100: f9c1 fd3b b0f1 85bd 2f1e 863c 330d 73bd
00000110: f3ba 9f3d 8237 e9bd c62d dcbd 1c9f c8bc
00000120: 5abc 8c3d 2118 abbd e5ae 0ebe 0c9c afbd
00000130: 6ffa 1dbd caf1 bb3d 00e8 b33d 7422 d7bd
00000140: 4763 923d d25c 10bc 787a 3bbd 8a44 8abd
00000150: eec5 db3d 66e3 74ba 50e5 c23d dd48 a03d
00000160: 1ac9 c5bd dfdf 4abd 1a3c 903d 0f83 dabd
00000170: 3f00 a8bd 34ec 933d 76e8 78bd 2d52 963d
00000180: 70af fa3d f2ca a5bd 30a7 e63d 7964 743c
00000190: 476a 093d ce03 753c b8be 053d 314a 93bd
000001a0: 68ca 893d 4d53 dabd 0640 bdba c264 183b
000001b0: 050f 17bc 1d3c c33c e80c da3d 015e fb3c
000001c0: 01b3 e23d b55b 2bbd 19ec 5d3d d603 b93d
000001d0: 24cb 2aba 1527 57bd c562 b63c df9e afbc
000001e0: 6ecf a6bd 976b cf3d 144f b1bd 6b22 73bd
000001f0: bb23 06be 7253 b23d 5d92 883d 7556 f23c
00000200: 1cb5 93bc 18ed d9bc 2380 e8bd c554 50bd
00000210: b628 c4bc 71f8 d0bd dcb5 33bd 0ec1 303d
00000220: 50a6 913d 01d3 c03d 1a82 e73c 39f0 4a3c
00000230: a9f4 58bd 1bc3 3dbd e4bf 07be fece c03c
00000240: 071d 67bd d2c5 55bd c333 e6bd b8e5 c1bd
00000250: 67d9 90bd 481e 2cbd 3225 493d aa83 ba3d
00000260: e77b 30bc b825 eebd 22b9 d8bd 068d f13b
00000270: 96b9 a7bd 87fe 5abd c185 02bd 4229 163d
00000280: 3fa5 e03d 42cb 9a3d 03fc f83d e600 2c3d
00000290: d46e ef3d 316a 963d 14ac 8fbd ed88 8d3d
000002a0: fd77 2d3d 7250 8b3d be6a 9bbd eb5d 443d
000002b0: 9b23 89bd 2ce7 2c3d abdd d93a 563b cc3d
000002c0: ab82 bfbd b001 ad3d 1cbd 9abd b58b 10bd
000002d0: 24a9 193d 9595 dbbb 4bc4 b53d 012e 143c
000002e0: 63ca 963d 3e67 efbb 406f a8bd efd2 413c
000002f0: 75ec 7abd 67ed 90bd 8f2c 4dbd 32a1 533d
00000300: 2483 cbbc c09c 80bd 716a fd3d 2297 97bd
00000310: a80b d23d cb47 4d3d 84e7 f9bd 1930 dfbd
00000320: 3144 1a3c 7028 333d 43df d7bd 53cb b53c
00000330: 74ba abb8 b40a 6fbd d933 f8bd e30a 403c
00000340: 44cf a6bd 3a7b 9c3c 83f1 cd3d caa6 acbd
00000350: 2aa9 643b 8db6 4bbd c76b f43d cb13 72bc
00000360: 25ec df3d 2db7 7f3d 20c1 69bd 4827 e33d
00000370: a59c 683d bbf5 c23d 5c24 93bd 97ad 003d
00000380: 8d3b b33d 34b0 a43d 0e48 cebd d3c6 9dbd
00000390: 91f7 febd dad0 34bd 7675 983c 85e8 e13d
000003a0: b9d3 19bc 2d27 14bd 2fb2 be3d d77b 5c3d
000003b0: aebe c33d 5894 28bd eb5b 923d a950 e23d
000003c0: 689f 1ebd b26c 063c a071 a53d bae1 033d
000003d0: 54c4 debb 18a9 7f3b 0376 9abd a158 da3d
000003e0: b2b4 47bc 4d55 b2bd dcd0 62bd 99fb e23c
000003f0: 78cf a33d bc17 7fbd 101c fbbd 06f0 963d
0.11707251 -0.027436584 0.025434807 -0.086367615 -0.060309373 0.010266203 -0.012141579 -0.07694622
0.11392271 -0.004821842 -0.015312739 0.05624096 -0.059104353 0.0744409 -0.112737685 -0.11207878
0.101771414 0.08230917 -0.092810065 0.096576445 -0.08946283 -0.09432015 0.057136852 -0.05386794
0.039601434 -0.021715647 0.12154957 -0.093868285 0.03522892 0.034678098 0.021277606 -0.03584099
-0.020219117 0.1039651 -0.07668475 0.029465772 0.010034608 -0.106235154 -0.095761836 0.07103408
0.09814877 0.037532806 0.010473391 -0.027076911 -0.0026023288 -0.097707555 0.021498354 0.13796012
-0.09923271 -0.016403964 -0.06053636 -0.09653208 -0.039473087 -0.0001209555 0.058146697 0.026019845
0.021467902 -0.083470605 0.06396511 0.10919825 -0.08858361 0.084411055 -0.04576255 -0.075989634
0.0077440706 -0.06540239 0.016371815 -0.05933876 0.077993296 -0.113875404 -0.10750918 -0.024489932
0.06871863 -0.083542116 -0.13933904 -0.085746855 -0.03856891 0.09176977 0.08784485 -0.10504618
0.07147842 -0.008811193 -0.045771092 -0.06751354 0.107311115 -0.00093417463 0.09516394 0.078263976
-0.09657498 -0.049529906 0.070427135 -0.10669529 -0.08203172 0.072227865 -0.060768567 0.073398925
0.12240493 -0.08095349 0.11262357 0.014916533 0.03354862 0.01495452 0.032652587 -0.07191885
0.06728059 -0.106604196 -0.0014438636 0.0023253416 -0.0092198895 0.023832375 0.10646993 0.030684473
0.110692985 -0.041835506 0.05418024 0.09033935 -0.00065152557 -0.052527506 0.022263894 -0.02143806
-0.08145033 0.10127943 -0.08657661 -0.059358995 -0.13099568 0.08707322 0.066685416 0.029582242
-0.018030696 -0.026602313 -0.11352565 -0.050862093 -0.023945194 -0.102036364 -0.043874606 0.04315286
0.071118 0.09415246 0.02826028 0.012386375 -0.0529677 -0.046328645 -0.13256794 0.023536202
-0.056424167 -0.05219061 -0.112403415 -0.094676435 -0.07072716 -0.042021066 0.049107738 0.09107144
-0.010771728 -0.11628288 -0.10582186 0.0073715476 -0.081896946 -0.053465392 -0.03186584 0.03666044
0.10969018 0.075582996 0.121574424 0.041993044 0.11691061 0.07344473 -0.07015243 0.06910882
0.042350758 0.06802453 -0.07588719 0.04794113 -0.06696244 0.04221265 0.0016621848 0.09972255
-0.09351095 0.084475875 -0.07555601 -0.035289485 0.03751482 -0.006701181 0.088753305 0.009044171
0.07362821 -0.0073060086 -0.08224344 0.011830076 -0.06126066 -0.07076531 -0.050091323 0.0516674
-0.024842806 -0.06279898 0.12373818 -0.07401873 0.102561295 0.050117295 -0.12202361 -0.10897846
0.009415672 0.043739736 -0.10540631 0.02219168 -8.188645e-05 -0.058359817 -0.12119264 0.011721346
-0.081450015 0.019101728 0.1005583 -0.0843025 0.0034890869 -0.04973464 0.119346194 -0.014775227
0.10933713 0.06243055 -0.057068944 0.11091477 0.056790013 0.095195256 -0.071846694 0.03141555
0.08751593 0.080414206 -0.10072337 -0.07703938 -0.12449563 -0.04414449 0.018610697 0.11030678
-0.0093888575 -0.036170173 0.093113296 0.05382904 0.09557854 -0.041157097 0.07146438 0.11050541
-0.03872624 0.008204626 0.08078313 0.03219769 -0.0067983065 0.00390107 -0.0754204 0.10661436
-0.012189077 -0.08707676 -0.055374965 0.027707862 0.07998556 -0.062278494 -0.12261212 0.073699996

se.se.2.bias f4 [16]
00000000: 82ac ae3d e281 89bc 1578 9ebc f0e5 d33d
00000010: 995d fd3d bf4a 393d f3b1 4abd 3647 cdbc
00000020: 4414 383c 7bd8 9e3d a786 e63c 3a54 dd3d
00000030: 41cb acbc c96e b73d 6d95 8e3d 343b 80bd
0.08528997 -0.016785566 -0.019344369 0.103465915 0.12371368 0.0452373 -0.04948611 -0.02505837
0.0112353 0.07756134 0.02814038 0.108070806 -0.021093013 0.089566775 0.069620945 -0.06261292

se.se.4.weight f4 [64, 16]
00000000: 614f 16be 34a1 0cbe ddf6 8dbd b3e9 623e
00000010: 1dc9 03be 544b 0cbe c05f 36bd 4765 fc3c
00000020: 32a9 233d eccd c63d 7385 7bbe 482d 4dbd
00000030: 97a3 833d bf2f cfbd b8b9 473e 2b17 8c3d
00000040: 458a 323e 835c 273e efb4 b1bc 8884 923d
00000050: 800b 98bd b594 1d3e ce6b 6c3e d63e 3abe
00000060: d28c 95bb 2e0b 8ebc 5362 523e 8689 53be
00000070: 5616 cb3d e33e 7e3d 3599 a93d 3a7b e63d
00000080: ae6b 913d f32d a93c dae9 bd3d 0aa4 2d3e
00000090: 79da f13d b078 373e cbef 753e 1da3 0bbe
000000a0: a0bc 923d f209 483e 3775 5ebe dd78 5dbe
000000b0: dcd3 96bd ab62 503e 378e 1f3e 952a 0bbe
000000c0: d791 1dbd e306 15be ec2d 6d3e 2d5b 83bc
000000d0: f6e2 4c3e 0d30 a3bd ef22 4abd 23f5 17be
000000e0: 8546 00be 6ea2 d83d 56d7 453e 9f23 1a3e
000000f0: 0604 6cbd 0ac0 0dbc c012 e9bd 8ff9 c63d
00000100: 28f8 55be 2e29 4fbe 4c01 b8bd b514 d4bd
00000110: a5e6 d1bd ebc4 1b3e dcf7 09bd 3a8a 77be
00000120: 763d 5abe 0bb0 e93d d103 32be 0dbd d43d
00000130: 6249 25be 4a08 3fbe bb8f 923d 1fe8 34bc
00000140: d48a 58be 9205 87bd 5609 65bd 7549 e93d
00000150: ac8c e5bd 2a40 6c3d 13ac 4d3e f8a8 6e3a
00000160: 17f1 523e 8703 febb 96b4 663e 444a 693e
00000170: b723 fdba a99b 513e 258b 18bd 8722 c4bd
00000180: 3266 4e3e a201 253e 1806 563e 45c7 49be
00000190: 8267 8fbd 85f8 1e3e 0359 38be bed4 653e
000001a0: e587 603d 91eb e43d ae0a 423d 6fed 01be
000001b0: f220 80bc e7f1 113e 0782 3d3d 983c 6c3e
000001c0: 449c 043e 67f6 81bd f4d7 e4bd d594 753e
000001d0: ad5f 29be 1970 12be d7f0 fb3d 2793 4dbe
000001e0: fa24 ad3c ec28 82bb 8aa9 0bbe 0b39 19bc
000001f0: 7afb 27be 0a88 c13c 1344 2cbe cd31 0ebe
00000200: 743a 87bc 3182 093e 74f4 94bd 0cfc 3d3e
00000210: 434d e4bd aa80 083d 9647 8cbd 4d05 6a3e
00000220: ebeb 96bd d658 623e 723f 4dbe 0f67 603d
00000230: 90c0 debd 3238 923b 6810 3dbb 316b f03d
00000240: b276 5dbe 1fec 28bd 0510 5ebe 34a9 22bd
00000250: 317a 7b3c 6b4a 143e c491 323e f231 c7bd
00000260: a46a 0a3e 06ed 693e 2ea9 84bd 9f66 78bc
00000270: a29d 623d e1e0 fabd 7b16 78be bfe8 12be
00000280: 7cab 0e3d 2952 43bc c49e 3ebe d327 7b3e
00000290: 1208 023e a92e 14bc bc94 34be 584b b7bd
000002a0: 14b8 c3bd c23a 4c3e 5aa7 9cbd 13c2 403e
000002b0: dc95 6d3e 7c5c 19bd da5c 5ebe fcf0 8abd
000002c0: 0a6c 9a3d c5cd 30be 9394 ea3c c4d3 a3bd
000002d0: 58eb 443e 2ab7 2f3d b053 323e c8b7 503e
000002e0: cf29 40bd 50a9 ed3d 7758 3c3d a9c3 ac3d
000002f0: 4b59 0d3e eb5d 89bd 25a0 1ebe e6e1 1cbd
00000300: 413b 2ebc b219 5abe 0348 d13d 3076 043e
00000310: ac6b 32be 7e0d 66bd ef73 b63d 68b3 e83d
00000320: ffab 743d e6f1 72be 1e6a 583b f0c6 39be
00000330: faa9 5fbe 8505 cc3d bb96 46b9 9712 1f3d
00000340: dea5 053d a403 f33d 2e08 86bd d13a 543d
00000350: 89b0 0b3e e681 95bd 1ae6 e43c ddcb 8abd
00000360: c962 013e 19ad 3ebe 984b 61bd 68be 7ebe
00000370: fd97 1fbe f93b 28be 2338 7c3e 4dce fabc
00000380: 62d6 6b3d f729 69be 0e99 623d 4470 dd3d
00000390: 0a9a fe3d ba70 5fbe 89b4 0c3e 8cbb 813d
000003a0: 6bfc b83d f601 763d 9595 c13d 61b9 513d
000003b0: 307a 1bbe 34dd 10bc b5aa 05be f899 373e
000003c0: da9e 723e b73c 96bc c580 d3bc 2592 a53d
000003d0: f584 30be ef00 073e 5ff1 0a3e 2fcd 403d
000003e0: c9b7 393e 644a 08be 24d6 0bbe 6b34 62be
000003f0: c535 403e 2e5b 0dbe a260 f73d 6f87 8d3d
-0.14678718 -0.13733369 -0.06931851 0.22159462 -0.12869687 -0.1370061 -0.044524908 0.030810012
0.03995628 0.09707245 -0.24562626 -0.05009201 0.06427687 -0.10116529 0.1950444 0.068403564
0.17435558 0.16343884 -0.021692721 0.071541846 -0.074240685 0.15388758 0.23087999 -0.18188033
-0.004563906 -0.017339315 0.2054532 -0.2065793 0.099163696 0.062071692 0.08281175 0.11253972
0.071006164 0.020651793 0.09273119 0.16957107 0.118092485 0.17917132 0.24017255 -0.13636442
0.071648836 0.19535044 -0.21724401 -0.21628137 -0.07364628 0.20350139 0.15581594 -0.13590463
-0.03846916 -0.14553408 0.23162049 -0.016034687 0.20008454 -0.07968149 -0.04934972 -0.14839606
-0.12526901 0.10577856 0.19320425 0.15052651 -0.057621025 -0.008651743 -0.113805294 0.09715568
-0.20895445 -0.20230553 -0.08984622 -0.10355512 -0.1024907 0.15211837 -0.033683643 -0.24173823
-0.21312508 0.11410531 -0.17384268 0.10387621 -0.16141275 -0.18655506 0.07156321 -0.01104167
-0.21146709 -0.06592859 -0.055917107 0.11390964 -0.11208472 0.05767838 0.20085172 0.0009104158
0.20599781 -0.0077518853 0.22529826 0.22782236 -0.0019313012 0.20469536 -0.037242074 -0.09576898
0.20156172 0.16113904 0.20900762 -0.19704922 -0.070021644 0.1552449 -0.18002705 0.22444436
0.0548171 0.11177743 0.047373466 -0.1268823 -0.01564071 0.14252435 0.046266582 0.2306999
0.12950236 -0.06345826 -0.11174002 0.23982556 -0.16540404 -0.14300574 0.12301796 -0.20075665
0.021135796 -0.0039721634 -0.13638893 -0.009351979 -0.16404524 0.023624439 -0.16822843 -0.13886185
-0.016507365 0.1342857 -0.07273188 0.1855318 -0.11147549 0.03332583 -0.068495914 0.22853585
-0.073692165 0.221042 -0.20043734 0.054785784 -0.10876572 0.0044622654 -0.002884889 0.11739195
-0.2162731 -0.041240808 -0.21685798 -0.039712146 0.015348957 0.14481513 0.17438418 -0.09726323
0.13517243 0.22844324 -0.06477581 -0.0151611855 0.05532611 -0.122499235 -0.24227326 -0.14346598
0.03483151 -0.011921444 -0.18615252 0.2452691 0.12698391 -0.009044328 -0.17634863 -0.089499176
-0.095565945 0.1994429 -0.07649107 0.18824033 0.23201698 -0.037441716 -0.21715108 -0.06784245
0.07540138 -0.17265995 0.028635299 -0.079993755 0.19230402 0.04289929 0.17414737 0.20382607
-0.04691487 0.116045594 0.045982804 0.08435757 0.13803594 -0.067073666 -0.15490778 -0.03830137
-0.010634244 -0.21298864 0.10218813 0.1293571 -0.17423886 -0.05616521 0.08908831 0.11362344
0.05973434 -0.2372509 0.0033022235 -0.18142295 -0.21842185 0.0996199 -0.00018938903 0.038836088
0.032628886 0.11865929 -0.06544529 0.051813904 0.13641562 -0.07300167 0.027941752 -0.06777165
0.1263534 -0.18620719 -0.055003732 -0.24877322 -0.15585323 -0.16429128 0.2463079 -0.03061595
0.0575775 -0.22769915 0.055321746 0.108124286 0.12431724 -0.21820346 0.13740744 0.063346
0.0903252 0.060060464 0.09452359 0.05120218 -0.1518333 -0.008841801 -0.13053401 0.17929828
0.2369341 -0.018339498 -0.025818238 0.080845155 -0.17238219 0.1318395 0.13568638 0.04707068
0.18136515 -0.13309628 -0.13655907 -0.22090308 0.18770511 -0.13804314 0.12078978 0.069105975

se.se.4.bias f4 [64]
00000000: f97a 25be d26f 663e c469 4fbd 1086 3f3e
00000010: 6451 b4bb 4f2d 1c3e 4288 23be e495 d03c
00000020: 2070 c83c e895 b23d d78d 333e 440b e3bd
00000030: 68fa 683e 904b 183e e08c 413e 8fae e33d
00000040: cdd9 b53d 4086 af3d f249 343e 4882 4bbd
00000050: d8a2 2ebe 1129 a53d e410 703e 49ba bd3b
00000060: 2240 73be 5778 41be 0dd7 34be 0fa7 5cbe
00000070: 1ad1 4fbd 4f14 733e 2e3c 5c3e 2e16 ff3d
00000080: 5bed 1fbe eaf8 033e eef3 cdbc 28dd 1b3d
00000090: 7d74 713d a411 2a3e bfba d23c 2864 2bbe
000000a0: 85dd 363e 962b aa3d 8b11 c03d ec4d 5ebe
000000b0: f087 e13d f1f5 6bbd 44f5 48be 9035 2cbe
000000c0: 65c1 f6bd 667e f9bc c44b 733e 215e 82be
000000d0: e5de bdbd 67f5 ad3d 048f 7cbe 22c4 44be
000000e0: e567 be3d c762 87be d549 763e 3607 5cbe
000000f0: 4f42 2bbe 021d 453e 746f 3a3e 2bcb 6f3e
-0.16160192 0.22503594 -0.050637975 0.18703485 -0.0055028666 0.15251659 -0.15969947 0.025462098
0.024467528 0.087199986 0.17534576 -0.11086133 0.22751772 0.14872575 0.18901396 0.11117279
0.08879433 0.08570528 0.17606333 -0.049684793 -0.17054307 0.080644734 0.23443943 0.005790029
-0.23754933 -0.18893562 -0.1766016 -0.21548103 -0.050736524 0.23738216 0.21507332 0.12455402
-0.15617888 0.12887922 -0.025140729 0.038052708 0.058948983 0.16608292 0.025723813 -0.16737425
0.1785794 0.083090946 0.09378346 -0.21709412 0.11012256 -0.057607595 -0.19624811 -0.16817307
-0.12048606 -0.03045578 0.23759371 -0.2546244 -0.092710294 0.084940724 -0.24663931 -0.19215444
0.0929716 -0.2644255 0.24051602 -0.21487126 -0.16724513 0.19249347 0.18206578 0.23417346

gating.gate.0.weight f4 [2, 64]
00000000: 373f a3bc 79dd d7bd 1b57 b73d c88a 9cbd
00000010: ed37 a4bd 140e 393b 0fa3 05bd 96d2 6abd
00000020: ed23 8c3d b914 06bd 0755 e0bd 13c9 5f3d
00000030: bb84 673d 5aee 6abd 7462 94bc 639b e2bd
00000040: 7fb1 f93d 2f03 993d c138 cebc e53d cfbd
00000050: cde5 93bc f15f 41bd 4e6a dd3d 53e0 f03c
00000060: e7e0 98bd 8e10 ea3b 1bd6 a9bd fe68 b83d
00000070: 3c8a 513d 0159 f13b 244c dcbd 1995 a2bd
00000080: d5aa cc3d f1a9 b7bd 25da d1bd 0e66 eebd
00000090: 18ba 8ebd aee7 63ba 8084 73bd bc1b 35bd
000000a0: c512 5abc 6716 04bd f109 3bbd eb75 b43d
000000b0: b4ce 8c3d 6956 fe3d 2a3d ae3d 6ddf cb3d
000000c0: f4ee fbbd 7a80 89bd d3df 2ebd 7c87 dabd
000000d0: 6994 05bd 4b74 343d 7391 03be 8869 db3d
000000e0: 410e 04be 3c76 853c 6e2d c7bd 55a9 af3d
000000f0: b6fe a8bc 7cbb 0bbd e87e ba3d 4817 2cbd
00000100: 3bbd ccbc 8057 c0bd 9288 debc fc2b a03d
00000110: 51bb b73d 06bc 173d a6d5 863c 982a e73d
00000120: 191d 513d efd7 0e3d dca5 563d 4296 e9bb
00000130: a8eb d9bd 0fa7 9b3b 813b 09bd cce2 20bc
00000140: cd92 c1bd 6b9e 733c ef8a 7cbc f7c8 943d
00000150: 817c bc3c ed11 043d 0c51 a03d f8e8 923c
00000160: 4aa9 f63d f835 d1bd 26cf bebb 3b2f a5bc
00000170: b073 f1bd df6b 1cbd 8cd5 3f3d e991 bcbc
00000180: 31b4 353c 24f2 c3bc 1a60 693c bcfa 92bd
00000190: 89f5 4a3c f1ff 20bc 3c60 c3bd 8bc2 6cbd
000001a0: 8997 f83c c99c 823b 7a17 433d 9d14 83bd
000001b0: ba76 823d 4632 3cbb 7131 573d bff6 cbbc
000001c0: dd42 bfbd 558b af3d c852 803c 7ee2 e53d
000001d0: f800 80bd 2683 04bd cbcc 523d e186 233d
000001e0: 6b30 64bd 7f53 683c 8e15 3d3c 91fc 8abd
000001f0: 569a 0f3d 2407 b93c 72a4 f13d a2ac 7dbd
-0.019927604 -0.105402894 0.08952161 -0.07643658 -0.080184795 0.002823715 -0.032626208 -0.057329737
0.0684279 -0.032734606 -0.10953718 0.05463512 0.056523066 -0.057356216 -0.018113352 -0.11064794
0.12192058 0.0747131 -0.025173547 -0.10119227 -0.018053913 -0.047210637 0.10811292 0.029403841
-0.07464772 0.0071430868 -0.082927905 0.09004401 0.05115722 0.0073653464 -0.1075671 -0.07938594
0.09993521 -0.089679606 -0.10246686 -0.11640559 -0.06969088 -0.0008693886 -0.059452534 -0.044215903
-0.013310139 -0.032247927 -0.045663778 0.088115536 0.06875363 0.12418825 0.0850776 0.099547245
-0.12301436 -0.06713958 -0.042693924 -0.10670373 -0.032612238 0.044056218 -0.12848453 0.10713488
-0.12896062 0.01629173 -0.09725462 0.085772194 -0.020629268 -0.034114346 0.09106237 -0.04201439
-0.024992576 -0.09391689 -0.027164731 0.07820889 0.08971275 0.037044547 0.016459297 0.11287421
0.05105314 0.0348739 0.05240427 -0.007128508 -0.10640651 0.0047501395 -0.033504013 -0.009819698
-0.09451828 0.014869313 -0.015413984 0.072648935 0.023008587 0.032243658 0.078279585 0.017933354
0.12044008 -0.10215372 -0.005823034 -0.020164123 -0.11789644 -0.03818881 0.046834514 -0.023018794
0.011090324 -0.023919173 0.014244104 -0.0717673 0.012387642 -0.009826646 -0.095398396 -0.057802718
0.030345695 0.0039859754 0.04762981 -0.06400416 0.063703015 -0.0028716489 0.052537385 -0.024897931
-0.09338925 0.08571497 0.015664473 0.112248406 -0.06250185 -0.032351635 0.051464837 0.039923552
-0.055710237 0.014180063 0.011540784 -0.067864545 0.035059296 0.022586413 0.117989436 -0.061932214

gating.gate.0.bias f4 [2]
00000000: 320d b33d 50b9 043e
0.08742751 0.12961316

experts.0.net.0.weight f4 [128, 64]
00000000: 593c e9bd a3ab 6ebd 8460 c4bd 858b b4bd
00000010: 1c64 e73d bdce d0bd a392 76bd 13a5 233d
00000020: c040 c43c c078 913d 1218 7bbd 5ffd 8bbc
00000030: f008 7ebc 4eb8 56bb c93d 5d3c 7733 733c
00000040: 6787 be3c a4fd c5bd 8c07 8fbd 22ea 67bd
00000050: 7649 edbd 3bab c03d d845 903d 1e11 76bb
00000060: 0ada d4bd 2788 acbd 98c6 88bc c1d2 9bbd
00000070: 4b83 f3bc 2195 4e3c 2db1 aa3c baea c6bd
00000080: 8746 e83b 38ea b23c 1f11 b73c b2bc 80bd
00000090: ac1a 59bd b91c f5bd 6594 1bbd ab75 cdbd
000000a0: a310 2abd fbee abbd 7cc4 823c 7612 4a3c
000000b0: 7421 fcbc eb8b 3ebd 903e 0abc d9f6 62bc
000000c0: 0c54 043e dcbc cbbb 2313 a3bd 9581 c8bd
000000d0: 80d3 cabd 1275 fbbd 3ae9 893d 7d69 d1bd
000000e0: d2a4 df3c 4acb 653c 6737 08bc 72e2 9bbc
000000f0: 71f5 cebd cf5c 65bd 430a 753d 136a 553d
00000100: 2106 5e3d c2d2 f2bc d71c 8d3d a52b 1d3c
00000110: a472 a4bd 87fb 07be 4c53 09bd ac4c a43c
00000120: 7084 9ebc 06f6 db3d a319 bd3d 40f5 28bd
00000130: bb9a a33c ed62 b1bd b68d 5dbd fa1b 3f3d
00000140: 421d 8e3d 23f3 b93d 15e7 0c3d dc56 b03d
00000150: 3ee9 df3c 9049 c9bd 533b 1abb 1305 eb3d
00000160: 003e 863d a843 f1bd 9b42 69bd 0409 833d
00000170: 02b2 20bc dab8 323d 22c2 873d f083 98bd
00000180: f10c 63bd 63ee 35bc 8a5f 9fbd 3e6e db3d
00000190: 583b bc3d 9e56 4cbd d683 9b3d cc08 dfbb
000001a0: dad4 3f3c 3518 be3c e3f2 8b3d b072 c1bd
000001b0: dc05 c3bd ce36 73bd c847 c7bd 3cd4 da3d
000001c0: c877 c33d 2532 c9bd e05c a5bc 5c5c 553d
000001d0: 84c9 c3bd 7c55 fa3d 698a 34bd 467c f33c
000001e0: 3f5f 84bd 3651 843d 5aba 853c a539 3abd
000001f0: 2085 033d 77a0 5b3c f27b 45bd 17bd a73c
00000200: def4 803d a121 cf3d 4974 bd3d 2b8c 65bd
00000210: a12b eb3d 257a a43d f96b af3c 80c8 d83b
00000220: b7dc 88bc 7c1a ba3d b39e c5bd c457 e63d
00000230: 27cb 1ebd b265 cabd c4a8 6dbd 52ed b6bd
00000240: b65c 81bd e981 80bc 258d ae3d 6509 0ab9
00000250: 2886 97bd 8abf 7e3d ebd7 3dbd cb8d 9ebd
00000260: 9c71 bfbb 40be 013d f79d acbd cc16 943c
00000270: 145e dcba 54ee 663d d1a6 363d cb3e 513d
00000280: 231c d8ba f843 093e 72d9 b7bd c2d3 8a3b
00000290: 080d 11bd a5e7 ba3d 83a0 bbbd 1669 d3bd
000002a0: fd00 7abd db91 aebd 94ca afbd 5d2b aa3d
000002b0: 74c7 063d 462b b3bb 1817 d33d afb4 ed3c
000002c0: b721 833d b61f 5bbd 08f9 d83c eca9 b13c
000002d0: b412 b83d e899 3d3d d593 cebd 23a9 fdbd
000002e0: c19e d13d d36a acbd eab0 7c3d efac cbbd
000002f0: f584 b7bd b73e 15bd edd6 a4bb 1d71 9cbb
00000300: 25f6 dabc 1493 17bd bc1f 87bd 6f31 fd3d
00000310: ae42 023e e054 983d b719 d63d 471e 7e36
00000320: a3d3 ae3c b7fb 60bc a944 72bc 2e23 083d
00000330: 8139 83bd cb7e ad3d c6b8 d4bb f715 6c3d
00000340: a1bb 29bd f45f 5cbd 154c 81bb af3a c73d
00000350: 536c dd3d b38d b53d 19b5 aebd 47bc 02bc
00000360: 9b20 db3b c283 40bd d415 3d3d c3a7 b7bd
00000370: 7b5f d73d 8a56 aa3d 09ac eb3d eee1 a93d
00000380: 9f35 353d 87c1 9c3d ce78 9e3c b0ce 263d
00000390: 4d54 b93d b174 483d 7a4c c7bd 3cc4 523d
000003a0: 855b 2d3d 04c2 b03d e2ac aabd 104c 04be
000003b0: b139 a93d fd35 873d 90d1 b63d 93f9 89bd
000003c0: 2f47 d6bd 5457 1b3d 86f5 643d 477b 223d
000003d0: 56fb 373a 874c 9b3c 5240 04bb 6191 90bb
000003e0: d275 ae3d 0eca fdbc 1e13 a3bd 254d adbc
000003f0: d71b c73d c8c9 4bbd 96fc ea3d ba13 f53d
-0.113884635 -0.058269154 -0.095887214 -0.08815674 0.11298391 -0.10195682 -0.060198437 0.03995235
0.023956656 0.07103109 -0.061302252 -0.01708859 -0.015505061 -0.0032763663 0.0135035 0.014843813
0.023257924 -0.09667519 -0.06983861 -0.05661977 -0.11586277 0.094076596 0.07044572 -0.0037546824
-0.1039315 -0.084244065 -0.01669626 -0.076085575 -0.029725691 0.012608797 0.020836437 -0.09712739
0.0070884856 0.0218402 0.022347031 -0.06285991 -0.053003952 -0.11968369 -0.037983317 -0.10032209
-0.041519772 -0.08395191 0.015962832 0.012333503 -0.03077767 -0.046520155 -0.008437768 -0.013852798
0.12922686 -0.006217582 -0.079626344 -0.09790341 -0.09903622 -0.12278189 0.067339376 -0.102251984
0.027300272 0.014025519 -0.00831399 -0.019028876 -0.10105408 -0.055996712 0.05982424 0.052103113
0.054205064 -0.029641513 0.068902664 0.009592925 -0.080296785 -0.13279544 -0.033526704 0.020056091
-0.01935026 0.107402846 0.092334054 -0.041249514 0.019971242 -0.08661447 -0.054090224 0.04665754
0.06939174 0.09079578 0.034400064 0.08610317 0.027332898 -0.09828484 -0.0023533895 0.11475577
0.06554794 -0.117804825 -0.056948286 0.06398204 -0.009808065 0.04363332 0.06628825 -0.0744704
-0.055432264 -0.011104199 -0.077818945 0.107143864 0.091910064 -0.049887292 0.07593505 -0.0068064686
0.011708463 0.023204902 0.06833436 -0.09445703 -0.09522602 -0.059378438 -0.09730488 0.10685012
0.09544331 -0.098240174 -0.020185888 0.052090034 -0.095599204 0.12223336 -0.04407731 0.029722344
-0.06463479 0.06460802 0.01632421 -0.04546513 0.03210938 0.013404957 -0.048213907 0.020475907
0.06296705 0.10113836 0.09250695 -0.056041878 0.11482931 0.0803111 0.02141379 0.0066156983
-0.016706808 0.09087083 -0.0964941 0.11247209 -0.03876796 -0.09882678 -0.058022276 -0.08931984
-0.06316511 -0.015686946 0.08523015 -0.00013164205 -0.07398635 0.062194385 -0.046348494 -0.077418886
-0.0058424007 0.031675577 -0.08428567 0.018077277 -0.0016812705 0.05637963 0.044592682 0.051085275
-0.0016487878 0.13404834 -0.08977021 0.0042366693 -0.03541282 0.09126214 -0.091614746 -0.10322778
-0.0610361 -0.085239135 -0.085835606 0.08309052 0.032905057 -0.005467805 0.10307139 0.02901682
0.06402915 -0.05349704 0.026485935 0.02168747 0.08987942 0.046289355 -0.100867905 -0.12385776
0.10235358 -0.084188126 0.061692156 -0.09945094 -0.089609064 -0.036436763 -0.005030504 -0.0047742263
-0.026728699 -0.0370055 -0.0659785 0.12362944 0.12720749 0.074380636 0.104541235 3.7866573e-06
0.02134115 -0.0137318885 -0.014786878 0.033236675 -0.064074524 0.084714495 -0.0064917533 0.057638135
-0.041438702 -0.053802446 -0.0039458373 0.0972799 0.10811677 0.088649176 -0.085306354 -0.007979459
0.0066872365 -0.047000654 0.046163395 -0.08967545 0.10516258 0.08317287 0.115074225 0.08295046
0.04424059 0.076541 0.019344714 0.040724456 0.09049282 0.04893941 -0.097313836 0.051456675
0.042323608 0.086307555 -0.08333756 -0.1291964 0.08262957 0.06602094 0.089266896 -0.06737056
-0.10462796 0.03792508 0.055898212 0.039668348 0.0007018348 0.01895739 -0.002017994 -0.0044118618
0.08518566 -0.030980136 -0.07962631 -0.02115495 0.09722107 -0.04975298 0.11473958 0.11966653

experts.0.net.0.bias f4 [128]
00000000: a717 3cbc 562c b5bd a069 eb3b 177e b43d
00000010: 9c0c b53b 8276 093a 4a7e 8dbd 0b94 9b3d
00000020: c3f9 96bd 383f a83c 806f 953d a352 693d
00000030: 1f72 173d 4d78 b23d e097 c6bd a438 e1bc
00000040: 647d 3bbd 6a13 ba38 17a6 953d 13a5 ac3d
00000050: 47eb 493d 4b37 a5bd bc17 c7bc e4b2 843d
00000060: 2722 a53d b3e9 833c 8e82 eebd 1f66 71bd
00000070: febb 6fbd dcf8 903d 39af a8bd c5a0 5cbc
00000080: cb4a dabd 91aa b8bc 2cab d8bd 0154 42bd
00000090: c3f4 eabd baad 8bbd 9b05 f73d 4169 e2bd
000000a0: 3a54 47bd fced 8dbb 0071 c6bd d6ff 333d
000000b0: 11d4 efbd 62cf e53a ed0c 06be 23f6 a83d
000000c0: 9dc5 913d f6dd c1bd dff8 71bd 1208 c1bb
000000d0: 6aae f8bd 234d 2fbd 0268 a9bd 3550 ef3d
000000e0: 9a42 a1bc e47f 993d e90a 5f3d bde0 9f3d
000000f0: cb10 5dbd 6c92 803c 2603 993d 63a7 dbbd
00000100: e82a 563d 71a4 123a 6ada afbd e060 58bd
00000110: 028d 17bd 34fa 123d 2e5e 743d 0606 ebbd
00000120: 9dcf 2e3d 5970 c33d 137f 633d b70f 84bd
00000130: 6c01 b5bc 65dc eebd 6b99 87bc 32fc db3d
00000140: 4532 313c 5537 853d dee3 76bd 688c 9f3d
00000150: 7290 083d ddce e8bd 46ad 353d ec1d 9a3d
00000160: c86a ebbd c90b ca3d c0a2 40bc bd97 bf3d
00000170: 7f0d 9bbd 4ce6 6a3d 9097 d93d 07c5 843d
00000180: 380e b73d c2a0 c83d 234e c7bd 1eeb 863b
00000190: 663b c23d 7ea3 da3d b523 cbbd 139c 943d
000001a0: e59c bc3d d80f 8c3c 0e23 19bd 1fc6 2bbd
000001b0: ac13 633d 0501 aabd d790 793c 7f4b f83d
000001c0: f30a b7bc e720 3abc b9c8 9ebd 6fb6 833d
000001d0: cead 0a3d 73b2 b2bd 22ff 02be 2a68 9abd
000001e0: 480f 913d e533 66bd 1634 89bd 5812 a33d
000001f0: 1330 fcbd 38cf 343d c866 7d3d cc99 4cbb
-0.0114802485 -0.08846347 0.0071842223 0.08813112 0.005525185 0.00052437943 -0.06908853 0.07596596
-0.07371857 0.020537958 0.072966576 0.056963574 0.03697407 0.08714352 -0.096969366 -0.027492829
-0.04577388 8.872787e-05 0.0730707 0.08429923 0.049296644 -0.08067187 -0.02430331 0.06479433
0.08063155 0.016102647 -0.11645995 -0.05893528 -0.058528893 0.07078716 -0.08236546 -0.013466065
-0.10658797 -0.02254227 -0.105795234 -0.047443394 -0.11472466 -0.06820245 0.12061616 -0.11055232
-0.04866431 -0.0043313485 -0.09689522 0.043945156 -0.1171037 0.0017533118 -0.13090868 0.08250072
0.0711777 -0.09466164 -0.059075233 -0.0058908546 -0.12142642 -0.042798173 -0.08271791 0.1168522
-0.019685078 0.07495096 0.054453764 0.07806537 -0.053971093 0.01569482 0.07471304 -0.10725286
0.052287012 0.00055939617 -0.08586581 -0.052826762 -0.03699971 0.035883144 0.05966013 -0.11475758
0.042678464 0.09542913 0.05554111 -0.0644831 -0.022095405 -0.11663131 -0.016552648 0.10741462
0.010815208 0.06504694 -0.060275905 0.07790452 0.03334088 -0.11367581 0.0443547 0.075252384
-0.11494976 0.09865529 -0.011757553 0.09355114 -0.075709336 0.057348534 0.106246114 0.064828925
0.08938259 0.09796287 -0.097317 0.0041173836 0.094839856 0.10675715 -0.0991892 0.07256331
0.09209613 0.017097399 -0.037386946 -0.04193699 0.055438682 -0.08300976 0.015232286 0.12123775
-0.022344088 -0.011360384 -0.077531286 0.06431281 0.03385716 -0.08725443 -0.12792638 -0.07539399
0.07082993 -0.056201834 -0.06699388 0.07962483 -0.12313857 0.04414293 0.061865598 -0.00312196

experts.0.net.2.weight f4 [128, 128]
00000000: 0431 853d 9f15 0d3d b92d ee3c 6947 49bc
00000010: 5f95 ba3d e6e8 bcbd 78ff 34bd a547 043d
00000020: 1c68 83bd 6266 4b3c 3de7 8bbd a4f5 8abd
00000030: 5eda b23c 4f47 11bd f13f a4bc ccc8 3dbd
00000040: 118c ccbc a9fe 5abc 1d07 4fbd 55b3 d73c
00000050: e840 63bd ffd0 b73d f4d7 633d 1099 6a3d
00000060: 0ae8 923d a9e6 45bd 5458 243d 48e1 1fbd
00000070: 1872 78bc 6d15 95bd a97e 4bbd a550 4f3d
00000080: fde9 433d e6f8 79bd c12e b5bd b575 3dbd
00000090: 5d9e 29bd 8423 bcbd c2dc 7fbb 1960 50bd
000000a0: be40 22bb 6727 1bbd 72ca 7fbd 673f 01bd
000000b0: 0780 70bc 6d6a 5abd 68f4 86bc d2f4 3e3c
000000c0: ebc6 a9bd fe6b e83c 75bc a5bd 8353 8b3d
000000d0: 863d 17bd 1900 26bc 44d7 913d 95ca 55bd
000000e0: f1a8 bf3b 04b9 58bc b44a 87bd f383 4b3c
000000f0: 0efe 02bd e9cc 7dbc 3f06 acbd 6574 6abd
00000100: 65d5 853d 5a47 41bd 0f51 1e3d 3ec8 b43d
00000110: 3ad4 b2bd c3a7 15bd 3e13 5ebd 4ce7 953b
00000120: cdeb 35bd ef28 17bd 4e22 673d a551 a8bd
00000130: 162d 0abd be3c 0abd d1cb 093d 49d5 f5bb
00000140: 30a8 3ebd d65d 84bc cf6a b6bd 7f46 433c
00000150: 5e05 6f3d 17df 933c f9c3 453d 07c1 abbd
00000160: 67f1 00bd 923e 863c fcf8 6cbd 92a0 ba3d
00000170: a92b bf3d 5355 883d ba27 9dbd e09d a4bd
00000180: 5c68 a7bd 7dcd ffbc 85dd 70bd 1f9d a7bd
00000190: 4173 343d 87d8 9fbd 280d 3bbd 42f8 193d
000001a0: 15f1 5fbc 57d6 03bd 7847 ae3c d8e1 a0bd
000001b0: 3075 343c 5658 513d a9db 823d 4f23 803d
000001c0: 9842 9b3d 2dad a9bd 56be b63c 5d12 52bc
000001d0: 9ccc f93c 39b5 dcbc 46bc c5bc 5323 babc
000001e0: 1512 95bc 2e84 7c3d ce32 d3bc 292c 343d
000001f0: 2f8e 00bd f38f 833c 0cb0 1c3d 8bec 7fbd
00000200: 1e25 6dbd 301c b23d 8f4c e4ba e043 363d
00000210: 4f08 c4bd 6252 183d 9bfd 9dbc 43ed 773d
00000220: 67c1 013a c989 703d 4243 a7bd af52 44bd
00000230: fcba 86bc 5e49 96bc f346 933c e0a1 80bd
00000240: b259 4f3d 0af0 7ebd f7c9 8bbd c68a edbb
00000250: ed07 afbc a03e a2bb 90d5 9c3d f665 763c
00000260: acee 22bd 3709 b7bd 33e4 81bd 77d3 10bc
00000270: c2f6 543d a18a 893d 57b8 99bd 830d 7dbc
00000280: 474f f7bb ecd7 8ebc b921 353c b7dc 3fbd
00000290: 9b87 683d 84ca 13bd 560d c6bc 5333 47bc
000002a0: 68cc c3bd 3e17 0b3c fd7e a53d f6a8 8fbd
000002b0: ab2d 3cbd 3e8b a63d 99c2 0cbc 6f6c 203d
000002c0: 3b94 23bc 3dac b7bd 2939 493c b2e9 6cbd
000002d0: 5005 843c 3447 40bc d5d0 243b 27c2 2fbd
000002e0: 92fb 863d 5a10 843c e28b e53b 1598 043d
000002f0: 6269 bcbd aa9b 35bd 5d9a b3bd 5c50 ab3d
00000300: 498c 6d3d f7ad 3fbd 94ff 8dbd d949 04bd
00000310: f89a 76bd e27f c03d 6745 5f3d d58c cbbc
00000320: 6ed4 99bc 8cae 2c3d fbbf 193d 6355 a03b
00000330: b43c c13c b163 afbd fc08 ceba e839 97bd
00000340: 54d1 4abd b4d2 61bc 256a d43c ca26 6c3d
00000350: 3ff8 b63d 1ecf 8fbd 3998 78bc b643 873d
00000360: 2d1e 683c bcab 53bc 6847 54bc 86c0 66bc
00000370: eeab 923d c1df 14bd ac3c 143d d0bd 9abd
00000380: 4017 543d 71c9 3abd 588d 74bd 3a17 96bd
00000390: a07e 0e3d 988f 5d3c 1919 af3b 8626 653d
000003a0: 5c59 f53c 404f 983d fa83 143d 95e5 193d
000003b0: c0c8 0c3d d7d3 1cbb f03b 8c3c 0ab2 743c
000003c0: 11a7 c4bd caf1 ea3c e7c2 45bc 11b5 fd3c
000003d0: f2ec 03bd 9ddd 3f3d 15ff 9bbd d444 b1bd
000003e0: 44db 47bd a78e 65bd 8ea4 63bd 7715 363d
000003f0: 7a8a 103c 10d9 ebbc 19bf 9dbd 3745 923d
0.065034896 0.034444448 0.029074537 -0.012285092 0.091105215 -0.09224109 -0.044188946 0.032294888
-0.06416342 0.012414547 -0.068312146 -0.067851335 0.021832641 -0.035468396 -0.02005002 -0.046334073
-0.024969133 -0.01336638 -0.050543893 0.02633063 -0.05548182 0.0897541 0.05562587 0.057274878
0.07173164 -0.048315678 0.0401233 -0.039033204 -0.015163921 -0.07279477 -0.04968134 0.050614018
0.04783057 -0.061028384 -0.08846808 -0.046254832 -0.041410793 -0.091864616 -0.0039041494 -0.050872896
-0.0024757828 -0.037879374 -0.062448926 -0.031554606 -0.014678962 -0.05332415 -0.016473964 0.011655049
-0.08289894 0.028371807 -0.08092586 0.06803038 -0.036923908 -0.010131859 0.07121137 -0.05219515
0.005848997 -0.013227705 -0.06606045 0.012421596 -0.031980567 -0.015490749 -0.08399629 -0.05723991
0.065348424 -0.047187187 0.038651522 0.08827256 -0.08731885 -0.036536943 -0.05421757 0.004574692
-0.04441433 -0.03690427 0.0564292 -0.082186975 -0.033734404 -0.033749335 0.03364164 -0.007502232
-0.046547115 -0.016158026 -0.08907091 0.011918663 0.058354728 0.018050713 0.048282597 -0.083864264
-0.03148022 0.016387258 -0.057854638 0.091126576 0.093344994 0.06656899 -0.07673593 -0.08037925
-0.08174202 -0.031225914 -0.058805007 -0.08184265 0.044055227 -0.07804971 -0.045666844 0.037590273
-0.013668318 -0.032186832 0.021274313 -0.07855576 0.011014268 0.051109634 0.06389553 0.062567346
0.07581061 -0.08284984 0.022307556 -0.012821761 0.030493073 -0.026941882 -0.024137627 -0.022721922
-0.018197099 0.061649494 -0.025781062 0.043987427 -0.031385597 0.016059851 0.03825383 -0.062481444
-0.057896726 0.086967826 -0.0017417836 0.044498324 -0.09571897 0.03718794 -0.019285968 0.060529005
0.00049497787 0.058725152 -0.08167125 -0.047930416 -0.016446583 -0.018345531 0.017978167 -0.06280875
0.05062265 -0.062240638 -0.06825631 -0.007249209 -0.021366084 -0.004951313 0.07657921 0.015038958
-0.039778396 -0.089373045 -0.06342354 -0.00883948 0.05199314 0.067158945 -0.07505863 -0.015445116
-0.0075472924 -0.017436944 0.011055403 -0.04684135 0.05676995 -0.036081806 -0.024176281 -0.012158233
-0.09560472 0.008489428 0.08080862 -0.070146486 -0.04594199 0.08132027 -0.008591318 0.03916591
-0.009984071 -0.08968399 0.012281694 -0.057840057 0.016115814 -0.011735726 0.0025148888 -0.042909767
0.06590952 0.016121078 0.0070052007 0.0323716 -0.09199788 -0.044337906 -0.08769677 0.08364937
0.057995114 -0.046796765 -0.06933513 -0.03229699 -0.060206383 0.09399392 0.054509547 -0.024847427
-0.018778052 0.04215865 0.037536602 0.0048929914 0.023588516 -0.085639365 -0.001571923 -0.073840916
-0.049516037 -0.013783146 0.02592952 0.05765418 0.08934068 -0.07021926 -0.015173011 0.06604712
0.014167351 -0.012919363 -0.012956478 -0.014083987 0.07161699 -0.0363462 0.036190674 -0.07555735
0.051779985 -0.045602266 -0.05970511 -0.07328649 0.034788728 0.013523005 0.005343568 0.055944942
0.029949836 0.07436991 0.036258675 0.037572462 0.034371138 -0.0023929977 0.017118424 0.014935026
-0.09602178 0.028679747 -0.012070394 0.030970128 -0.03220839 0.046842206 -0.076170124 -0.08655706
-0.048793092 -0.056044247 -0.055576853 0.044454064 0.008822078 -0.028790027 -0.077024646 0.07142108

experts.0.net.2.bias f4 [128]
00000000: b22e 813d 4457 ae3c 0b72 333c 99de 75bd
00000010: 7f80 75bd ccb7 cebb 5d22 2dbd 2199 a33d
00000020: 70c0 0a3d 9396 a5bc 4b35 493d 0620 c3bc
00000030: c0af 5d3d af5c 99bd 4dfa 8fbd 5603 79bd
00000040: fee4 8c3d 5e16 0ebd 5706 b5bd 962c 863c
00000050: 1c29 d5bb b02e 15bb 30b2 71bd 0595 55bd
00000060: 3d97 bbbd 3e0a b9bc 9b1a ddbb ee12 163d
00000070: 1903 babd 9157 40bc caf9 1b3d 8e80 343d
00000080: fd70 993c 8d32 8dbd e628 7fba 0e4e 54bd
00000090: 7dfb bdbc ac50 6bbd 93db 8ebd 7ba8 103c
000000a0: 67e5 433c a46b 85bd 55b3 0c3d 0234 f73b
000000b0: 6437 a2bd 154a e63a 30ba e83b 4951 943d
000000c0: 20bf 29bd bf87 0fbd bd6d e4bc 87e1 e43c
000000d0: 2a5f dc3c 232f 84bd 2199 8cbd a527 3c3d
000000e0: 3b04 90bd 97a5 243c 6250 acbd e5cb 02bd
000000f0: da07 923d 23ff bebd 57e3 9ebd 8c79 38bd
00000100: 191c 8f3c 2fa0 b0bd c28a 94bd ad8d b2bd
00000110: 56e6 a63d f7ba 1fbd aef7 1c3d a042 9e3d
00000120: a1d0 463d c805 47bd 690f 73bd e783 bf3d
00000130: d120 aabd 7936 8d3c 477d 21bd 9c80 b3bd
00000140: 1f46 46bb 629f c63c 9615 abbc f85e 9cbc
00000150: 4378 01bd 8e15 853c 93f1 2bbd 0017 f7bc
00000160: bcce 663d ad5e ad3d 8711 bb3c c0de 41bd
00000170: 8d08 cfbd 05c8 d43c 44ef 55bb 56f5 c0bd
00000180: 740e 053c 0d3d 133d 9ed3 153d 80fa bebd
00000190: aa40 163d 712b 9dbd 852e 52bd 21a8 15bd
000001a0: 2fc2 3f3d 29ae c43c fccb 54b9 d367 873d
000001b0: 1589 993c b02e 823d 8480 cf3b 6b60 0dbb
000001c0: 599c 803d faa8 903d e580 a8bb 96a1 c43c
000001d0: f692 5f3c c2b8 13bd 54b1 503d 04f0 7a3d
000001e0: c550 4d3d 6751 bd3d 6609 6d3d c2cd 1ebb
000001f0: 73a4 34bc d5ea 843d 4b09 123d c2a1 28bd
0.063077345 0.021281846 0.010952483 -0.06002674 -0.059936997 -0.0063085314 -0.0422691 0.079881914
0.03387493 -0.020213401 0.04912309 -0.02381898 0.054122686 -0.07488381 -0.07030163 -0.060794197
0.06879614 -0.0346893 -0.088391 0.016378682 -0.0065051448 -0.0022763424 -0.059007823 -0.05214407
-0.09159706 -0.022587892 -0.0067475564 0.036639147 -0.09082622 -0.011739627 0.038080014 0.04406791
0.018730635 -0.068944074 -0.00097335724 -0.05183225 -0.023191208 -0.05744998 -0.06975474 0.008829231
0.011956549 -0.065146714 0.03435071 0.0075440416 -0.07920721 0.0017569686 0.0071022734 0.072420664
-0.041442037 -0.035041567 -0.027884359 0.027939571 0.026900847 -0.06454303 -0.068651445 0.045936245
-0.07032057 0.010049245 -0.08413769 -0.03193273 0.07130404 -0.09326007 -0.077582054 -0.04503779
0.017469453 -0.086243026 -0.072530285 -0.08718429 0.08149402 -0.038996663 0.038322143 0.077275515
0.048538808 -0.048589498 -0.05934087 0.0935133 -0.083070405 0.017237889 -0.039426114 -0.08764765
-0.0030254198 0.024245922 -0.020884316 -0.019088253 -0.03160883 0.01624563 -0.04197843 -0.030162334
0.0563495 0.084653236 0.022835506 -0.04733157 -0.10109053 0.025974283 -0.0032643834 -0.09421794
0.008121122 0.035946894 0.036578767 -0.09325123 0.036682762 -0.076743014 -0.051313896 -0.036537293
0.046816047 0.024008827 -0.00020293886 0.066116 0.018742124 0.06356561 0.006332459 -0.0021572362
0.06279821 0.0706348 -0.0051423186 0.024002831 0.013645878 -0.03606487 0.050950363 0.061264053
0.050125856 0.09244042 0.05787029 -0.0024231528 -0.011025536 0.06490103 0.035653394 -0.04116989
